checkpoint/0_LunarLander_5598_solved.pth (torch_old, 8217 bytes, 5 tensors)

input_layer.weight f4 [128, 8]
00000000: 4e48 a53d 5e1d 1abf 4c3e 31be 4c8a 453e
00000010: 85bb 6ebd a55d df3c b83d 83be 8895 4e3e
00000020: 0efa 143c 23ac 27bd b45d 91be 9c2d c13c
00000030: efe0 21bd 988d 8d3d 51f9 97be b3aa 7dbe
00000040: 1f9a 8d3e a8bb d5be 2618 7f3c 3266 823e
00000050: 87a5 3fbe d7e9 9e3d 822b 91be 8496 edbd
00000060: 3095 3c3f 4014 a0bf ccc4 283d 5e89 01c0
00000070: dc5a 02c0 dc24 1ac0 2db0 8dbf 4ab6 a23e
00000080: feea d23e e7b5 10bf 567a c23d 2842 c83e
00000090: 2027 a43d 677b b0bd dde3 e1be 89cc 8b3d
000000a0: 73b7 a6bd f594 ccbd 488f f3bd b045 f03c
000000b0: 3a92 a7be bf65 cb3d 8d73 88be f104 fabd
000000c0: 66e8 3b3e 1583 00bb 82a2 083e c3cd 873d
000000d0: fcf6 89be bf89 943e 9f12 2abf 2155 a3be
000000e0: 6bb2 f03d acef f9bf 1e0b 2f40 74c0 8940
000000f0: a451 fcbf 1d26 f33e 44a0 8cbe 3c5c 6cbe
00000100: 474a 943e f9bb debe ffcb 6ebe 5533 f43e
00000110: 0529 99bd 00e4 94be 06ff 68be 6692 93be
00000120: e930 b93e 559b 22be 7324 bd3e 396f 5a3e
00000130: 7a05 91be bccd bd3e ad4f 89be ae3c debd
00000140: dc30 ae3f 44a5 3fbf 28cd 9ebd f0c6 773f
00000150: 0a8b 55bf 733e a13f 4275 3a3f 0dc3 24c0
00000160: c32d c23d 0819 03be 0f32 fbbe 7f3f 68bd
00000170: 37bf 563e 977a 253e d433 50bf e2bd 203d
00000180: 8dda 833d 782a 0cbf c255 0d3b 2873 a33e
00000190: b4d0 12be 86cc c2bd 23b7 68bd f0ad 633e
000001a0: f873 a4bd 5543 0dbf 65fb 9a3e a3c7 103e
000001b0: f5b2 9b3d 48d4 20be f5d0 fabc 6b83 bbbe
000001c0: dcb2 95bd cc60 cebe 3052 b53d 64e4 6b3e
000001d0: cbba 2b3b e5b8 80be a3d3 2dbf 9db3 9cbd
000001e0: aff8 c03e a65b 8ec0 05fa 513f 503f 06c0
000001f0: da34 9fbd 17f2 8a3e efaa 30c0 9649 123e
00000200: 0ca1 9c3e 5d9f 9fbe d14b afbd 1dc7 6b3f
00000210: b1a1 12be d7ec bc3e 93ee cabf 204f 103e
00000220: 9a4c 013e 4340 d9be 7754 d5bd 21e7 973e
00000230: 9163 afbd 25af 5f3e d93f cabe 4074 e9be
00000240: a8e9 663e 5267 223d 6e97 b33e 0ab7 0d3e
00000250: e8fe b6bd def7 41bd b51e 483e d52d fbbe
00000260: 8a41 033e de0e 2dbd 5937 ec3e 315c 913e
00000270: 7d13 a6be 8271 613d 5e98 35bf 7a15 163e
00000280: a6d1 993e a96a 8abf e65e 503e cf3a 8e3f
00000290: 7fde c63e 789a c7be 953c 51be a32e 2fbe
000002a0: c763 183d 8511 05bd 0fc3 32be f946 933e
000002b0: 35f4 8cbd 0b76 ddbd ee14 0bbf 3240 973d
000002c0: 4771 963d 598c 51be bc4c 53be ad26 23bd
000002d0: 07c0 cbbd 0dbf 6dbe e828 f3be 2056 22bd
000002e0: 982d 8c3d 9f4e 853d ba8b 9e3e a5fe 2abe
000002f0: 5c03 5dbe a198 d63d fbb3 9ebe 5c6d babe
00000300: 0f4c 2d3e 4c24 b7be 7bff 01bd 27f4 b93e
00000310: bca1 57be b3bc fe3d 70b9 1ebe c0b4 35bd
00000320: 3d6f f53d fad8 b63d 2a3d fd3c 19e4 82be
00000330: 2b16 05be 8baa 19be aebc f6be 9d34 f4be
00000340: b4d6 dcbc 5021 a3be 22d5 1bbe 02be 273e
00000350: 4da0 c3be b90e 273c 27d9 90be d224 9fbe
00000360: 078e a4bc fef9 08bf 76ec 073e a304 0b3f
00000370: 731f ddbd afde 083e 5e85 d13c 70df c7bd
00000380: a4a7 c3bf e0be a0be 8379 da3f 7824 bbbe
00000390: 9177 91bf c1ba b73f 2180 4fbf 2750 d23e
000003a0: c7a1 97be d281 12bd b9e6 21bf c7ea c33e
000003b0: 7dc1 62be 4c8c 8dbe b333 6dbf 0ec3 57bf
000003c0: ddba 843e 8486 8fbf 0888 be3e 6568 c53d
000003d0: 1c19 aebe e39b 40be 0718 15be 3ad0 3fbf
000003e0: 6607 98be 93e6 b5be 3a8f 14bd 6d8e 613e
000003f0: 56b4 5bbe f99f 9c3e 835e babe 6b72 a2be
0.08070432 -0.6020106 -0.1730892 0.19291037 -0.0582843 0.027266333 -0.25633025 0.20174229
0.009092821 -0.040935647 -0.28391802 0.023581319 -0.039521154 0.069117725 -0.296824 -0.24772148
0.27656648 -0.41744733 0.015569722 0.25468594 -0.18715487 0.07759445 -0.28353506 -0.11600974
0.7366514 -1.250618 0.041203305 -2.0240092 -2.0367956 -2.4084997 -1.106939 0.317797
0.4119491 -0.5652756 0.0949599 0.39112973 0.08015275 -0.08617287 -0.44119158 0.06826121
-0.08140459 -0.09989349 -0.11892563 0.029330105 -0.3272875 0.09931516 -0.26650658 -0.12207974
0.18350372 -0.001960938 0.13343242 0.06631043 -0.26946247 0.29011342 -0.66434664 -0.31900886
0.117527805 -1.9526267 2.7350535 4.304743 -1.9712415 0.47490016 -0.27466023 -0.2308206
0.2896292 -0.43502787 -0.23320006 0.47695413 -0.07478527 -0.290802 -0.22753534 -0.2882263
0.36170128 -0.15879567 0.3694187 0.2133149 -0.2832449 0.37071025 -0.268186 -0.108514175
1.3608661 -0.7486155 -0.07753974 0.9678793 -0.8341528 1.2597183 0.7283517 -2.574405
0.094813846 -0.12802517 -0.4906163 -0.05670118 0.2097138 0.16160046 -0.81329083 0.039243586
0.0643817 -0.547523 0.0021566008 0.31923795 -0.14337426 -0.09511666 -0.056815278 0.2223432
-0.08029932 -0.55180866 0.30269924 0.14138655 0.07602493 -0.15705979 -0.030617217 -0.366237
-0.07309505 -0.40308225 0.08853567 0.23036343 0.0026203867 -0.25141063 -0.67901057 -0.07651446
0.3768973 -4.4486876 0.82022125 -2.0976143 -0.077737525 0.27137825 -2.760433 0.14285883
0.3059162 -0.31176272 -0.08559383 0.921007 -0.14319493 0.36899444 -1.5854057 0.14092684
0.12626877 -0.4243184 -0.10416501 0.29668525 -0.08563913 0.21844156 -0.39501837 -0.45596504
0.2255007 0.039649315 0.3507647 0.13839355 -0.08935338 -0.047355525 0.19542964 -0.49058405
0.1281797 -0.042250507 0.46135977 0.2839065 -0.32436743 0.05503989 -0.7093562 0.1465663
0.30042762 -1.08138 0.20348701 1.1111697 0.38841626 -0.38985038 -0.20433266 -0.17107634
0.03720453 -0.03248741 -0.17457221 0.28765085 -0.06882516 -0.108135305 -0.5432881 0.07385291
0.07345825 -0.20463695 -0.2063474 -0.039831806 -0.09948736 -0.23217411 -0.47492146 -0.039632916
0.06844634 0.065091364 0.30965978 -0.16698702 -0.21583313 0.104783304 -0.3099669 -0.3641156
0.16923545 -0.3576988 -0.031737786 0.36319086 -0.2105779 0.12438335 -0.15500426 -0.04436183
0.11984108 0.08928104 0.030912954 -0.2556465 -0.12996738 -0.15006463 -0.48190826 -0.4769639
-0.026957847 -0.31861353 -0.15218022 0.16381076 -0.38208237 0.010196381 -0.28290674 -0.3108278
-0.020087255 -0.5350646 0.13273796 0.5430395 -0.10797014 0.13366197 0.02557629 -0.09759414
-1.5285535 -0.31395626 1.7068332 -0.3655126 -1.1364614 1.4353868 -0.81054884 0.41076776
-0.29615614 -0.035768338 -0.6324268 0.38265058 -0.22144122 -0.276461 -0.9265701 -0.84282005
0.25923815 -1.1212926 0.3721316 0.09639052 -0.34003532 -0.18809466 -0.14559947 -0.74927104
-0.29693145 -0.35527477 -0.036269404 0.22026987 -0.21455511 0.305908 -0.36400232 -0.3172792

input_layer.bias f4 [128]
00000000: 4412 2abf 1aa1 4bbf 5d48 e9be cbae 58bf
00000010: 3ec8 2dbf 56ff 3bbf 3ad1 26bf c352 35bf
00000020: bd2a 3fbf 613e 39bf 84bb 88bf 4df2 13bf
00000030: 9d28 0ebf fa6f 33bf f2e8 d7be bd5f a03e
00000040: c490 29bf d687 36bf f540 3dbf d9ff 2abf
00000050: 99f9 9ebf 94ce 8fbe 3579 08bf 9cbb 36bf
00000060: 8fe6 b7be c978 0bbf eb85 14bf 306b 3fbf
00000070: a524 b8bf ac8c bbbf 7987 4cbf 0cf7 74bf
00000080: cacb 0cbf ce9e 3ebf 438a 09bf ced2 0dbf
00000090: adc6 67bf 13d1 2bbf 909d ff3e 0631 39bf
000000a0: 7c98 68bf a366 0fbf 2582 9dbf 964c 56bf
000000b0: fd50 cabf 5d8e 40bf 309d 083d e864 6abf
000000c0: ad06 a2be 307c 8bbf a884 6abf 33f8 1fbf
000000d0: 6698 63bf 1fd0 e7bf 83cf 5fbf 2266 f0be
000000e0: a202 4cbf 0b33 73be 7f18 f3be 6db0 a4bf
000000f0: 87d1 10bf 6b6d 18bf 91b7 1abe e8de 48be
00000100: 3dac a3bf 4e71 dbbe 1223 3ebf 6859 f5be
00000110: ee61 88bf 48fa 24bf a64a 95bf bd4c 56bf
00000120: 045c 61bf 4aad 85be 5a29 5fbf efde 86bf
00000130: e5fd 98bf c863 c1bd fc67 89bf 61aa cebe
00000140: 81d2 ecbe 1f84 08bf 0807 85bf 4ec8 b7be
00000150: a436 42bf f0ea 6fbf 9b80 77bf 3ac5 17bf
00000160: c917 80bf 8cac 89bf d63a 9cbf 9d40 7cbf
00000170: e1ed 2ebf c100 4dbe 47e4 0c3e 9bc4 74bf
00000180: cfd2 8cbf e95d 76bf 31c2 32bf 2656 aabf
00000190: 123d fdbe 8380 62be b1dc 04bf 70c5 4abf
000001a0: a4c8 0ebf 7cd2 09bf 6c87 31bf 540f 91bf
000001b0: 90f7 81bf 1b87 4bbf 27a7 30bf 1baf 39bf
000001c0: 3574 2bbf 5ad5 86bf eb0b 5abd 583c 22bf
000001d0: 6c1b e7be c108 2ebf c4bc 5dbf db1a 4fbf
000001e0: 08e9 4bbf bd97 9abf 1412 fdbe 1c94 25bf
000001f0: b006 68bf 2f31 44bf b22f e9be adc1 8fbf
-0.6643412 -0.79542696 -0.4556302 -0.8464171 -0.6788367 -0.73436487 -0.65163004 -0.7082941
-0.7467459 -0.7236081 -1.0682225 -0.57791597 -0.5553072 -0.7009274 -0.4216991 0.31323043
-0.6623652 -0.7130102 -0.7392724 -0.6679664 -1.2419921 -0.28087294 -0.5330995 -0.7138002
-0.3591809 -0.5448118 -0.5801684 -0.7477293 -1.4386183 -1.4652305 -0.79894215 -0.95689464
-0.5499846 -0.74461067 -0.53726596 -0.5539979 -0.9053753 -0.67115897 0.49924898 -0.7234043
-0.9085767 -0.56015986 -1.2305342 -0.8371061 -1.5805966 -0.7521723 0.03335303 -0.9156022
-0.31645718 -1.0897274 -0.9160867 -0.62488097 -0.88904417 -1.8110389 -0.8742601 -0.4695292
-0.7969152 -0.2374994 -0.47479627 -1.2866341 -0.56569713 -0.5954196 -0.15109088 -0.19616282
-1.2786938 -0.42859882 -0.74272263 -0.47919774 -1.0654886 -0.644444 -1.1663406 -0.83710843
-0.8803103 -0.26108772 -0.8717247 -1.0536784 -1.1952482 -0.0944286 -1.0734859 -0.40364364
-0.46254352 -0.533266 -1.0392771 -0.35895008 -0.75864625 -0.9371786 -0.9668061 -0.5928532
-1.0007259 -1.0755782 -1.2205455 -0.9853609 -0.68331724 -0.20019819 0.13758956 -0.95612496
-1.1001834 -0.96237046 -0.6982756 -1.330754 -0.49460655 -0.22119336 -0.5189925 -0.79207516
-0.55774903 -0.538368 -0.6934726 -1.1332803 -1.0153675 -0.7950303 -0.69005054 -0.72532815
-0.6697419 -1.053386 -0.053234022 -0.6337333 -0.4513811 -0.6798211 -0.8661616 -0.80900353
-0.7965245 -1.2077557 -0.49427855 -0.6467912 -0.90635204 -0.7663755 -0.455442 -1.123098

action_layer.weight f4 [4, 128]
00000000: 1f98 d0bd 496e 39be d09b d73d a7f9 cebf
00000010: a50a 13be b541 373d a2bc 71be 23fb d03e
00000020: e2e4 cd3d 0b24 c7bd 1047 5fbf 230a 233e
00000030: cf4e aabe 945f 95be 3dd7 64be 16da ecbe
00000040: 459d 213d 1923 97be 4315 7b3b 16a8 babd
00000050: 44f8 d7bd 52c4 f03e b0ba 27be 97f0 64be
00000060: 9d55 103e 5b28 d5bd 01b2 7cbe 1453 bbbe
00000070: e946 1ebf 542e 783d 637e bdbe dfd2 1bbe
00000080: 1685 8fbe 733e 28c0 3e14 f23e fdb1 aabe
00000090: 2020 3f3f 29dd 7dbc 8e60 1a40 934f bc3d
000000a0: 173d 89bf c8ca c1be 6166 cebe 60e6 56be
000000b0: 1eb3 333e aa9f 9abd 0c17 a4bf 9719 07bf
000000c0: 4b77 1e3e a220 9a3e 71b2 023f 3f19 18be
000000d0: 1b41 10bd 3cc8 bd3e 158b 3abe dfdd 29c0
000000e0: 6780 f2be 675d 25be a528 dcbe 8798 723f
000000f0: 9b73 a53b 5283 9a3e 5590 2fbe 448f a83f
00000100: f176 bdbe 0bbb 893f c641 b43c 0320 0ebe
00000110: 5dcd c33e 6a5f 1bbe 58d8 0bbe 740b a83e
00000120: 9061 26bf f185 9fbd 00b4 febd 9a13 7dbe
00000130: 745f 753f 6cf0 22c0 dece b73d 78e0 45bd
00000140: 35ba 89be fe59 533e 15d2 e2be 44d3 0ebe
00000150: 8c2b a83d 2fdb 923e 330b b3be bc00 34bf
00000160: 6155 d5be f0e8 7cbf 8f15 dcbf 9fed ab3d
00000170: bad6 83be 799f 43bf 2e5d 26c0 f34c 98be
00000180: 928a e6be ae3f 05bf 0a0b 7f3d a358 d2bd
00000190: 94b1 1b3e 3f18 15bf 778d c6be 7b91 283e
000001a0: c7bc aabe 950b fcbe 967f a83e 1221 a13e
000001b0: de12 90bf 1a3d 2c3d 1a84 50be 6ce0 e8bd
000001c0: 8377 93bd e6df 8cbe 7f94 a5bf ae1c 69bf
000001d0: 73c9 a03d 09b3 c93e db5a afbf dd76 d8bd
000001e0: c939 36bd 41eb 173f 491a bebc feeb 4d3f
000001f0: d8c3 61bf e6b5 25bf 469d 2bbe b90f 633f
00000200: ff63 3f3d 2656 0f3e e8d7 b8bc 51df 843f
00000210: 7d80 8ebd 9de3 b13e e555 bbbe 84f7 3740
00000220: d832 8a3e 879c 053d 958b 0b40 5e8c 22bf
00000230: a064 68be 08b6 ee3e c343 0d3f 3e11 23c0
00000240: b66f bf3e 4913 95bd d83d 2fbe bc82 8bbe
00000250: 5633 5f3f 218c d13e ccf8 28bc 7989 c13c
00000260: 1c50 80bc 7a79 913e e439 fa3b 6c29 043f
00000270: 2674 aebf c590 d13c 5ad2 e33e ab1f 213e
00000280: eb79 21be bd7c 0cc0 fcf0 43bf 1d15 97bd
00000290: 780c 5c3d 9331 62bd b152 773f fb63 89be
000002a0: 632e 81be 354b 51be 4de4 d03f 075c d03f
000002b0: 1dc7 a5bc 8b3c 043f 9d26 8240 5ec4 5c3e
000002c0: 411e 523c d8cd dd3e c91c 233f 83eb a93d
000002d0: 6de1 4a3d 516d bbbf 9691 8a3e 439f 0b40
000002e0: bad9 91be 3a1c af3b 304b 233f 08eb 01c0
000002f0: 77fb d23d ccf2 84be a668 72bc e906 7940
00000300: af2f c5be f2c8 c63e 61ba 1ebf dd3e a63d
00000310: 177e 1abf 3a26 383e f071 453f fb39 0e3f
00000320: 4840 203f a936 be3e 94e8 8bbd 5646 7e3e
00000330: c2ea bbbe b11f e5bf 184d e33e 3818 8fbd
00000340: d88a 13be 5794 f9bc c9e8 15bf cfd2 123e
00000350: b365 a6be 6035 133f 5b17 7ebf b1a9 20c0
00000360: 8b74 28bf 62f7 793f ec62 8440 eb64 a33e
00000370: e226 82be 32c6 eebf 7c0a cdbe e31a ea3e
00000380: f227 2d3f e3f3 283f cd24 35bf d68e 9a3e
00000390: 4dc9 10be f497 2f3c 7b77 443e 42d9 9f3d
000003a0: a0c6 293e bca3 e5be 160f cf3e cf68 fd3e
000003b0: b33a d640 37bf 143f aafe ad3e c243 be3e
000003c0: a45e 293d 0e55 b13d d322 22c0 5554 88be
000003d0: e607 bd3e cda6 a13e 2407 c5bf eb34 eb3c
000003e0: a856 82be a56b c03d e9ec 8d3e 71dd 28bf
000003f0: 946a 85c0 d233 363e 3cc7 28bb 911c 46bf
-0.10185265 -0.18108477 0.10527766 -1.6169938 -0.1435953 0.044740397 -0.23607114 0.40816602
0.100534216 -0.097236715 -0.8721781 0.15921836 -0.3326325 -0.29174483 -0.22347732 -0.46260136
0.039456625 -0.29518965 0.0038312234 -0.09114091 -0.105454 0.4702478 -0.1637981 -0.22357403
0.14095159 -0.10408088 -0.24677278 -0.3658682 -0.6182695 0.060591057 -0.37010488 -0.1521716
-0.28031224 -2.6288116 0.4728107 -0.3333892 0.74658394 -0.015494623 2.4121432 0.09194865
-1.0721768 -0.37850022 -0.40312484 -0.20986319 0.17548797 -0.07549985 -1.2819533 -0.5277342
0.15475194 0.30103022 0.5105353 -0.1485338 -0.03521834 0.3706683 -0.18217118 -2.654167
-0.47363588 -0.16148911 -0.4299976 0.9476399 0.0050491816 0.30178314 -0.17144902 1.3168721
-0.37004808 1.0760206 0.02200402 -0.13879399 0.38242617 -0.15173116 -0.13656747 0.32821238
-0.6499262 -0.07789219 -0.12436676 -0.24714509 0.95848775 -2.5459242 0.08975004 -0.048309773
-0.26899877 0.20639798 -0.44300905 -0.13947779 0.08211431 0.2868285 -0.34969482 -0.7031362
-0.416667 -0.98792934 -1.7194079 0.08394932 -0.2574976 -0.7641521 -2.5994372 -0.29746208
-0.45027596 -0.5205029 0.062266387 -0.10270812 0.1520446 -0.5824012 -0.38779804 0.16461746
-0.3334715 -0.49227586 0.3290984 0.31470543 -1.1255758 0.04205046 -0.20362893 -0.1137093
-0.072005294 -0.2751457 -1.2935942 -0.91059387 0.078509234 0.39394405 -1.3699602 -0.10569546
-0.044488702 0.59343344 -0.023205893 0.8043822 -0.8818946 -0.6473068 -0.16759214 0.88695866
0.046726223 0.13997707 -0.02256389 1.0380651 -0.06958101 0.34743968 -0.3658897 2.8744822
0.26991916 0.03261998 2.1803944 -0.63495433 -0.22694635 0.46623254 0.5518152 -2.5479274
0.37389916 -0.07279069 -0.17113435 -0.2724818 0.8718771 0.40927222 -0.010313224 0.023625122
-0.0156632 0.28412992 0.0076362956 0.51625705 -1.3629196 0.025581727 0.44496423 0.15734737
-0.15769164 -2.1951134 -0.7653959 -0.07377074 0.05372283 -0.05522306 0.9661055 -0.26834092
-0.25230703 -0.20438845 1.6319672 1.6278085 -0.020236546 0.5165488 4.0672135 0.21559283
0.012824596 0.4332111 0.637158 0.082968734 0.04953139 -1.4642736 0.27064198 2.1815956
-0.28486425 0.005343941 0.637866 -2.0299702 0.10301869 -0.2596649 -0.014795458 3.8910468
-0.38512942 0.38825184 -0.6200314 0.08117459 -0.6034865 0.17983332 0.7712698 0.5555722
0.62598085 0.37151077 -0.0683147 0.24831519 -0.36702543 -1.7900296 0.44394755 -0.06987041
-0.14408433 -0.030466242 -0.58558327 0.1433823 -0.32499465 0.5750332 -0.9925439 -2.5103571
-0.6580283 0.976431 4.1370754 0.31912932 -0.2542029 -1.8654234 -0.4004706 0.45723638
0.67639077 0.6599714 -0.7075928 0.301871 -0.1413929 0.010717381 0.19186203 0.078051105
0.16579676 -0.44851482 0.40441197 0.49494025 6.6946654 0.5810427 0.33983356 0.3716107
0.041350022 0.08658801 -2.5333755 -0.2662684 0.3692009 0.3157257 -1.5392804 0.028711757
-0.25456738 0.093955316 0.2771981 -0.6596289 -4.16926 0.17793205 -0.0025753519 -0.7738734

action_layer.bias f4 [4]
00000000: 4fbf 8b3e 7554 ce3e 0bc8 97bf 5bc2 cd3f
0.27294394 0.4029881 -1.1857923 1.6074938

value_layer.weight f4 [1, 128]
00000000: 681a a23c cfbc a43d 6153 a8bc b03d 5abf
00000010: dc05 15bc 80fb 343d abf8 6a3d ec62 5d3d
00000020: db13 c03d a0d2 3f3e d186 843e 258d 63bc
00000030: 8738 343d bf21 e1bc cdfb 143e 3442 883e
00000040: 8e1b c13c 3217 a3bd 15d7 a33d 4a56 f03d
00000050: c399 ecbe bbcc 203a 3a09 2e3b a442 ec3d
00000060: 23bc ec3c 5b1b 90bc 3af0 1cbd 8a5b 553e
00000070: 33ca 5bbe 4d59 fb3c 1b5c 023e e2d0 343c
00000080: 5867 083d edc7 bcbc f0b1 703e fc36 a23c
00000090: a9a9 1cbe b3b2 043e 182c d8be f08f 10bd
000000a0: b739 10be 6a2c 0bbd 1a46 f2bd 7776 b93d
000000b0: 5ec2 103f 8f95 95bd f53c 69bf 8197 02bc
000000c0: 017e 403e 58a4 e33d a756 aebd 68d9 2cbd
000000d0: ebca 5e3d e037 b7bd 758e 83bd 8048 1d3d
000000e0: 818b c63b 65e6 74bc 2d41 313d 50b1 093f
000000f0: 2e2c 2cbd 798d 6dbe ee2b c73e a38c 7b3e
00000100: 3b07 023e 4c9c 9ebd ea83 bfbb 4f37 443d
00000110: 886b 553e 232a f03d a0e6 05bf 2cfd 03be
00000120: 5916 473e 86ef f33d 73d4 973d bb0f 32be
00000130: 4e36 0f3e 6276 7abe 9e8d 523f 1266 89bc
00000140: b5b9 ccbc 9ea5 8ebd 6cb5 8ebd f310 cb3d
00000150: 400d 2cbd 3321 0ebe c775 d3be 9d14 1f3e
00000160: 62b6 873d 525a 8f3d 394e 2cbd 1edd 6bbe
00000170: 3c0b 1a3e b4af 073d 7d33 0abf e2e6 a83d
00000180: 7e6d 7c3d 6f53 fdbd 07cd 07be d974 1bbf
00000190: 53a0 ad3d 239d 873e dcb3 b0be 3165 4dbe
000001a0: 78bf 443c 72cb bd3d 2502 003e 8d42 923d
000001b0: ef9a da3d 49f8 593c 4831 88bd ae5c ab3d
000001c0: eef3 073e db12 c33e 4fb3 3fbd ea30 00bf
000001d0: 1953 393d 8935 ec3a 2662 12bf 64de b6bc
000001e0: c9a9 583b f6c8 153e b635 7f3d 0d6c 523f
000001f0: 0aa8 0ebf e822 d53d 47d8 403d 5515 f9bc
0.019787982 0.08043825 -0.02054757 -0.8525038 -0.009095635 0.04418516 0.057366055 0.054049417
0.09378787 0.18732691 0.25884107 -0.013888632 0.04399922 -0.027481912 0.1454918 0.2661301
0.02357271 -0.079634085 0.08000008 0.11735208 -0.4621106 0.0006134023 0.0026555792 0.11536148
0.028898304 -0.01759117 -0.038315035 0.208357 -0.21463852 0.03068223 0.12730448 0.01103613
0.03330168 -0.02304455 0.23505378 0.01980161 -0.15299095 0.12958793 -0.4222114 -0.03529352
-0.14084516 -0.033977903 -0.11829777 0.090557985 0.5654658 -0.07303917 -0.9110864 -0.007970692
0.18798067 0.111153305 -0.085126214 -0.042199522 0.054392736 -0.08946204 -0.06423656 0.03839922
0.0060591106 -0.014947508 0.043275047 0.5378618 -0.04203432 -0.23198499 0.38900703 0.24565367
0.1269807 -0.07744655 -0.005844583 0.04790431 0.20841801 0.11726787 -0.5230503 -0.12889546
0.19442119 0.1191092 0.07413568 -0.17388813 0.1398556 -0.24459222 0.8224734 -0.016772304
-0.024990896 -0.06965183 -0.06968197 0.09915342 -0.042004824 -0.13879852 -0.41300794 0.15535207
0.06626584 0.06999649 -0.042066786 -0.23033568 0.15043348 0.033126548 -0.53984815 0.082471624
0.061627857 -0.12369429 -0.13261805 -0.6072517 0.08477845 0.26487073 -0.34512222 -0.20058133
0.01200854 0.0926732 0.12500818 0.071416 0.106740825 0.013303825 -0.06650025 0.083672866
0.13276646 0.38100323 -0.04680186 -0.50074637 0.045245264 0.0018021326 -0.5718101 -0.022322841
0.0033060184 0.14627442 0.062307082 0.8219612 -0.5572516 0.104070485 0.04708126 -0.03040568
