checkpoint/0_LunarLander_5100_solved.pth (torch_old, 8217 bytes, 5 tensors)

input_layer.weight f4 [128, 8]
00000000: 4e48 a53d 5e1d 1abf 4c3e 31be 4c8a 453e
00000010: 85bb 6ebd a55d df3c b83d 83be 8895 4e3e
00000020: 0efa 143c 23ac 27bd b45d 91be 9c2d c13c
00000030: efe0 21bd 988d 8d3d 51f9 97be b3aa 7dbe
00000040: 1f9a 8d3e a8bb d5be 2618 7f3c 3266 823e
00000050: 87a5 3fbe d7e9 9e3d 822b 91be 8496 edbd
00000060: 95da 823f 69c9 91bf 7ceb a0be da1a c4bf
00000070: 1502 dfbf 605b 0bc0 f196 a6bf 1c47 b73e
00000080: feea d23e e7b5 10bf 567a c23d 2842 c83e
00000090: 2027 a43d 677b b0bd dde3 e1be 89cc 8b3d
000000a0: 73b7 a6bd f594 ccbd 488f f3bd b045 f03c
000000b0: 3a92 a7be bf65 cb3d 8d73 88be f104 fabd
000000c0: 66e8 3b3e 1583 00bb 82a2 083e c3cd 873d
000000d0: fcf6 89be bf89 943e 9f12 2abf 2155 a3be
000000e0: f20d 0f3e d6fa 02c0 0e25 1540 7690 8540
000000f0: 3416 02c0 ed9e 223f bcfb 1ebd 3f6a aabd
00000100: 474a 943e f9bb debe ffcb 6ebe 5533 f43e
00000110: 0529 99bd 00e4 94be 06ff 68be 6692 93be
00000120: e930 b93e 559b 22be 7324 bd3e 396f 5a3e
00000130: 7a05 91be bccd bd3e ad4f 89be ae3c debd
00000140: 9838 843f 031c 45bf 49a4 1d3f cf65 a73f
00000150: 3805 fabe 7778 0a3f 7d28 2f3f 0dc3 24c0
00000160: 9ea4 d03d 6f90 02be 20c8 ffbe 832c 74bd
00000170: 3797 583e 6ce7 313e d433 50bf 8805 9d3d
00000180: 8dda 833d 782a 0cbf c255 0d3b 2873 a33e
00000190: b4d0 12be 86cc c2bd 23b7 68bd f0ad 633e
000001a0: f873 a4bd 5543 0dbf 65fb 9a3e a3c7 103e
000001b0: f5b2 9b3d 48d4 20be f5d0 fabc 6b83 bbbe
000001c0: dcb2 95bd cc60 cebe 3052 b53d 64e4 6b3e
000001d0: cbba 2b3b e5b8 80be a3d3 2dbf 9db3 9cbd
000001e0: 372f 383f c11c 83c0 9fa3 583f 0263 05c0
000001f0: 8230 953e cdc9 463d fb5e 28c0 78a9 e13e
00000200: 9df3 a43e 8594 9dbe dd97 9fbe c459 4c3f
00000210: 3a68 bdbd e4bf 0b3f 93ee cabf bec2 913e
00000220: 9a4c 013e 4340 d9be 7754 d5bd 21e7 973e
00000230: 9163 afbd 25af 5f3e d93f cabe 4074 e9be
00000240: a8e9 663e 5267 223d 6e97 b33e 0ab7 0d3e
00000250: e8fe b6bd def7 41bd b51e 483e d52d fbbe
00000260: 8a41 033e de0e 2dbd 5937 ec3e 315c 913e
00000270: 7d13 a6be 8271 613d 5e98 35bf 7a15 163e
00000280: a6d1 993e a96a 8abf e65e 503e cf3a 8e3f
00000290: 7fde c63e 789a c7be 953c 51be a32e 2fbe
000002a0: c763 183d 8511 05bd 0fc3 32be f946 933e
000002b0: 35f4 8cbd 0b76 ddbd ee14 0bbf 3240 973d
000002c0: 4771 963d 598c 51be bc4c 53be ad26 23bd
000002d0: 07c0 cbbd 0dbf 6dbe e828 f3be 2056 22bd
000002e0: 982d 8c3d 9f4e 853d ba8b 9e3e a5fe 2abe
000002f0: 5c03 5dbe a198 d63d fbb3 9ebe 5c6d babe
00000300: 0f4c 2d3e 4c24 b7be 7bff 01bd 27f4 b93e
00000310: bca1 57be b3bc fe3d 70b9 1ebe c0b4 35bd
00000320: 3d6f f53d fad8 b63d 2a3d fd3c 19e4 82be
00000330: 2b16 05be 8baa 19be aebc f6be 9d34 f4be
00000340: b4d6 dcbc 5021 a3be 22d5 1bbe 02be 273e
00000350: 4da0 c3be b90e 273c 27d9 90be d224 9fbe
00000360: 078e a4bc fef9 08bf 76ec 073e a304 0b3f
00000370: 731f ddbd afde 083e 5e85 d13c 70df c7bd
00000380: 6cc7 9fbf 4fce 8f3e d07d f23f 9de5 b6be
00000390: aeb5 a1be 4c12 0c40 41fe 53bf 188a f53e
000003a0: c7a1 97be d281 12bd b9e6 21bf c7ea c33e
000003b0: 7dc1 62be 4c8c 8dbe b333 6dbf 0ec3 57bf
000003c0: ddba 843e 8486 8fbf 0888 be3e 6568 c53d
000003d0: 1c19 aebe e39b 40be 0718 15be 3ad0 3fbf
000003e0: 6607 98be 93e6 b5be 3a8f 14bd 6d8e 613e
000003f0: 56b4 5bbe f99f 9c3e 835e babe 6b72 a2be
0.08070432 -0.6020106 -0.1730892 0.19291037 -0.0582843 0.027266333 -0.25633025 0.20174229
0.009092821 -0.040935647 -0.28391802 0.023581319 -0.039521154 0.069117725 -0.296824 -0.24772148
0.27656648 -0.41744733 0.015569722 0.25468594 -0.18715487 0.07759445 -0.28353506 -0.11600974
1.0222956 -1.138959 -0.3142966 -1.5320694 -1.742251 -2.177452 -1.3014814 0.3579644
0.4119491 -0.5652756 0.0949599 0.39112973 0.08015275 -0.08617287 -0.44119158 0.06826121
-0.08140459 -0.09989349 -0.11892563 0.029330105 -0.3272875 0.09931516 -0.26650658 -0.12207974
0.18350372 -0.001960938 0.13343242 0.06631043 -0.26946247 0.29011342 -0.66434664 -0.31900886
0.13970163 -2.0465598 2.3303866 4.1738844 -2.0326052 0.6352375 -0.03881429 -0.08321046
0.2896292 -0.43502787 -0.23320006 0.47695413 -0.07478527 -0.290802 -0.22753534 -0.2882263
0.36170128 -0.15879567 0.3694187 0.2133149 -0.2832449 0.37071025 -0.268186 -0.108514175
1.0329771 -0.7699587 0.61578804 1.3077945 -0.48832107 0.54090065 0.68421155 -2.574405
0.10187648 -0.1275041 -0.4995737 -0.059612762 0.21151434 0.17373437 -0.81329083 0.076670706
0.0643817 -0.547523 0.0021566008 0.31923795 -0.14337426 -0.09511666 -0.056815278 0.2223432
-0.08029932 -0.55180866 0.30269924 0.14138655 0.07602493 -0.15705979 -0.030617217 -0.366237
-0.07309505 -0.40308225 0.08853567 0.23036343 0.0026203867 -0.25141063 -0.67901057 -0.07651446
0.71947044 -4.09726 0.84624666 -2.084168 0.2913857 0.048532296 -2.6307971 0.44074607
0.32217112 -0.30777374 -0.3117055 0.7982447 -0.09248395 0.54589677 -1.5854057 0.2846889
0.12626877 -0.4243184 -0.10416501 0.29668525 -0.08563913 0.21844156 -0.39501837 -0.45596504
0.2255007 0.039649315 0.3507647 0.13839355 -0.08935338 -0.047355525 0.19542964 -0.49058405
0.1281797 -0.042250507 0.46135977 0.2839065 -0.32436743 0.05503989 -0.7093562 0.1465663
0.30042762 -1.08138 0.20348701 1.1111697 0.38841626 -0.38985038 -0.20433266 -0.17107634
0.03720453 -0.03248741 -0.17457221 0.28765085 -0.06882516 -0.108135305 -0.5432881 0.07385291
0.07345825 -0.20463695 -0.2063474 -0.039831806 -0.09948736 -0.23217411 -0.47492146 -0.039632916
0.06844634 0.065091364 0.30965978 -0.16698702 -0.21583313 0.104783304 -0.3099669 -0.3641156
0.16923545 -0.3576988 -0.031737786 0.36319086 -0.2105779 0.12438335 -0.15500426 -0.04436183
0.11984108 0.08928104 0.030912954 -0.2556465 -0.12996738 -0.15006463 -0.48190826 -0.4769639
-0.026957847 -0.31861353 -0.15218022 0.16381076 -0.38208237 0.010196381 -0.28290674 -0.3108278
-0.020087255 -0.5350646 0.13273796 0.5430395 -0.10797014 0.13366197 0.02557629 -0.09759414
-1.2482734 0.28087088 1.8944645 -0.35722056 -0.31583923 2.1886168 -0.82809836 0.4795692
-0.29615614 -0.035768338 -0.6324268 0.38265058 -0.22144122 -0.276461 -0.9265701 -0.84282005
0.25923815 -1.1212926 0.3721316 0.09639052 -0.34003532 -0.18809466 -0.14559947 -0.74927104
-0.29693145 -0.35527477 -0.036269404 0.22026987 -0.21455511 0.305908 -0.36400232 -0.3172792

input_layer.bias f4 [128]
00000000: 4412 2abf 1aa1 4bbf 5d48 e9be 229c 57bf
00000010: 3ec8 2dbf 56ff 3bbf 3ad1 26bf 4b43 7ebf
00000020: bd2a 3fbf 613e 39bf eef7 8bbf f5cf 11bf
00000030: 9d28 0ebf fa6f 33bf f2e8 d7be 290d 743e
00000040: ef39 20bf d687 36bf f540 3dbf d9ff 2abf
00000050: 99f9 9ebf 94ce 8fbe 3579 08bf 9cbb 36bf
00000060: 8fe6 b7be c978 0bbf eb85 14bf 306b 3fbf
00000070: d134 a5bf ac8c bbbf 7987 4cbf 0cf7 74bf
00000080: cacb 0cbf 177a 2cbf 438a 09bf ced2 0dbf
00000090: adc6 67bf 13d1 2bbf 4d10 eb3e 0631 39bf
000000a0: bbe9 6abf a366 0fbf 412a 93bf 826a 47bf
000000b0: fd50 cabf 5d8e 40bf bf99 a5be e864 6abf
000000c0: ad06 a2be 307c 8bbf a884 6abf 33f8 1fbf
000000d0: 6698 63bf c046 dbbf 83cf 5fbf 57ea acbe
000000e0: a202 4cbf 0b33 73be 7f18 f3be 8be7 b8bf
000000f0: 87d1 10bf 6b6d 18bf a1d2 8ebe a045 9cbe
00000100: c3e5 a4bf a46f b9be 1223 3ebf 6859 f5be
00000110: ee61 88bf 48fa 24bf a64a 95bf bd4c 56bf
00000120: 045c 61bf 4aad 85be 5a29 5fbf efde 86bf
00000130: f273 95bf 1d60 8abe 0d8f 8bbf 61aa cebe
00000140: 81d2 ecbe 1f84 08bf bd9f 85bf 4ec8 b7be
00000150: a436 42bf f5ef 6cbf b6eb 75bf 418f 3bbf
00000160: c917 80bf 0cca 88bf 7dad a5bf 9d40 7cbf
00000170: e1ed 2ebf 5d61 b2be bc98 463e 9bc4 74bf
00000180: cfd2 8cbf e95d 76bf 31c2 32bf 2656 aabf
00000190: 7089 07bf adec 93be b1dc 04bf 91b2 4abf
000001a0: a4c8 0ebf 7cd2 09bf 6c87 31bf 540f 91bf
000001b0: 5942 53bf 1b87 4bbf 27a7 30bf 1baf 39bf
000001c0: 3574 2bbf 5ad5 86bf b067 3ebd 3418 63be
000001d0: 6c1b e7be c108 2ebf 3360 7cbf db1a 4fbf
000001e0: 08e9 4bbf bd97 9abf 1412 fdbe 5818 35bf
000001f0: 05e3 7cbf 2f31 44bf b22f e9be adc1 8fbf
-0.6643412 -0.79542696 -0.4556302 -0.84222615 -0.6788367 -0.73436487 -0.65163004 -0.9932143
-0.7467459 -0.7236081 -1.0935037 -0.5695794 -0.5553072 -0.7009274 -0.4216991 0.23833145
-0.625884 -0.7130102 -0.7392724 -0.6679664 -1.2419921 -0.28087294 -0.5330995 -0.7138002
-0.3591809 -0.5448118 -0.5801684 -0.7477293 -1.2906743 -1.4652305 -0.79894215 -0.95689464
-0.5499846 -0.67373794 -0.53726596 -0.5539979 -0.9053753 -0.67115897 0.45910874 -0.7234043
-0.91762894 -0.56015986 -1.149727 -0.77896893 -1.5805966 -0.7521723 -0.3234386 -0.9156022
-0.31645718 -1.0897274 -0.9160867 -0.62488097 -0.88904417 -1.7130966 -0.8742601 -0.33772537
-0.7969152 -0.2374994 -0.47479627 -1.4445661 -0.56569713 -0.5954196 -0.27895072 -0.3052187
-1.2882618 -0.36217988 -0.74272263 -0.47919774 -1.0654886 -0.644444 -1.1663406 -0.83710843
-0.8803103 -0.26108772 -0.8717247 -1.0536784 -1.1676009 -0.27026454 -1.0903031 -0.40364364
-0.46254352 -0.533266 -1.0439373 -0.35895008 -0.75864625 -0.92553645 -0.9606279 -0.73265463
-1.0007259 -1.068666 -1.294357 -0.9853609 -0.68331724 -0.34839907 0.19394201 -0.95612496
-1.1001834 -0.96237046 -0.6982756 -1.330754 -0.5294409 -0.28891507 -0.5189925 -0.7917872
-0.55774903 -0.538368 -0.6934726 -1.1332803 -0.82523113 -0.7950303 -0.69005054 -0.72532815
-0.6697419 -1.053386 -0.046485603 -0.22177202 -0.4513811 -0.6798211 -0.9858429 -0.80900353
-0.7965245 -1.2077557 -0.49427855 -0.7074027 -0.98783904 -0.7663755 -0.455442 -1.123098

action_layer.weight f4 [4, 128]
00000000: 1f98 d0bd 496e 39be d09b d73d d548 afbf
00000010: a50a 13be b541 373d a2bc 71be 14f5 d3be
00000020: e2e4 cd3d 0b24 c7bd 425c 6bbf 230a 233e
00000030: cf4e aabe 945f 95be 3dd7 64be 0500 18bf
00000040: 83c5 263d 1923 97be 4315 7b3b 16a8 babd
00000050: 44f8 d7bd 52c4 f03e b0ba 27be 97f0 64be
00000060: 9d55 103e 5b28 d5bd 01b2 7cbe 1453 bbbe
00000070: 44a5 893e 542e 783d 637e bdbe dfd2 1bbe
00000080: 1685 8fbe d1bd 26c0 3e14 f23e fdb1 aabe
00000090: 2020 3f3f 29dd 7dbc 7d7d 1940 934f bc3d
000000a0: 173d 89bf c8ca c1be ee50 cebe db0a 58be
000000b0: 1eb3 333e aa9f 9abd 38b0 adbf 9719 07bf
000000c0: 4b77 1e3e a220 9a3e 71b2 023f 3f19 18be
000000d0: 1b41 10bd d1c8 4d3e 158b 3abe a4e6 12c0
000000e0: 6780 f2be 675d 25be a528 dcbe 6129 543f
000000f0: 9b73 a53b 5283 9a3e fde8 963e 4b76 8a3f
00000100: f176 bdbe aa37 893f c641 b43c 0320 0ebe
00000110: 5dcd c33e 6a5f 1bbe 58d8 0bbe 740b a83e
00000120: 9061 26bf f185 9fbd 00b4 febd 9a13 7dbe
00000130: 745f 753f 0615 0cc0 0793 733f 78e0 45bd
00000140: 35ba 89be fe59 533e 15d2 e2be 44d3 0ebe
00000150: 8c2b a83d 38db 923e 330b b3be 27af 29bf
00000160: 6155 d5be 9eeb 7cbf 0e18 dcbf 9fed ab3d
00000170: bad6 83be eff9 91bf db07 14c0 f34c 98be
00000180: 928a e6be ae3f 05bf 0a0b 7f3d a358 d2bd
00000190: 94b1 1b3e 5dee 16bf 778d c6be 7b91 283e
000001a0: c7bc aabe 950b fcbe 967f a83e 1221 a13e
000001b0: 8a53 91bf 1a3d 2c3d 1a84 50be 6ce0 e8bd
000001c0: 8377 93bd e6df 8cbe 6993 86bf 5a76 77bf
000001d0: 73c9 a03d 09b3 c93e f548 97bf dd76 d8bd
000001e0: c939 36bd 41eb 173f 491a bebc ffeb 4d3f
000001f0: 8ef6 13bf e6b5 25bf 469d 2bbe b90f 633f
00000200: ff63 3f3d 2656 0f3e e8d7 b8bc a2f6 a23f
00000210: 7d80 8ebd 9de3 b13e e555 bbbe eee5 3e40
00000220: d832 8a3e 879c 053d a681 1f40 5e8c 22bf
00000230: a064 68be 08b6 ee3e c343 0d3f 0c69 f7bf
00000240: 93b5 c33e 4913 95bd d83d 2fbe bc82 8bbe
00000250: 5633 5f3f 218c d13e ccf8 28bc 7989 c13c
00000260: 1c50 80bc 7a79 913e e439 fa3b 6c29 043f
00000270: cef0 cbbf c590 d13c 5ad2 e33e ab1f 213e
00000280: eb79 21be 1189 d0bf fcf0 43bf 1d15 97bd
00000290: 780c 5c3d 9331 62bd 81ca d73e fb63 89be
000002a0: 632e 81be 354b 51be 8482 d33f b0e5 d43f
000002b0: 1dc7 a5bc 8b3c 043f dd1e 6440 5ec4 5c3e
000002c0: 411e 523c d8cd dd3e c91c 233f 83eb a93d
000002d0: 6de1 4a3d 3382 e3bf 9691 8a3e 86ad 0e40
000002e0: bad9 91be 3a1c af3b 304b 233f 7ce0 cfbf
000002f0: 77fb d23d ccf2 84be bb40 efbe 91e8 5e40
00000300: af2f c5be 0b36 bb3e 61ba 1ebf dd3e a63d
00000310: 177e 1abf 3a26 383e f071 453f fb39 0e3f
00000320: 4840 203f a936 be3e 94e8 8bbd 5646 7e3e
00000330: b010 babe 912d 3bbf 22ca a03b 3818 8fbd
00000340: d88a 13be 5794 f9bc c9e8 15bf cfd2 123e
00000350: b365 a6be 6035 133f 5b17 7ebf 7515 f7bf
00000360: 8b74 28bf e5d2 793f c860 8340 eb64 a33e
00000370: e226 82be 8736 9fbf f62a 8cbe e31a ea3e
00000380: f227 2d3f e3f3 283f cd24 35bf d68e 9a3e
00000390: e145 08be 1639 aa3b 7b77 443e 42d9 9f3d
000003a0: a0c6 293e bca3 e5be 160f cf3e cf68 fd3e
000003b0: cf5e cf40 37bf 143f aafe ad3e c243 be3e
000003c0: a45e 293d 0e55 b13d 08b5 16c0 9007 93bd
000003d0: e607 bd3e cda6 a13e 3aa4 f6bf eb34 eb3c
000003e0: a856 82be a56b c03d e9ec 8d3e 69dd 28bf
000003f0: 83f0 63c0 d233 363e 3cc7 28bb 911c 46bf
-0.10185265 -0.18108477 0.10527766 -1.3694102 -0.1435953 0.044740397 -0.23607114 -0.41397917
0.100534216 -0.097236715 -0.9193765 0.15921836 -0.3326325 -0.29174483 -0.22347732 -0.5937503
0.040715706 -0.29518965 0.0038312234 -0.09114091 -0.105454 0.4702478 -0.1637981 -0.22357403
0.14095159 -0.10408088 -0.24677278 -0.3658682 0.268839 0.060591057 -0.37010488 -0.1521716
-0.28031224 -2.6053355 0.4728107 -0.3333892 0.74658394 -0.015494623 2.3982842 0.09194865
-1.0721768 -0.37850022 -0.4029612 -0.21097891 0.17548797 -0.07549985 -1.3569403 -0.5277342
0.15475194 0.30103022 0.5105353 -0.1485338 -0.03521834 0.20096137 -0.18217118 -2.2953272
-0.47363588 -0.16148911 -0.4299976 0.8287564 0.0050491816 0.30178314 0.2947463 1.081735
-0.37004808 1.0720112 0.02200402 -0.13879399 0.38242617 -0.15173116 -0.13656747 0.32821238
-0.6499262 -0.07789219 -0.12436676 -0.24714509 0.95848775 -2.1887832 0.9514622 -0.048309773
-0.26899877 0.20639798 -0.44300905 -0.13947779 0.08211431 0.28682876 -0.34969482 -0.66282886
-0.416667 -0.98797023 -1.7194841 0.08394932 -0.2574976 -1.1404399 -2.3129795 -0.29746208
-0.45027596 -0.5205029 0.062266387 -0.10270812 0.1520446 -0.58957464 -0.38779804 0.16461746
-0.3334715 -0.49227586 0.3290984 0.31470543 -1.1353619 0.04205046 -0.20362893 -0.1137093
-0.072005294 -0.2751457 -1.0513736 -0.96664965 0.078509234 0.39394405 -1.181914 -0.10569546
-0.044488702 0.59343344 -0.023205893 0.80438226 -0.5779809 -0.6473068 -0.16759214 0.88695866
0.046726223 0.13997707 -0.02256389 1.2731516 -0.06958101 0.34743968 -0.3658897 2.9827838
0.26991916 0.03261998 2.492288 -0.63495433 -0.22694635 0.46623254 0.5518152 -1.9328933
0.38224468 -0.07279069 -0.17113435 -0.2724818 0.8718771 0.40927222 -0.010313224 0.023625122
-0.0156632 0.28412992 0.0076362956 0.51625705 -1.5932863 0.025581727 0.44496423 0.15734737
-0.15769164 -1.6291829 -0.7653959 -0.07377074 0.05372283 -0.05522306 0.42146686 -0.26834092
-0.25230703 -0.20438845 1.6524205 1.6632595 -0.020236546 0.5165488 3.5643837 0.21559283
0.012824596 0.4332111 0.637158 0.082968734 0.04953139 -1.7774109 0.27064198 2.229341
-0.28486425 0.005343941 0.637866 -1.6240382 0.10301869 -0.2596649 -0.46729073 3.4829447
-0.38512942 0.3656467 -0.6200314 0.08117459 -0.6034865 0.17983332 0.7712698 0.5555722
0.62598085 0.37151077 -0.0683147 0.24831519 -0.36340857 -0.73116404 0.0049069086 -0.06987041
-0.14408433 -0.030466242 -0.58558327 0.1433823 -0.32499465 0.5750332 -0.9925439 -1.9303423
-0.6580283 0.97587425 4.105564 0.31912932 -0.2542029 -1.2438515 -0.27376527 0.45723638
0.67639077 0.6599714 -0.7075928 0.301871 -0.13307907 0.0051947935 0.19186203 0.078051105
0.16579676 -0.44851482 0.40441197 0.49494025 6.4803233 0.5810427 0.33983356 0.3716107
0.041350022 0.08658801 -2.3547993 -0.07179177 0.3692009 0.3157257 -1.9268868 0.028711757
-0.25456738 0.093955316 0.2771981 -0.65962845 -3.5615547 0.17793205 -0.0025753519 -0.7738734

action_layer.bias f4 [4]
00000000: a8f8 513f bf77 883e 560a abbf 0825 bf3f
0.82020044 0.2665386 -1.3362529 1.4933176

value_layer.weight f4 [1, 128]
00000000: 681a a23c cfbc a43d 6153 a8bc a68d 23bf
00000010: dc05 15bc 80fb 343d abf8 6a3d 78df c63d
00000020: db13 c03d a0d2 3f3e dd08 fe3b cf7c 75bc
00000030: 8738 343d bf21 e1bc cdfb 143e edec ba3e
00000040: ba9b f6bc 3217 a3bd 15d7 a33d 4a56 f03d
00000050: c399 ecbe bbcc 203a 3a09 2e3b a442 ec3d
00000060: 23bc ec3c 5b1b 90bc 3af0 1cbd 8a5b 553e
00000070: 9e2e cebc 4d59 fb3c 1b5c 023e e2d0 343c
00000080: 5867 083d 5c3b aebd f0b1 703e fc36 a23c
00000090: a9a9 1cbe b3b2 043e 8121 07bf f08f 10bd
000000a0: 9c15 0dbe 6a2c 0bbd a4a1 e0bd 0e94 0d3d
000000b0: 5ec2 103f 8f95 95bd 0fb0 2abf 8197 02bc
000000c0: 017e 403e 58a4 e33d a756 aebd 68d9 2cbd
000000d0: ebca 5e3d d77c 9c3e 758e 83bd 7d0b 8b3d
000000e0: 818b c63b 65e6 74bc 2d41 313d 7c41 0e3f
000000f0: 2e2c 2cbd 798d 6dbe 29c9 a83e 69b6 c93e
00000100: 17d0 013e fcad c8bd ea83 bfbb 4f37 443d
00000110: 886b 553e 232a f03d a0e6 05bf 2cfd 03be
00000120: 5916 473e 86ef f33d 73d4 973d bb0f 32be
00000130: fb90 103e 6f76 4fbe 14cb 563f 1266 89bc
00000140: b5b9 ccbc 9ea5 8ebd 309c 87bd f310 cb3d
00000150: 400d 2cbd f744 0ebe 343b d4be c1bc 1f3d
00000160: 62b6 873d b201 8b3d f7dc bebd 1edd 6bbe
00000170: 3c0b 1a3e 4719 a93e 491b 0fbf e2e6 a83d
00000180: 7e6d 7c3d 6f53 fdbd 07cd 07be d974 1bbf
00000190: 1bc1 953d 31bd 663e dcb3 b0be 8266 4dbe
000001a0: 78bf 443c 72cb bd3d 2502 003e 8d42 923d
000001b0: 33aa d43d 49f8 593c 4831 88bd ae5c ab3d
000001c0: eef3 073e db12 c33e 4c5a 18bd 73ad d1be
000001d0: 1953 393d 8935 ec3a d23a ecbe 64de b6bc
000001e0: c9a9 583b f6c8 153e b635 7f3d eba5 4e3f
000001f0: d6cf c9be e822 d53d 47d8 403d 5515 f9bc
0.019787982 0.08043825 -0.02054757 -0.63888013 -0.009095635 0.04418516 0.057366055 0.09710592
0.09378787 0.18732691 0.0077525214 -0.01498337 0.04399922 -0.027481912 0.1454918 0.36508885
-0.030103553 -0.079634085 0.08000008 0.11735208 -0.4621106 0.0006134023 0.0026555792 0.11536148
0.028898304 -0.01759117 -0.038315035 0.208357 -0.025168713 0.03068223 0.12730448 0.01103613
0.03330168 -0.08507416 0.23505378 0.01980161 -0.15299095 0.12958793 -0.527855 -0.03529352
-0.13777775 -0.033977903 -0.109683305 0.034565024 0.5654658 -0.07303917 -0.66674894 -0.007970692
0.18798067 0.111153305 -0.085126214 -0.042199522 0.054392736 0.30563995 -0.06423656 0.067893006
0.0060591106 -0.014947508 0.043275047 0.5556867 -0.04203432 -0.23198499 0.32965973 0.3939698
0.12677036 -0.0979881 -0.005844583 0.04790431 0.20841801 0.11726787 -0.5230503 -0.12889546
0.19442119 0.1191092 0.07413568 -0.17388813 0.14117806 -0.20260023 0.8390362 -0.016772304
-0.024990896 -0.06965183 -0.06621587 0.09915342 -0.042004824 -0.13893496 -0.41451418 0.03899837
0.06626584 0.06787433 -0.093194894 -0.23033568 0.15043348 0.33027098 -0.5590101 0.082471624
0.061627857 -0.12369429 -0.13261805 -0.6072517 0.073122226 0.22533108 -0.34512222 -0.20058635
0.01200854 0.0926732 0.12500818 0.071416 0.103840254 0.013303825 -0.06650025 0.083672866
0.13276646 0.38100323 -0.03719549 -0.40952644 0.045245264 0.0018021326 -0.46138626 -0.022322841
0.0033060184 0.14627442 0.062307082 0.8072192 -0.3941638 0.104070485 0.04708126 -0.03040568
