checkpoint/0_LunarLander_final.pth (torch_old, 8224 bytes, 5 tensors)

input_layer.weight f4 [128, 8]
0	0x3c5a6d13	0.013331669
1	0xbeed898e	-0.46394008
2	0x3db52333	0.08844604
3	0x3ff96312	1.9483359
4	0xbfc54d14	-1.5414147
5	0x3dddfa21	0.10838724
6	0x3f1b8dcb	0.60763234
7	0x3ed41e9b	0.414296
8	0x3eb22901	0.34796908
9	0xbf3cd108	-0.73756456
10	0x3e20b97f	0.15695761
11	0x3d517b37	0.051142897
12	0xbf13585a	-0.5755669
13	0xbcbe17b7	-0.023204667
14	0xbfa3f450	-1.2808933
15	0xbf897310	-1.0738239
16	0xbf9d93de	-1.231075
17	0x3f2867a7	0.6578316
18	0xbf03587d	-0.513069
19	0x3f93ca65	1.1546141
20	0x3f64d8fb	0.89393586
21	0x3f0a394c	0.5399368
22	0xbf172e00	-0.59054565
23	0xbf455949	-0.77089363
24	0xbf13c0c0	-0.5771599
25	0xbe904950	-0.28180933
26	0xbd343447	-0.043995168
27	0x3d544b29	0.05182949
28	0x3e2b5d37	0.16734777
29	0x3f794c45	0.97382003
30	0x3d8bf755	0.06834284
31	0xbe5ec866	-0.21756133
32	0x3e082c71	0.13298203
33	0xbf025c24	-0.50921845
34	0x3e3f23a1	0.18665935
35	0x3ecc44dc	0.39896286
36	0xbda2124b	-0.07913645
37	0xbe532445	-0.20619304
38	0xbe5ec667	-0.21755372
39	0xbf53ab12	-0.8268291
40	0xbcffb1c5	-0.031212697
41	0x3f03ba63	0.5145628
42	0xbe84071f	-0.25786683
43	0xbfad8b9d	-1.3558232
44	0x3f28f13c	0.65993094
45	0x3e8d1ebc	0.2756251
46	0xbf049104	-0.51783776
47	0xbf3b2a6b	-0.731116
48	0x3eae2cb6	0.34018487
49	0xbe6a5ee8	-0.22887766
50	0xbe029fe5	-0.12756307
51	0x3e4fde24	0.20299584
52	0xbd4a7941	-0.049432043
53	0x3e6570ba	0.22406283
54	0xbf139314	-0.576463
55	0xbd8fbd32	-0.07018508
56	0xbe7dffdf	-0.24804638
57	0xbe1b2d83	-0.1515408
58	0xbd8426e8	-0.06452733
59	0x3e47dca3	0.1951776
60	0xbca0668e	-0.019580152
61	0x3dd2649a	0.102730945
62	0xbd50436d	-0.050845552
63	0xbe1e8d59	-0.15483607
64	0xbe2a7681	-0.16646768
65	0x3e026e6f	0.1273744
66	0xbcb10628	-0.02160938
67	0xbed75ebf	-0.42064473
68	0x3de2756f	0.11057555
69	0xbfa72e5a	-1.306102
70	0xbd6e23c0	-0.058139563
71	0x3df540d6	0.11975257
72	0x3da6813b	0.081301175
73	0xbf3307dd	-0.69933873
74	0x3e178319	0.14796104
75	0x3e0cdb86	0.13755617
76	0xbe350b61	-0.17680122
77	0xbc53f678	-0.012937181
78	0xbeb311eb	-0.34974608
79	0xbea2468c	-0.31694448
80	0x3ec2feba	0.38084966
81	0xbe458b19	-0.19291343
82	0x3f3d8dc4	0.7404444
83	0x3dfecb55	0.12441126
84	0xbf40ee2a	-0.7536341
85	0x3e473f80	0.19457817
86	0xbf5b0633	-0.85556334
87	0x3e3fe726	0.1874052
88	0xbef0691d	-0.46955195
89	0x3e0b4c61	0.13603355
90	0xbe7276bc	-0.23678106
91	0x3f34bced	0.7060078
92	0x3f75b65e	0.95981395
93	0xbeddef2a	-0.4334653
94	0x3f9b7c06	1.2147224
95	0xbeddec5e	-0.43344396
96	0xbe6ad772	-0.22933748
97	0xbf91ce59	-1.1391097
98	0x3e4667a6	0.19375476
99	0xc0295308	-2.6456928
100	0xbee5eac0	-0.44905663
101	0x3ee2170d	0.4415821
102	0x3ddd39b7	0.10802024
103	0xbf3c8354	-0.7363789
104	0xbe81f6d0	-0.25383615
105	0x3d872a66	0.06599884
106	0xbf401319	-0.7502914
107	0x3f2fbb7b	0.6864545
108	0x3f1e6b47	0.6188244
109	0xbead9b5b	-0.3390759
110	0xbf8e2d30	-1.110754
111	0xbf4934f6	-0.78596437
112	0x3f40e83e	0.75354373
113	0xbf06b163	-0.5261442
114	0x3f99c86f	1.2014292
115	0xbfb170e0	-1.3862572
116	0xbf8ce624	-1.1007733
117	0xbffcae9f	-1.974079
118	0xbd9a8704	-0.075452834
119	0x3e86079b	0.26177678
120	0xbea23b93	-0.31686077
121	0x3df7acc8	0.12093502
122	0x3f86bb4f	1.0525912
123	0xbf045937	-0.5169863
124	0x3fa67fae	1.3007715
125	0x3e5daadc	0.21647209
126	0xbe13d9ea	-0.14438596
127	0xbf1744e4	-0.59089494
128	0xbe173338	-0.14765632
129	0xbe6766ab	-0.22597758
130	0x3c70160b	0.014653693
131	0xbea92951	-0.33039334
132	0xbe19299c	-0.14957279
133	0xbd4b937d	-0.049701203
134	0x3e896fe8	0.2684319
135	0x3e6b53fa	0.22981253
136	0x3d9d0eea	0.0766886
137	0xbc033409	-0.008008012
138	0x3f445ec3	0.76707095
139	0x3f83c4e7	1.0294465
140	0xbf02d6b9	-0.5110889
141	0xbfabf70a	-1.3434765
142	0xbf3af9c5	-0.7303737
143	0xbf370455	-0.71490985
144	0xbdd55954	-0.104174286
145	0xbed8c418	-0.42337108
146	0x3e9165f4	0.28398097
147	0x3f1b53fd	0.6067503
148	0xbe478301	-0.19483568
149	0x3f243b67	0.6415314
150	0xbf1b248f	-0.6060266
151	0xbef0e651	-0.47050717
152	0x3ed4d93e	0.41571993
153	0x3f3feb57	0.74968475
154	0xbdb11de4	-0.08648279
155	0x3fef6c53	1.8704933
156	0xbf18b325	-0.5964835
157	0xbeab07d0	-0.33404398
158	0xbe9528c1	-0.29132655
159	0xbf39a74f	-0.7252092
160	0xbd78d3ac	-0.06074874
161	0xbf2517c8	-0.6448941
162	0xbdb423b3	-0.087958716
163	0xbdb346a6	-0.087537095
164	0xbd55d1e5	-0.052202124
165	0x3cca65f0	0.02470681
166	0xbe9d001a	-0.3066414
167	0xbd8e4085	-0.069459
168	0x3e254c0d	0.16142292
169	0xbeba900b	-0.3643802
170	0xbda4c059	-0.080445
171	0x3e4580f8	0.19287479
172	0xbe2d6057	-0.16931282
173	0x3e32071d	0.17385526
174	0xbeda982a	-0.42694217
175	0x3c033a40	0.008009493
176	0xbde2f540	-0.11081934
177	0xbf298e4c	-0.6623275
178	0xbe04758a	-0.12935463
179	0xbe9494bb	-0.29019722
180	0x3e1d0c54	0.15336734
181	0x3e78ea3b	0.24308102
182	0xbdcac5d5	-0.09901015
183	0xbe89494c	-0.26813734
184	0xbf1e208b	-0.61768407
185	0xbef60c65	-0.4805633
186	0xbeb3209c	-0.34985816
187	0xbfd79107	-1.6841134
188	0xbf6a0df3	-0.91427535
189	0x3e9961c3	0.299574
190	0xbe070865	-0.13186796
191	0xbf6c9024	-0.9240744
192	0x3eed9d55	0.46409097
193	0x3efee2b0	0.49782324
194	0xbc030181	-0.007995964
195	0x3f44f964	0.7694304
196	0x3d6f4188	0.058412105
197	0x3e451144	0.19244868
198	0xbf40db1a	-0.7533432
199	0xbf4d9527	-0.80305713
200	0x3daae788	0.08344942
201	0xbd6a732b	-0.05723874
202	0x3f0d4ba1	0.55193526
203	0x3d180158	0.037110656
204	0x3e6e7a30	0.23288798
205	0x3dd64a44	0.10463384
206	0xbed36348	-0.41286683
207	0x3df946e5	0.12171725
208	0xbe7aa161	-0.24475624
209	0x3dd4a426	0.10382871
210	0x3ea501e0	0.32227993
211	0xbf5c81f3	-0.86135787
212	0xbfc52ff4	-1.5405259
213	0xbdf4afa3	-0.119475625
214	0x3da29053	0.07937684
215	0xbf452b43	-0.7701914
216	0x3cc340a2	0.02383453
217	0xbef4ca3a	-0.47810537
218	0x3cb19833	0.02167902
219	0x3e208110	0.15674233
220	0xbe150b52	-0.145551
221	0x3df169e6	0.11787777
222	0xbe6d1ac2	-0.23154739
223	0xbead6c1b	-0.3387154
224	0x3db578fc	0.088609666
225	0xbb1bff01	-0.0023803117
226	0xbf896514	-1.0733972
227	0xbe50058e	-0.20314619
228	0xbfc7dbbd	-1.5613934
229	0x3f4714d7	0.77766174
230	0x3e02d41d	0.12776227
231	0xbc6c1c58	-0.014411055
232	0xbb698d5e	-0.003563724
233	0xbf0b7466	-0.54474485
234	0xbe804ed9	-0.25060156
235	0xbe6c8590	-0.23097825
236	0x3e6170aa	0.22015634
237	0x3e1eb6ff	0.15499495
238	0x3e2841ec	0.16431397
239	0xbe5b3835	-0.2140816
240	0xbe8f72a4	-0.2801715
241	0xbf16208e	-0.58643425
242	0xbf21e330	-0.63237286
243	0x3fb91ff3	1.4462875
244	0xbf2f2f12	-0.684312
245	0x3e7a85d9	0.24465121
246	0xbfaeee82	-1.3666537
247	0x3ecae1ff	0.39625546
248	0xbeaadc27	-0.33371088
249	0xbe0c74c6	-0.1371642
250	0x3dade824	0.08491543
251	0x3d02efc8	0.031966954
252	0x3f2ecc44	0.68280435
253	0xbf233bfe	-0.63763416
254	0xbebe7eba	-0.3720606
255	0xbf072f95	-0.5280698

input_layer.bias f4 [128]
0	0xbe136770	-0.14394927
1	0xbf365337	-0.71220726
2	0x3e4e3663	0.20137934
3	0xbf0e8f1a	-0.55687106
4	0xbe7a96c1	-0.2447157
5	0xbf4b0703	-0.79307574
6	0xbf4114c2	-0.754223
7	0xbf861c27	-1.0477341
8	0xbed22bd5	-0.41049066
9	0xbf309386	-0.689751
10	0xbeddd2fa	-0.43325025
11	0xbebd6c64	-0.36996758
12	0xbddad4d9	-0.10685129
13	0xbed503b8	-0.416044
14	0xbf83f5bf	-1.0309371
15	0xbf43d43e	-0.7649573
16	0xbf49177d	-0.78551465
17	0xbde33fb7	-0.11096137
18	0xbe593370	-0.21211028
19	0x3ef2d7fc	0.47430408
20	0xbe96593a	-0.2936495
21	0xbef98e87	-0.48741552
22	0xbf104a40	-0.56363297
23	0xbe3fb9c9	-0.18723215
24	0xbf3003c7	-0.68755764
25	0xbf2f2bd7	-0.6842627
26	0xbeec5c16	-0.46164006
27	0xbec112d8	-0.3770969
28	0xbf3ea923	-0.7447683
29	0xbf1a7702	-0.6033784
30	0xbf13187e	-0.5745925
31	0xbed4ed8e	-0.4158749
32	0xbedc5818	-0.4303596
33	0xbee0235a	-0.4377697
34	0xbee24a3f	-0.4419727
35	0xbe770af0	-0.24125266
36	0xbed7f814	-0.42181456
37	0xbea9fabc	-0.33199108
38	0xbf1ba8a5	-0.60804206
39	0xbed626fb	-0.41826615
40	0xbf5adfc8	-0.85497713
41	0xbf1afd76	-0.60543
42	0xbecc9b06	-0.39962023
43	0xbe5a1b54	-0.21299487
44	0xbf65e56f	-0.8980321
45	0xbd570f08	-0.05250457
46	0xbf0c2b3a	-0.5475346
47	0xbf1f82c3	-0.623089
48	0xbf2feca8	-0.68720484
49	0xbea3ec28	-0.3201611
50	0xbf1dd7c6	-0.6165737
51	0xbf107bf6	-0.5643915
52	0xbf099477	-0.53742164
53	0xbefac2c5	-0.48976722
54	0xbe04e1bb	-0.12976734
55	0xbf2e7ef9	-0.68162495
56	0xbf3298dc	-0.69764495
57	0xbf263f02	-0.6493989
58	0xbf2e76c4	-0.6814997
59	0xbf3e8230	-0.744174
60	0xbe99320f	-0.29921004
61	0xbf89bb33	-1.0760254
62	0xbeae0b1e	-0.33992857
63	0xbf657a6c	-0.89639926
64	0x3e82192c	0.2540983
65	0xbe94e7bf	-0.29083058
66	0xbf413dfd	-0.7548521
67	0xbe2efa25	-0.1708761
68	0xbf1eff2c	-0.6210811
69	0xbef72071	-0.48266938
70	0xbf1a0aa1	-0.6017247
71	0xbe9e6c80	-0.30942154
72	0xbf4f02d3	-0.80863684
73	0xbf3b0faa	-0.73070776
74	0xbea21b10	-0.31661272
75	0xbee70793	-0.45122966
76	0xbf1f430f	-0.622117
77	0x3e3f45b8	0.1867894
78	0xbefc09e8	-0.49226308
79	0xbe928a51	-0.28621152
80	0xbf045d5b	-0.5170495
81	0xbf1ead34	-0.61983037
82	0xbed8750d	-0.42276803
83	0xbf495b96	-0.78655374
84	0xbe76d7b4	-0.24105722
85	0xbf0239b7	-0.50869316
86	0xbf0a9234	-0.5412934
87	0xbf0b649f	-0.5445041
88	0x3f07bb52	0.53020203
89	0xbf4248e1	-0.75892454
90	0xbe9eb0dd	-0.3099431
91	0xbf185de0	-0.5951824
92	0xbf1614d1	-0.58625513
93	0xbed2820f	-0.41114852
94	0xbf05cdeb	-0.5226733
95	0x3e244ee7	0.16045724
96	0xbf815e04	-1.0106816
97	0xbf10b91c	-0.56532454
98	0xbf6076d3	-0.8768131
99	0xbef2f266	-0.4745056
100	0xbd501423	-0.050800454
101	0xbed40ce1	-0.41416076
102	0xbf3df8fc	-0.74208045
103	0xbf44a5b2	-0.7681533
104	0xbddea37a	-0.108710244
105	0x3d31f1c1	0.043443445
106	0xbf4af10f	-0.79274076
107	0xbf53d36a	-0.8274447
108	0xbfab09ce	-1.3362367
109	0xbf1b70eb	-0.60719174
110	0xbd56604c	-0.05233793
111	0xbf1e9590	-0.61946964
112	0xbece7d36	-0.40329903
113	0xbf4ad66b	-0.79233426
114	0xbf447b87	-0.7675099
115	0xbf441457	-0.76593536
116	0xbef2d976	-0.47431535
117	0xbf1c240e	-0.60992515
118	0x3e6f3ad5	0.23362286
119	0xbeb9a07b	-0.3625525
120	0xbf29acec	-0.6627948
121	0xbf172914	-0.59047055
122	0x3f9eb939	1.2400275
123	0xbe97673f	-0.29570958
124	0xbe6a78b1	-0.22897603
125	0xbf294e95	-0.6613553
126	0xbf5e5c91	-0.86859995
127	0xbf86dffa	-1.0537102

action_layer.weight f4 [4, 128]
0	0x3fc30e91	1.523882
1	0xbdb12d7f	-0.08651256
2	0x3c499368	0.012303211
3	0xbe4bd607	-0.19905864
4	0x3ec6f6a1	0.38860038
5	0xbf98b2b1	-1.1929532
6	0x3d98ad95	0.07454983
7	0xbed3b36a	-0.4134782
8	0xbf8d832d	-1.1055657
9	0xbebd3c93	-0.36960277
10	0x3d4b5cb2	0.049648948
11	0x3da286e3	0.07935884
12	0xbffd4012	-1.9785178
13	0xbe5a2a69	-0.2130524
14	0xbe8c6290	-0.27418947
15	0xbefeed1a	-0.4979027
16	0x3dc4830b	0.09595307
17	0xbf94a963	-1.1614193
18	0x3d570f32	0.052504726
19	0x3ce0d339	0.027444469
20	0xbe0d0bc5	-0.13774021
21	0xbd4333a3	-0.047656666
22	0xbe9b6155	-0.30347696
23	0xbf647fc8	-0.8925748
24	0xbf30540a	-0.68878233
25	0x3dfd52f9	0.123693414
26	0xbf08b1b8	-0.5339618
27	0xbdd25652	-0.102703705
28	0xbf3144da	-0.69245684
29	0xbdabac42	-0.08382465
30	0x3fd32872	1.6496718
31	0xbe70e332	-0.23524168
32	0xbe8fcaf5	-0.2808453
33	0xbf5ce3a9	-0.8628488
34	0xbcd63f35	-0.026153186
35	0x3ebcfc9d	0.3691148
36	0x3e27b2c8	0.16376793
37	0xbef29d90	-0.47385836
38	0xbdb385d5	-0.08765761
39	0xbe936f2a	-0.2879575
40	0x3d4e5188	0.050370723
41	0xbc0bb3bd	-0.00852674
42	0x40093f94	2.1445055
43	0xbfc99708	-1.5749216
44	0xbf66993c	-0.9007757
45	0xbf3daa7a	-0.7408825
46	0xbd690fb1	-0.05689973
47	0x3eb55317	0.35414955
48	0xbe27cbdf	-0.16386364
49	0xbe7aaf06	-0.24480829
50	0x3e05b04f	0.13055538
51	0xbdd3e12a	-0.10345681
52	0xbe3cf4aa	-0.18452707
53	0xbecfa04e	-0.4055199
54	0xbe0888ef	-0.13333486
55	0x3e452506	0.19252405
56	0xbe18c3bb	-0.14918415
57	0x3ea96c26	0.33090323
58	0x3e2e4ba8	0.17021048
59	0x3d025609	0.03182033
60	0xbe9ed329	-0.31020477
61	0xbebe5b22	-0.37178904
62	0x3dfe93d0	0.12430537
63	0xbe0b2459	-0.13588084
64	0xbeb4cb2f	-0.35311267
65	0xbe2d7d8b	-0.16942422
66	0x3d6c171a	0.05763922
67	0xbeba2126	-0.36353415
68	0xbf220132	-0.63283074
69	0x3fac0df5	1.3441759
70	0xbf0c841d	-0.5488909
71	0xbe86570d	-0.2623829
72	0xbed66f9d	-0.4188203
73	0xbd808d5c	-0.06276962
74	0xbee9554b	-0.45572886
75	0xbf326717	-0.6968855
76	0xbe17b4be	-0.14815041
77	0xbf9bda11	-1.2175924
78	0xbd3046f3	-0.043036412
79	0x3fed5399	1.8541137
80	0x3ea21fcf	0.31664893
81	0xbf08fe80	-0.53513336
82	0x3d09f68b	0.033682387
83	0xbf0a1458	-0.5393729
84	0x3d9abd08	0.07555586
85	0xbf16bd15	-0.58882266
86	0xbe50ea3a	-0.2040185
87	0x3dcb550e	0.09928332
88	0xbfd4637e	-1.6592863
89	0x3d67a3e7	0.056552794
90	0xbe8af07c	-0.271366
91	0xbf2ef1c4	-0.68337655
92	0x3c780cd6	0.015139779
93	0xbd6742d7	-0.056460228
94	0x3e6a7f5d	0.22900148
95	0xbe7ad7c0	-0.24496365
96	0xbe102679	-0.14077176
97	0x3f555ccc	0.8334472
98	0xbf463ba6	-0.77434766
99	0xbec8ce80	-0.39220047
100	0xbf43cac7	-0.7648129
101	0x401adbf0	2.419674
102	0xbd9442dd	-0.07239316
103	0x3d24fcf8	0.040280312
104	0xbfcad26b	-1.5845464
105	0xbd3e5e25	-0.046476502
106	0xbd7b62c2	-0.06137348
107	0xbf93e04b	-1.1552824
108	0x3ef35790	0.47527742
109	0xbe68a909	-0.22720732
110	0x3ef8fe90	0.48631716
111	0x3e521657	0.20516334
112	0xbf52990f	-0.822648
113	0xbf38eb6d	-0.7223423
114	0xbe06f344	-0.13178736
115	0x3e081432	0.13288954
116	0x3e47ad27	0.19499646
117	0xbe114d3e	-0.14189622
118	0x3e8f3026	0.27966422
119	0x3a8b1245	0.0010610303
120	0xbf864792	-1.0490592
121	0xbdc49c07	-0.09600072
122	0x3ee34d90	0.44395113
123	0x3e868459	0.26272848
124	0xbf242327	-0.6411614
125	0xbf9b6acd	-1.2141968
126	0xbd432e85	-0.047651786
127	0x3ee714f4	0.45133173
128	0x3f523748	0.821156
129	0x3fa65b60	1.2996635
130	0xbf42f1a3	-0.7614996
131	0xbd6dc625	-0.058050293
132	0x3e46b684	0.19405562
133	0xbf16aed8	-0.5886054
134	0xbe18715c	-0.14886993
135	0x3f0e10a1	0.55494124
136	0x3d97766f	0.07395636
137	0xbdc80449	-0.09766442
138	0x3f8ff76a	1.124738
139	0xbc3c28db	-0.01148435
140	0xbf522c3e	-0.8209876
141	0xbe4a16cc	-0.19735259
142	0xbf8f9b0e	-1.1219194
143	0xbeba64e3	-0.36405095
144	0x3db02bd0	0.086021066
145	0x3f8464a2	1.0343211
146	0x3e8a4094	0.27002394
147	0x3f3d012c	0.73829913
148	0x3dc61b00	0.096731186
149	0xbe4f4fc7	-0.20245276
150	0x3e6eac16	0.23307833
151	0xbeec7a28	-0.46186948
152	0x3f044c86	0.51679265
153	0x3ef03c52	0.4692102
154	0x3f171993	0.590234
155	0x3bdad708	0.0066784658
156	0xbe2d9991	-0.16953112
157	0xbc7f5182	-0.015583398
158	0xbe4807a1	-0.1953416
159	0x3de32c30	0.110924125
160	0x3f08ab52	0.53386414
161	0x3f916454	1.1358743
162	0xbcf88707	-0.030337824
163	0x3d9cf2fb	0.07663532
164	0xbe1f7e67	-0.15575562
165	0x3d41876d	0.047248293
166	0xbde6583a	-0.11247297
167	0x3f002839	0.50061375
168	0x3dac7298	0.084202945
169	0x3eaf143d	0.34195128
170	0xbf007382	-0.5017625
171	0x3fa3561f	1.2760657
172	0x3d84dd55	0.06487528
173	0xbfeb25a9	-1.8370868
174	0xbe046cae	-0.12932083
175	0xbd3af642	-0.045645006
176	0x3e8c8a29	0.27449158
177	0xbd07f5ff	-0.033193585
178	0xbe6e8486	-0.23292741
179	0xbe724397	-0.23658596
180	0x3ed65f18	0.41869426
181	0x3f3b9676	0.7327646
182	0xbd91cef0	-0.07119548
183	0xba912f0c	-0.0011076643
184	0x3e74b446	0.23896894
185	0x3f36ad72	0.71358407
186	0x3f81f36a	1.0152409
187	0x3dda87fa	0.10670467
188	0x3f0678d7	0.52528137
189	0xbebcacb3	-0.3685051
190	0x3dd08539	0.1018166
191	0xbd52b847	-0.05144527
192	0x3f8f6bde	1.1204793
193	0xbefa4579	-0.48881128
194	0x3df64089	0.12024028
195	0x3f2ce5a9	0.67537934
196	0xbf749a77	-0.95548195
197	0x3f3097e6	0.6898178
198	0xbe0eb511	-0.13936259
199	0xbc35d61b	-0.01109841
200	0xbf0c8e98	-0.5490508
201	0xbe068132	-0.13135222
202	0x3d14ce7e	0.03632974
203	0x3f364890	0.7120447
204	0xbedcd9ab	-0.43134817
205	0x3f164d79	0.58711964
206	0x3df123e0	0.11774421
207	0xbe60d053	-0.2195447
208	0xbe283ae0	-0.16428709
209	0x3f2fc54b	0.6866042
210	0x3e3924aa	0.18080392
211	0x3f84ca61	1.0374261
212	0x3e936921	0.28791144
213	0x3f3cb49b	0.7371308
214	0x3eb7f6cf	0.35930488
215	0x3e70a5bd	0.23500724
216	0x3f9c50d3	1.2212166
217	0xbe8b1629	-0.27165344
218	0xbdb71514	-0.08939567
219	0x3f47e522	0.78084004
220	0x3e6218ba	0.22079745
221	0xbd4d4050	-0.05011016
222	0xbe79904e	-0.24371454
223	0xbdefe7eb	-0.11714157
224	0x3e9a4023	0.30127057
225	0xbffc3314	-1.9703088
226	0xbeadb623	-0.33928022
227	0xbdb76d0b	-0.08956345
228	0x3f8c815d	1.0976979
229	0xbeccf4d7	-0.40030548
230	0xbe112959	-0.14175929
231	0x3f446aac	0.7672527
232	0xbfd08990	-1.6291981
233	0x3dc8393a	0.0977654
234	0x3e0e0d14	0.13872176
235	0xbf07db2f	-0.5306882
236	0xbf266f8f	-0.65013975
237	0x3e9c8f80	0.30578232
238	0xbf3f9197	-0.7483153
239	0x3e7d4d5c	0.24736542
240	0x3f3cf1c4	0.73806405
241	0xbfe82779	-1.8137046
242	0x3e671f28	0.22570479
243	0xbe247065	-0.160585
244	0x3f124bf8	0.5714717
245	0xbe0ce755	-0.13760121
246	0x3f8243d4	1.017695
247	0x3e06f5d1	0.13179709
248	0x3f081522	0.53157246
249	0x3e6b7844	0.22995096
250	0x3f4cd6cd	0.8001526
251	0xbf43ea3d	-0.76529294
252	0x3f0f3f3f	0.5595588
253	0xbe345a2f	-0.17612527
254	0x3f185ae9	0.5951372
255	0xbe107397	-0.14106594

action_layer.bias f4 [4]
0	0xbd82b0df	-0.06381392
1	0xbee9c2b8	-0.4565637
2	0x3f13fca3	0.5780737
3	0xbb8a78d4	-0.0042258296

value_layer.weight f4 [1, 128]
0	0x3ed92008	0.4240725
1	0xbda74117	-0.08166712
2	0xbeb9d1c4	-0.3629285
3	0xbdd83abb	-0.10558077
4	0xbcd66cf9	-0.02617501
5	0x3e9159af	0.28388736
6	0xbe175150	-0.14777112
7	0xbd1de64f	-0.038549718
8	0xbda076c7	-0.07835155
9	0x3ec4e427	0.38455316
10	0xbd977c09	-0.07396705
11	0x3e51b989	0.20480932
12	0x3ec4cd37	0.38437817
13	0xbc5b183e	-0.013372479
14	0xbf03bbcc	-0.5145843
15	0x3e8ee019	0.27905348
16	0xbd4ccb9a	-0.049998857
17	0x3dd2c7eb	0.102920376
18	0x3daf9519	0.0857336
19	0xbede6ee1	-0.4344397
20	0x3d8d9cb4	0.069146544
21	0x3d341647	0.043966558
22	0x3e219f89	0.15783514
23	0x3d8ee869	0.069779225
24	0xbdb42aff	-0.08797263
25	0x3e02cfa1	0.12774517
26	0x3da94953	0.082659386
27	0xb98d6eca	-0.0002697616
28	0x3dbf28e1	0.09333969
29	0x3e382032	0.17981032
30	0x3d0f75fa	0.03502462
31	0x3d20159c	0.03908311
32	0xbd9fe6ff	-0.07807731
33	0xbc24e3b8	-0.010064058
34	0x3d703597	0.058644857
35	0xbe97a831	-0.29620507
36	0xbd48dfe0	-0.04904163
37	0x3c3c3a43	0.0114885
38	0x3da53679	0.080670305
39	0x3c98e9a6	0.0186661
40	0x3df379af	0.11888444
41	0x3de1d0ac	0.11026129
42	0x3e0a89f0	0.13529181
43	0xbd0144a5	-0.031559605
44	0xbe439b19	-0.19102134
45	0xbe2b9ce2	-0.16759065
46	0xbe683547	-0.22676574
47	0x3d8614ac	0.065469116
48	0x3c88aa31	0.016682716
49	0x3d840d38	0.06447834
50	0x3d32e18b	0.043672126
51	0x3d7b5a61	0.06136549
52	0x3d88a606	0.066722915
53	0xbe756969	-0.23965992
54	0xbdd97c85	-0.10619453
55	0xbe57343e	-0.21016023
56	0xbe7180eb	-0.23584335
57	0x3cd3d684	0.025859125
58	0xbde8975c	-0.113569945
59	0xbeb7da3f	-0.35908696
60	0x3ae42189	0.0017405014
61	0x3e66f18d	0.22553082
62	0x3c2dd436	0.010609677
63	0x3e5bef75	0.21478064
64	0x3e57e7bd	0.21084495
65	0xbd24dff8	-0.040252656
66	0x3e8addd1	0.27122357
67	0x3dc51384	0.09622863
68	0x3de9c792	0.11415018
69	0x3dbf45da	0.09339495
70	0x3e185a81	0.14878275
71	0xbd10a4db	-0.03531347
72	0x3e32ef71	0.17474152
73	0x3dfcd4ec	0.12345299
74	0x3c5a387e	0.013319133
75	0x3ce2e3d4	0.027696528
76	0x3c9c7faa	0.019103844
77	0x3ea2607f	0.31714246
78	0x3e0981c5	0.1342841
79	0x3e431ba4	0.19053513
80	0x3da23db4	0.07921925
81	0x3e52feeb	0.20605056
82	0xbdb7dcfa	-0.08977695
83	0x3e845ace	0.25850528
84	0xbb718b9b	-0.0036856893
85	0x3d9058b8	0.07048172
86	0x3e0c5786	0.13705263
87	0x3de67c35	0.11254159
88	0xbee59075	-0.44836774
89	0xbb3fa3aa	-0.0029241838
90	0x3da23aae	0.079213485
91	0x3e086660	0.13320303
92	0x3e12d1a3	0.14337783
93	0x3d2aa271	0.041658822
94	0x3cdf3b87	0.027250065
95	0xbe2662a9	-0.16248573
96	0xbe1c7065	-0.1527725
97	0x3ec55f42	0.38549238
98	0x3e993334	0.29921877
99	0xbe56c2d5	-0.2097276
100	0xbe3c6c5a	-0.18400708
101	0x3e8fdf3e	0.28100008
102	0xbd496edd	-0.049177993
103	0xbcaea169	-0.0213172
104	0x3d706390	0.0586887
105	0x3f10570b	0.5638282
106	0xbe8b33dd	-0.27188006
107	0x3f20a0eb	0.6274554
108	0x3e25bf19	0.16186179
109	0x3e13677b	0.14394943
110	0x3e973878	0.2953527
111	0x3da24b41	0.0792451
112	0x3d558cb5	0.05213614
113	0x3f360489	0.7110067
114	0x3e363122	0.1779218
115	0xbd1f2cf5	-0.038861234
116	0xbe070d83	-0.13188748
117	0xbdf9fa13	-0.12205901
118	0x3eb023bb	0.3440226
119	0x3de72281	0.11285878
120	0xbec78972	-0.3897205
121	0x3dddf215	0.10837189
122	0x3f9d2b34	1.227881
123	0x3d7bd4c3	0.061482202
124	0x3ee14a5e	0.4400205
125	0x3dab64e1	0.083688505
126	0x3df649b2	0.12025775
127	0x3e0306b1	0.12795521
