checkpoint/0_LunarLander_9039_solved.pth (torch_old, 8217 bytes, 5 tensors)

input_layer.weight f4 [128, 8]
000000 4e 48 a5 3d 5e 1d 1a bf 4c 3e 31 be 4c 8a 45 3e
       0.08070432 -0.6020106 -0.1730892 0.19291037
000010 85 bb 6e bd a5 5d df 3c b8 3d 83 be 88 95 4e 3e
       -0.0582843 0.027266333 -0.25633025 0.20174229
000020 0e fa 14 3c 23 ac 27 bd b4 5d 91 be 9c 2d c1 3c
       0.009092821 -0.040935647 -0.28391802 0.023581319
000030 ef e0 21 bd 98 8d 8d 3d 51 f9 97 be b3 aa 7d be
       -0.039521154 0.069117725 -0.296824 -0.24772148
000040 1f 9a 8d 3e a8 bb d5 be 26 18 7f 3c 32 66 82 3e
       0.27656648 -0.41744733 0.015569722 0.25468594
000050 87 a5 3f be d7 e9 9e 3d 82 2b 91 be 84 96 ed bd
       -0.18715487 0.07759445 -0.28353506 -0.11600974
000060 ab a5 80 3f 94 af 7a bf a4 cf 18 be ee 3b ea bf
       1.0050558 -0.9792416 -0.14922959 -1.8299539
000070 18 6b 01 c0 b9 e4 41 c0 59 4d 30 bf c0 cb e6 be
       -2.0221615 -3.0295851 -0.68868023 -0.45077324
000080 fe ea d2 3e e7 b5 10 bf 56 7a c2 3d 28 42 c8 3e
       0.4119491 -0.5652756 0.0949599 0.39112973
000090 20 27 a4 3d 67 7b b0 bd dd e3 e1 be 89 cc 8b 3d
       0.08015275 -0.08617287 -0.44119158 0.06826121
0000a0 73 b7 a6 bd f5 94 cc bd 48 8f f3 bd b0 45 f0 3c
       -0.08140459 -0.09989349 -0.11892563 0.029330105
0000b0 3a 92 a7 be bf 65 cb 3d 8d 73 88 be f1 04 fa bd
       -0.3272875 0.09931516 -0.26650658 -0.12207974
0000c0 47 74 3d 3e 9e 0a f6 ba 81 cd e1 3d 35 df 92 3d
       0.18501388 -0.0018771475 0.11025525 0.071714796
0000d0 2a e8 87 be 2d e6 57 3e 9f 12 2a bf 21 55 a3 be
       -0.26544315 0.21083899 -0.66434664 -0.31900886
0000e0 45 de 9f be b5 1e 0a c0 22 90 11 40 98 b5 7c 40
       -0.31224266 -2.1581242 2.2744222 3.9485836
0000f0 b4 19 df bf 51 14 2e be 40 0b 52 bf 92 d8 1b 3e
       -1.7429719 -0.16999938 -0.82048416 0.15219334
000100 47 4a 94 3e f9 bb de be ff cb 6e be 55 33 f4 3e
       0.2896292 -0.43502787 -0.23320006 0.47695413
000110 05 29 99 bd 00 e4 94 be 06 ff 68 be 66 92 93 be
       -0.07478527 -0.290802 -0.22753534 -0.2882263
000120 c2 36 ba 3e 99 6c 22 be d6 7f a9 3e 12 96 64 3e
       0.36369902 -0.15861739 0.33105344 0.22322872
000130 6d 16 8e be a4 8e 68 3e ad 4f 89 be 06 4c 91 be
       -0.27751485 0.22710663 -0.268186 -0.28378314
000140 68 05 75 3f b2 44 df bf f0 c7 28 c0 72 f2 81 3e
       0.95711374 -1.7442839 -2.6372032 0.25380284
000150 58 07 0f c0 2e ef 71 3f 1e aa f4 3e 53 c2 e6 bf
       -2.2348232 0.94505584 0.4778604 -1.8028053
000160 13 dd 93 3c 64 22 19 be 7d 13 42 3c 52 3b f9 3d
       0.018049752 -0.14954525 0.011845467 0.121695176
000170 e3 0d 04 3d 53 96 f2 bd d4 33 50 bf 47 5c b4 be
       0.032239806 -0.11845078 -0.81329083 -0.35226652
000180 af b9 2b 3f 3b 8b 16 bf d6 a9 6c be d1 4e 88 bf
       0.67080206 -0.588062 -0.23111662 -1.0649053
000190 c3 50 31 3f 40 18 5f bf 93 1d 6e bf 59 43 00 bf
       0.6926386 -0.8714638 -0.93013877 -0.50102764
0001a0 f8 73 a4 bd 55 43 0d bf 65 fb 9a 3e a3 c7 10 3e
       -0.08029932 -0.55180866 0.30269924 0.14138655
0001b0 f5 b2 9b 3d 48 d4 20 be f5 d0 fa bc 6b 83 bb be
       0.07602493 -0.15705979 -0.030617217 -0.366237
0001c0 dc b2 95 bd cc 60 ce be 30 52 b5 3d 64 e4 6b 3e
       -0.07309505 -0.40308225 0.08853567 0.23036343
0001d0 cb ba 2b 3b e5 b8 80 be a3 d3 2d bf 9d b3 9c bd
       0.0026203867 -0.25141063 -0.67901057 -0.07651446
0001e0 c9 33 bf be 30 72 b5 c0 b5 e1 e5 3e fe 73 3e c0
       -0.37344196 -5.670189 0.44898763 -2.9758296
0001f0 fe 69 b0 3c 60 21 bc bc 5e 16 4a c0 1b 34 de be
       0.021534916 -0.022965133 -3.1576152 -0.43399128
000200 89 ef 97 3e dc c1 9d be fc 6a 30 bd 9b 6f 66 3f
       0.29674938 -0.30811965 -0.04307078 0.90014046
000210 f7 45 df bd e4 6b 59 3d 93 ee ca bf 4c 5a 32 3b
       -0.109020166 0.05308141 -1.5854057 0.0027214466
000220 9a 4c 01 3e 43 40 d9 be 77 54 d5 bd 21 e7 97 3e
       0.12626877 -0.4243184 -0.10416501 0.29668525
000230 91 63 af bd 25 af 5f 3e d9 3f ca be 40 74 e9 be
       -0.08563913 0.21844156 -0.39501837 -0.45596504
000240 a8 e9 66 3e 52 67 22 3d 6e 97 b3 3e 0a b7 0d 3e
       0.2255007 0.039649315 0.3507647 0.13839355
000250 e8 fe b6 bd de f7 41 bd b5 1e 48 3e d5 2d fb be
       -0.08935338 -0.047355525 0.19542964 -0.49058405
000260 8a 41 03 3e de 0e 2d bd 59 37 ec 3e 31 5c 91 3e
       0.1281797 -0.042250507 0.46135977 0.2839065
000270 7d 13 a6 be 82 71 61 3d 5e 98 35 bf 7a 15 16 3e
       -0.32436743 0.05503989 -0.7093562 0.1465663
000280 a6 d1 99 3e a9 6a 8a bf e6 5e 50 3e cf 3a 8e 3f
       0.30042762 -1.08138 0.20348701 1.1111697
000290 7f de c6 3e 78 9a c7 be 95 3c 51 be a3 2e 2f be
       0.38841626 -0.38985038 -0.20433266 -0.17107634
0002a0 0e b9 1a be 0b 1d dd bc f3 5b 2f be 0f 40 9d 3e
       -0.15109655 -0.026991388 -0.1712492 0.30712935
0002b0 1a 2a 49 bd 50 c6 45 bc ee 14 0b bf 34 53 04 bf
       -0.049112417 -0.012071207 -0.5432881 -0.5168946
0002c0 d2 85 91 3d 88 30 50 be 06 1b 47 be d0 7d 17 bd
       0.07105602 -0.20331013 -0.19443902 -0.03698522
0002d0 3d 42 c7 bd d3 e0 53 be e8 28 f3 be 39 a5 93 3d
       -0.09729431 -0.20691232 -0.47492146 0.07209248
0002e0 98 2d 8c 3d 9f 4e 85 3d ba 8b 9e 3e a5 fe 2a be
       0.06844634 0.065091364 0.30965978 -0.16698702
0002f0 5c 03 5d be a1 98 d6 3d fb b3 9e be 5c 6d ba be
       -0.21583313 0.104783304 -0.3099669 -0.3641156
000300 0f 4c 2d 3e 4c 24 b7 be 7b ff 01 bd 27 f4 b9 3e
       0.16923545 -0.3576988 -0.031737786 0.36319086
000310 bc a1 57 be b3 bc fe 3d 70 b9 1e be c0 b4 35 bd
       -0.2105779 0.12438335 -0.15500426 -0.04436183
000320 3d 6f f5 3d fa d8 b6 3d 2a 3d fd 3c 19 e4 82 be
       0.11984108 0.08928104 0.030912954 -0.2556465
000330 2b 16 05 be 8b aa 19 be ae bc f6 be 9d 34 f4 be
       -0.12996738 -0.15006463 -0.48190826 -0.4769639
000340 b4 d6 dc bc 50 21 a3 be 22 d5 1b be 02 be 27 3e
       -0.026957847 -0.31861353 -0.15218022 0.16381076
000350 4d a0 c3 be b9 0e 27 3c 27 d9 90 be d2 24 9f be
       -0.38208237 0.010196381 -0.28290674 -0.3108278
000360 07 8e a4 bc fe f9 08 bf 76 ec 07 3e a3 04 0b 3f
       -0.020087255 -0.5350646 0.13273796 0.5430395
000370 73 1f dd bd af de 08 3e 5e 85 d1 3c 70 df c7 bd
       -0.10797014 0.13366197 0.02557629 -0.09759414
000380 1f f1 ab bf f3 31 45 bf 00 d9 5f 3f ed 72 47 3d
       -1.3432959 -0.7702934 0.8744049 0.048693586
000390 77 a9 2e bf aa 16 07 3f 91 9c 55 bf af 2e a6 3e
       -0.6822733 0.5276896 -0.83442026 0.32457492
0003a0 7c d3 d3 3d f6 24 29 bd 33 d6 a7 be e0 e6 34 3f
       0.10343072 -0.041295014 -0.3278061 0.7066479
0003b0 ac 86 92 be 8d d6 8d 3c b3 33 6d bf 0e c3 57 bf
       -0.2861837 0.01731422 -0.9265701 -0.84282005
0003c0 4f 9d 9b be fb 8f 08 bf 27 8b c3 bc 8a e6 fd 3e
       -0.30393454 -0.53344697 -0.023870064 0.4958995
0003d0 25 36 62 3e de cf b2 bd 3b cd 30 be 3a d0 3f bf
       0.22090967 -0.08731054 -0.17265789 -0.74927104
0003e0 66 07 98 be 93 e6 b5 be 3a 8f 14 bd 6d 8e 61 3e
       -0.29693145 -0.35527477 -0.036269404 0.22026987
0003f0 56 b4 5b be f9 9f 9c 3e 83 5e ba be 6b 72 a2 be
       -0.21455511 0.305908 -0.36400232 -0.3172792

input_layer.bias f4 [128]
000000 44 12 2a bf 1a a1 4b bf 5d 48 e9 be 54 c4 cf bf
       -0.6643412 -0.79542696 -0.4556302 -1.623179
000010 3e c8 2d bf 56 ff 3b bf f4 da 2c bf 33 bf 9a bf
       -0.6788367 -0.73436487 -0.67521596 -1.2089599
000020 bd 2a 3f bf 65 99 42 bf d7 b4 f7 bf c0 9e 64 bf
       -0.7467459 -0.7601531 -1.9352063 -0.89304733
000030 1d 63 54 bf fa 6f 33 bf f2 e8 d7 be 0e 9c 61 be
       -0.82963735 -0.7009274 -0.4216991 -0.22032186
000040 85 d9 31 bf d6 87 36 bf f5 40 3d bf d9 ff 2a bf
       -0.69472533 -0.7130102 -0.7392724 -0.6679664
000050 99 f9 9e bf 30 7c fa be 73 f9 0b bf 9c bb 36 bf
       -1.2419921 -0.48922873 -0.54677504 -0.7138002
000060 8f e6 b7 be c9 78 0b bf eb 85 14 bf 30 6b 3f bf
       -0.3591809 -0.5448118 -0.5801684 -0.7477293
000070 bf fc e8 bf 09 d9 f0 bf 5d a4 aa bf 0c f7 74 bf
       -1.8202132 -1.8816234 -1.333141 -0.95689464
000080 ca cb 0c bf 0d a3 69 bf ae 32 11 bf b0 92 80 bf
       -0.5499846 -0.9126442 -0.56717956 -1.0044765
000090 a3 73 91 bf 13 d1 2b bf ea 79 6f 3f 90 e7 78 bf
       -1.1363415 -0.67115897 0.935454 -0.97228336
0000a0 49 2b 94 bf d2 d2 26 bf 89 3e a8 bf 2d 8c 98 bf
       -1.157571 -0.65165436 -1.3144084 -1.1917778
0000b0 fd 50 ca bf 5d 8e 40 bf 1d 73 2a bf 6b 98 b4 bf
       -1.5805966 -0.7521723 -0.665819 -1.4109014
0000c0 ad 06 a2 be 30 7c 8b bf ec 96 72 bf 33 f8 1f bf
       -0.31645718 -1.0897274 -0.9476154 -0.62488097
0000d0 66 98 63 bf 19 d4 0a c0 83 cf 5f bf 0d 41 81 bf
       -0.88904417 -2.1691954 -0.8742601 -1.0097977
0000e0 c7 dc 59 bf 0b 33 73 be 7f 18 f3 be 22 d3 a6 bf
       -0.85102504 -0.2374994 -0.47479627 -1.3033183
0000f0 87 d1 10 bf 6b 6d 18 bf 8a e1 86 bf 28 93 22 bf
       -0.56569713 -0.5954196 -1.0537579 -0.6350579
000100 68 43 ae bf f6 bf 20 bf dd 30 42 bf ee a2 4f bf
       -1.3614321 -0.6279291 -0.7585581 -0.81107986
000110 ee 61 88 bf 48 fa 24 bf ba 81 d2 bf 92 02 77 bf
       -1.0654886 -0.644444 -1.644584 -0.96488297
000120 ba 2c ab bf 4a ad 85 be 33 a0 ae bf ef de 86 bf
       -1.3373024 -0.26108772 -1.3642639 -1.0536784
000130 7c d0 cd bf 3d cc 9c be 2b f8 a1 bf 61 aa ce be
       -1.6079249 -0.3062457 -1.265386 -0.40364364
000140 81 d2 ec be 1f 84 08 bf 4b 2c a8 bf 4e c8 b7 be
       -0.46254352 -0.533266 -1.3138517 -0.35895008
000150 a4 36 42 bf 0a 3b a6 bf 4a 8d ae bf 80 35 09 bf
       -0.75864625 -1.2986767 -1.3636868 -0.5359726
000160 dd 8f da bf 58 e4 a2 bf 18 90 8b bf 0c 74 c0 bf
       -1.7075154 -1.2725935 -1.0903349 -1.5035415
000170 e1 ed 2e bf ee d2 84 bf e0 ef 4d be 9b c4 74 bf
       -0.68331724 -1.0376871 -0.20111036 -0.95612496
000180 cf d2 8c bf e9 5d 76 bf 31 c2 32 bf 26 56 aa bf
       -1.1001834 -0.96237046 -0.6982756 -1.330754
000190 9b 7e 26 bf 6e f8 10 bf b1 dc 04 bf 13 ee 63 bf
       -0.65036935 -0.56629074 -0.5189925 -0.8903515
0001a0 a4 c8 0e bf 7c d2 09 bf c0 75 9d bf 54 0f 91 bf
       -0.55774903 -0.538368 -1.230156 -1.1332803
0001b0 11 e4 2b bf 1b 87 4b bf 27 a7 30 bf 27 d6 45 bf
       -0.67144877 -0.7950303 -0.69005054 -0.77279896
0001c0 35 74 2b bf 77 95 cc bf 37 7c 2a bf df 2a 21 be
       -0.6697419 -1.5983113 -0.66595787 -0.1573901
0001d0 6c 1b e7 be f8 a3 2e bf 33 1c 58 bf 34 93 78 bf
       -0.4513811 -0.68218946 -0.8441803 -0.97099614
0001e0 38 f4 5e bf 14 ad e8 bf 95 4a 9d be 55 3b 1e bf
       -0.870914 -1.8177819 -0.30720964 -0.61809283
0001f0 d0 8e b0 bf 2f 31 44 bf b2 2f e9 be ad c1 8f bf
       -1.3793583 -0.7663755 -0.455442 -1.123098

action_layer.weight f4 [4, 128]
000000 1f 98 d0 bd 49 6e 39 be d0 9b d7 3d fe 90 c9 bf
       -0.10185265 -0.18108477 0.10527766 -1.5747373
000010 a5 0a 13 be b5 41 37 3d a2 bc 71 be 8b f9 48 3e
       -0.1435953 0.044740397 -0.23607114 0.19626443
000020 e2 e4 cd 3d 0b 24 c7 bd 89 4d f2 bf c2 09 23 3e
       0.100534216 -0.097236715 -1.8929912 0.15921691
000030 92 6d a8 3f 94 5f 95 be 3d d7 64 be 7b 3d f1 be
       1.3158438 -0.29174483 -0.22347732 -0.47117218
000040 0f a4 21 3d 19 23 97 be 43 15 7b 3b 16 a8 ba bd
       0.0394631 -0.29518965 0.0038312234 -0.09114091
000050 44 f8 d7 bd 52 c4 f0 3e b0 ba 27 be 97 f0 64 be
       -0.105454 0.4702478 -0.1637981 -0.22357403
000060 9d 55 10 3e 5b 28 d5 bd 01 b2 7c be 14 53 bb be
       0.14095159 -0.10408088 -0.24677278 -0.3658682
000070 94 c2 38 bf 54 2e 78 3d 63 7e bd be df d2 1b be
       -0.721719 0.060591057 -0.37010488 -0.1521716
000080 16 85 8f be 27 9c 40 c0 3e 14 f2 3e fd b1 aa be
       -0.28031224 -3.0095308 0.4728107 -0.3333892
000090 2a cf 3f 3f 29 dd 7d bc 22 d0 aa 40 93 4f bc 3d
       0.7492548 -0.015494623 5.337907 0.09194865
0000a0 f4 03 32 bf c8 ca c1 be 61 66 ce be 84 67 8b be
       -0.6953728 -0.37850022 -0.40312484 -0.27227414
0000b0 1e b3 33 3e aa 9f 9a bd ab e8 1d bf 97 19 07 bf
       0.17548797 -0.07549985 -0.6168315 -0.5277342
0000c0 4b 77 1e 3e a2 20 9a 3e f2 d7 02 3f 3f 19 18 be
       0.15475194 0.30103022 0.51110756 -0.1485338
0000d0 1b 41 10 bd a1 e4 bb 3e 15 8b 3a be e1 d2 5e c0
       -0.03521834 0.36697868 -0.18217118 -3.481621
0000e0 67 80 f2 be 67 5d 25 be a5 28 dc be f4 f0 4a 3f
       -0.47363588 -0.16148911 -0.4299976 0.79273915
0000f0 9b 73 a5 3b 52 83 9a 3e fd b4 0b be e6 f4 04 3c
       0.0050491816 0.30178314 -0.1364326 0.008115029
000100 f1 76 bd be cd 7d 87 3f c6 41 b4 3c 03 20 0e be
       -0.37004808 1.0585266 0.02200402 -0.13879399
000110 5d cd c3 3e 6a 5f 1b be 58 d8 0b be f8 0a a8 3e
       0.38242617 -0.15173116 -0.13656747 0.32820868
000120 76 4f 24 bf f1 85 9f bd 00 b4 fe bd 9a 13 7d be
       -0.6418375 -0.07789219 -0.12436676 -0.24714509
000130 3f 25 73 3f 12 42 5f c0 75 10 08 bf 78 e0 45 bd
       0.9497871 -3.4884076 -0.5315011 -0.048309773
000140 35 ba 89 be fe 59 53 3e 03 06 78 bf 44 d3 0e be
       -0.26899877 0.20639798 -0.96884173 -0.13947779
000150 8c 2b a8 3d 11 83 91 3e 49 e2 b3 be ee 41 db bf
       0.08211431 0.28420308 -0.3513358 -1.7129495
000160 a9 64 a1 be 8e fc 4d bf 35 2d e8 bf 9f ed ab 3d
       -0.3152211 -0.8046349 -1.8138796 0.08394932
000170 ba d6 83 be b4 28 e3 bf f4 fd 56 c0 f3 4c 98 be
       -0.2574976 -1.7746797 -3.35925 -0.29746208
000180 92 8a e6 be ae 3f 05 bf 0a 0b 7f 3d a3 58 d2 bd
       -0.45027596 -0.5205029 0.062266387 -0.10270812
000190 a2 7e 1d 3e a2 07 98 bf 77 8d c6 be 2f 40 26 3e
       0.15380338 -1.1877329 -0.38779804 0.16235422
0001a0 c7 bc aa be 95 0b fc be 96 7f a8 3e 12 21 a1 3e
       -0.3334715 -0.49227586 0.3290984 0.31470543
0001b0 3f 5d e4 bf 1a 3d 2c 3d 1a 84 50 be 6c e0 e8 bd
       -1.7840956 0.04205046 -0.20362893 -0.1137093
0001c0 83 77 93 bd ba fc 8b be e7 b0 14 c0 d9 57 30 c0
       -0.072005294 -0.27341253 -2.3232973 -2.7553618
0001d0 73 c9 a0 3d 09 b3 c9 3e ec 3a c2 bf dd 76 d8 bd
       0.078509234 0.39394405 -1.5174232 -0.10569546
0001e0 c9 39 36 bd b1 76 28 3f 9d ac af be 13 bd 27 3f
       -0.044488702 0.6580611 -0.3431138 0.6552288
0001f0 17 4e dd bf e6 b5 25 bf 46 9d 2b be b9 0f 63 3f
       -1.7289456 -0.6473068 -0.16759214 0.88695866
000200 ff 63 3f 3d 26 56 0f 3e e8 d7 b8 bc be 93 5c 3f
       0.046726223 0.13997707 -0.02256389 0.86162937
000210 7d 80 8e bd 9d e3 b1 3e e5 55 bb be 6b 17 51 40
       -0.06958101 0.34743968 -0.3658897 3.2670543
000220 d8 32 8a 3e 87 9c 05 3d de 1d c5 3f 5e 8c 22 bf
       0.26991916 0.03261998 1.539974 -0.63495433
000230 0a fc 8d be 08 b6 ee 3e c3 43 0d 3f cb ba 76 c0
       -0.27731353 0.46623254 0.5518152 -3.855151
000240 da a2 be 3e 49 13 95 bd d8 3d 2f be bc 82 8b be
       0.3723362 -0.07279069 -0.17113435 -0.2724818
000250 56 33 5f 3f 71 2e a7 3e cc f8 28 bc 79 89 c1 3c
       0.8718771 0.3265262 -0.010313224 0.023625122
000260 1c 50 80 bc 7a 79 91 3e e4 39 fa 3b 6c 29 04 3f
       -0.0156632 0.28412992 0.0076362956 0.51625705
000270 59 00 b2 bf c5 90 d1 3c 64 2b e3 3e ab 1f 21 3e
       -1.3906356 0.025581727 0.44369042 0.15734737
000280 eb 79 21 be 8d 48 5a c0 fc f0 43 bf 1d 15 97 bd
       -0.15769164 -3.4106781 -0.7653959 -0.07377074
000290 d3 d6 5b 3d 93 31 62 bd df 45 ac bf fb 63 89 be
       0.05367167 -0.05522306 -1.3458823 -0.26834092
0002a0 fb 69 0a 3f 35 4b 51 be a7 cd d0 3f 0e 2c 09 40
       0.54067963 -0.20438845 1.631276 2.143314
0002b0 1d c7 a5 bc 8b 3c 04 3f 39 52 74 40 5e c4 5c 3e
       -0.020236546 0.5165488 3.8175185 0.21559283
0002c0 41 1e 52 3c d8 cd dd 3e 02 1d 23 3f 83 eb a9 3d
       0.012824596 0.4332111 0.6371614 0.082968734
0002d0 6d e1 4a 3d 24 42 84 bf 96 91 8a 3e 0b ea 22 40
       0.04953139 -1.0332685 0.27064198 2.5455348
0002e0 fd e5 99 be 3a 1c af 3b 30 4b 23 3f 43 65 0f c0
       -0.3005828 0.005343941 0.637866 -2.2405555
0002f0 77 fb d2 3d cc f2 84 be 32 c1 15 c0 79 d2 96 40
       0.10301869 -0.2596649 -2.3399167 4.7131925
000300 af 2f c5 be 72 be c5 3e 61 ba 1e bf 36 6f fa bd
       -0.38512942 0.3862186 -0.6200314 -0.12228243
000310 17 7e 1a bf 3a 26 38 3e f0 71 45 3f 28 3a 0e 3f
       -0.6034865 0.17983332 0.7712698 0.5555749
000320 4f 85 22 3f a9 36 be 3e 94 e8 8b bd 56 46 7e 3e
       0.6348466 0.37151077 -0.0683147 0.24831519
000330 e2 bb d7 3e 83 c1 4d bf a9 5f 13 3f 38 18 8f bd
       0.4213553 -0.803734 0.5756784 -0.06987041
000340 d8 8a 13 be 57 94 f9 bc 14 4d f3 be cf d2 12 3e
       -0.14408433 -0.030466242 -0.47519743 0.1433823
000350 b3 65 a6 be 78 37 22 3f 5b 17 7e bf d1 52 17 c0
       -0.32499465 0.6336589 -0.9925439 -2.3644297
000360 45 1b 63 bf 45 a3 f7 3e e7 33 8a 40 93 be a8 3e
       -0.88713485 0.48366752 4.3188357 0.32957897
000370 e2 26 82 be ff a8 11 c0 ef ca b6 be e3 1a ea 3e
       -0.2542029 -2.2759397 -0.357017 0.45723638
000380 f2 27 2d 3f e3 f3 28 3f cd 24 35 bf d6 8e 9a 3e
       0.67639077 0.6599714 -0.7075928 0.301871
000390 e6 fc 4a be 4d 90 2b bf 7b 77 44 3e a2 7b d1 3c
       -0.19823036 -0.6701706 0.19186203 0.025571648
0003a0 a0 c6 29 3e bc a3 e5 be 16 0f cf 3e cf 68 fd 3e
       0.16579676 -0.44851482 0.40441197 0.49494025
0003b0 5c 38 fb 40 37 bf 14 3f aa fe ad 3e c2 43 be 3e
       7.85063 0.5810427 0.33983356 0.3716107
0003c0 a4 5e 29 3d 5f e6 30 3e 93 db 66 c0 4d 04 01 c0
       0.041350022 0.1727538 -3.6071517 -2.0158875
0003d0 e6 07 bd 3e cd a6 a1 3e 86 7f 4c c0 b5 33 eb 3c
       0.3692009 0.3157257 -3.1952834 0.02871118
0003e0 a8 56 82 be 9f b9 da be 4d 74 32 3e 7f 3e 10 c0
       -0.25456738 -0.42719743 0.17427178 -2.2538145
0003f0 ce 5d af c0 d2 33 36 3e 3c c7 28 bb 91 1c 46 bf
       -5.480201 0.17793205 -0.0025753519 -0.7738734

action_layer.bias f4 [4]
000000 70 34 1c 3f 7c 2b 13 3f 3d bf d9 bf 28 6d f1 3f
       0.61017513 0.57488227 -1.7011486 1.8861437

value_layer.weight f4 [1, 128]
000000 68 1a a2 3c cf bc a4 3d 61 53 a8 bc ea 58 cc 3d
       0.019787982 0.08043825 -0.02054757 0.099778965
000010 dc 05 15 bc 80 fb 34 3d 7e 19 5f 3d 39 41 2d 3c
       -0.009095635 0.04418516 0.05446767 0.010574632
000020 db 13 c0 3d 88 f7 31 3e d4 a6 a8 3e 24 98 6a be
       0.09378787 0.17379582 0.3293978 -0.229096
000030 2a 85 ed ba bf 21 e1 bc cd fb 14 3e 54 2a 77 3e
       -0.0018121351 -0.027481912 0.1454918 0.2413724
000040 6c aa c0 3c 32 17 a3 bd 15 d7 a3 3d 4a 56 f0 3d
       0.023518763 -0.079634085 0.08000008 0.11735208
000050 c3 99 ec be fb 4b c4 bb 15 16 ac 3e a4 42 ec 3d
       -0.4621106 -0.005990503 0.33610597 0.11536148
000060 23 bc ec 3c 5b 1b 90 bc 3a f0 1c bd 8a 5b 55 3e
       0.028898304 -0.01759117 -0.038315035 0.208357
000070 44 7c 38 be dc 77 24 bd ff c3 ce be e2 d0 34 3c
       -0.18016154 -0.04015337 -0.40383908 0.01103613
000080 58 67 08 3d 63 58 5c be da 46 70 3e 2d fb 33 be
       0.03330168 -0.21518092 0.23464528 -0.17576285
000090 0d 49 80 3e b3 b2 04 3e 8f 9d dd be ca d6 72 3e
       0.25055733 0.12958793 -0.4328427 0.23714748
0000a0 ec 69 ab 3d 2a 62 ea bc 10 9c dc bd 5d a6 8b be
       0.08369812 -0.028611261 -0.10771954 -0.27275363
0000b0 5e c2 10 3f 8f 95 95 bd e0 3e b4 be a6 8b 3f be
       0.5654658 -0.07303917 -0.3520422 -0.18705615
0000c0 01 7e 40 3e 58 a4 e3 3d 7f e1 ac bd 68 d9 2c bd
       0.18798067 0.111153305 -0.084414475 -0.042199522
0000d0 eb ca 5e 3d 0e 51 14 be 75 8e 83 bd f3 53 4b 3e
       0.054392736 -0.14484045 -0.06423656 0.19856243
0000e0 41 29 66 3e 65 e6 74 bc 2d 41 31 3d 13 78 c1 3d
       0.22476675 -0.014947508 0.043275047 0.094467305
0000f0 2e 2c 2c bd 79 8d 6d be 6d fd 8c 3e f3 74 01 3f
       -0.04203432 -0.23198499 0.275371 0.50569075
000100 6a 33 eb 3d f7 2d 8b bd 45 f6 6e 3d 8d 69 22 3d
       0.11484416 -0.067958765 0.05834033 0.039651442
000110 88 6b 55 3e 23 2a f0 3d e8 47 cd be e6 b2 cd bd
       0.20841801 0.11726787 -0.40093923 -0.10043888
000120 58 c2 cc be 86 ef f3 3d 04 50 db be bb 0f 32 be
       -0.39992023 0.1191092 -0.42834485 -0.17388813
000130 da 9b 18 3e b5 5e 2e bf a2 c4 35 3f 12 66 89 bc
       0.14903203 -0.6811326 0.7100316 -0.016772304
000140 b5 b9 cc bc 9e a5 8e bd 20 aa f9 bd f3 10 cb 3d
       -0.024990896 -0.06965183 -0.12190652 0.09915342
000150 40 0d 2c bd e8 1e f8 bd f7 74 a8 bd 58 17 b2 bd
       -0.042004824 -0.1211527 -0.08225434 -0.08695859
000160 9f e1 77 3e 35 40 8a 3d 0d 72 a5 3e 1a b9 57 be
       0.24207161 0.06750528 0.32313576 -0.21066704
000170 3c 0b 1a 3e db 57 d3 3e a1 c8 cb be e2 e6 a8 3d
       0.15043348 0.41277966 -0.39801505 0.082471624
000180 7e 6d 7c 3d 6f 53 fd bd 07 cd 07 be d9 74 1b bf
       0.061627857 -0.12369429 -0.13261805 -0.6072517
000190 b8 94 90 bd 39 78 00 3f dc b3 b0 be 6f 24 65 be
       -0.07059616 0.50183445 -0.34512222 -0.2237718
0001a0 78 bf 44 3c 72 cb bd 3d c6 92 cc 3d 8d 42 92 3d
       0.01200854 0.0926732 0.09988932 0.071416
0001b0 db f6 a7 bd 49 f8 59 3c 48 31 88 bd 69 27 aa 3d
       -0.08201381 0.013303825 -0.06650025 0.08308298
0001c0 ee f3 07 3e 6e 6d 19 3d e3 be e1 3e b6 06 46 be
       0.13276646 0.037457876 0.44090948 -0.19338498
0001d0 19 53 39 3d d9 f2 9a ba a0 1e 2c bf 5b 5a 80 bc
       0.045245264 -0.0011821642 -0.6723423 -0.015668085
0001e0 de 2e ff bd ca 74 2e be 6a 15 a8 bc b9 e7 c1 3e
       -0.12460111 -0.17036739 -0.020518024 0.37872103
0001f0 01 89 c7 be e8 22 d5 3d 47 d8 40 3d 55 15 f9 bc
       -0.38971713 0.104070485 0.04708126 -0.03040568
