checkpoint/LunarLander_10000.pth (torch_old, 8217 bytes, 5 tensors)

input_layer.weight f4 [128, 8]
000000 f6 dc bd be 55 21 c4 be 19 f4 22 3f a6 bd c6 3e
       -0.37082642 -0.3830668 0.63653713 0.38816565
000010 d9 ef cb bf 49 ec 99 bf b8 3d 83 be d9 dd db be
       -1.5932571 -1.2025234 -0.25633025 -0.42942694
000020 15 f2 77 3d 70 b8 c9 be f4 10 97 be d4 c0 3e 3e
       0.0605336 -0.39398527 -0.29505122 0.18628246
000030 19 4b 6d be 71 5a 89 3d 47 9d 6e bf e7 6a 83 bf
       -0.23173179 0.067067035 -0.93208736 -1.0266999
000040 1f 9a 8d 3e a8 bb d5 be 26 18 7f 3c 32 66 82 3e
       0.27656648 -0.41744733 0.015569722 0.25468594
000050 87 a5 3f be d7 e9 9e 3d 82 2b 91 be 84 96 ed bd
       -0.18715487 0.07759445 -0.28353506 -0.11600974
000060 33 e5 4a 3f a6 ec 83 bf 4b 50 f6 bc c6 16 ee bf
       0.7925598 -1.0306594 -0.030067584 -1.86007
000070 32 ee 05 c0 52 96 39 c0 d7 33 7e bf 38 e7 23 bf
       -2.0926633 -2.8997998 -0.9929785 -0.64024687
000080 fe ea d2 3e e7 b5 10 bf 56 7a c2 3d 28 42 c8 3e
       0.4119491 -0.5652756 0.0949599 0.39112973
000090 20 27 a4 3d 67 7b b0 bd dd e3 e1 be 89 cc 8b 3d
       0.08015275 -0.08617287 -0.44119158 0.06826121
0000a0 73 b7 a6 bd f5 94 cc bd 48 8f f3 bd b0 45 f0 3c
       -0.08140459 -0.09989349 -0.11892563 0.029330105
0000b0 3a 92 a7 be bf 65 cb 3d 8d 73 88 be f1 04 fa bd
       -0.3272875 0.09931516 -0.26650658 -0.12207974
0000c0 47 74 3d 3e 9e 0a f6 ba 81 cd e1 3d 35 df 92 3d
       0.18501388 -0.0018771475 0.11025525 0.071714796
0000d0 2a e8 87 be 2d e6 57 3e 9f 12 2a bf 21 55 a3 be
       -0.26544315 0.21083899 -0.66434664 -0.31900886
0000e0 0f 31 8e bf 1e ab 09 c0 a7 01 58 40 bf 5d 85 40
       -1.1108721 -2.1510692 3.3751009 4.1676936
0000f0 b3 fe 2f c0 e9 e8 fa be 16 27 1a bf 47 59 fb bd
       -2.7499206 -0.4900582 -0.6021589 -0.12272888
000100 47 4a 94 3e f9 bb de be ff cb 6e be 55 33 f4 3e
       0.2896292 -0.43502787 -0.23320006 0.47695413
000110 05 29 99 bd 00 e4 94 be 06 ff 68 be 66 92 93 be
       -0.07478527 -0.290802 -0.22753534 -0.2882263
000120 c2 36 ba 3e 99 6c 22 be d6 7f a9 3e 12 96 64 3e
       0.36369902 -0.15861739 0.33105344 0.22322872
000130 6d 16 8e be a4 8e 68 3e ad 4f 89 be 06 4c 91 be
       -0.27751485 0.22710663 -0.268186 -0.28378314
000140 cd 2c cf 3f 6c 56 23 c0 04 6b d8 bf 19 81 0d 3f
       1.6185547 -2.5521498 -1.6907659 0.5527511
000150 c6 1f 05 c0 1a 35 ca 3f eb cb e8 3e 95 a0 fe bf
       -2.0800643 1.5797455 0.45468077 -1.9892756
000160 2b dd 93 3c 64 22 19 be 91 18 42 3c 8a 3b f9 3d
       0.018049797 -0.14954525 0.011846677 0.12169559
000170 81 0d 04 3d b7 96 f2 bd d4 33 50 bf 56 5c b4 be
       0.03223944 -0.11845153 -0.81329083 -0.35226697
000180 c2 c8 1b 3f dd aa 23 bf 99 0e 27 be af 22 83 bf
       0.6085321 -0.6393259 -0.16314162 -1.024496
000190 cf f8 be 3e ae fd 59 bf 62 9d 6d bf f4 7e e8 be
       0.372992 -0.8515271 -0.9281827 -0.45409358
0001a0 f8 73 a4 bd 55 43 0d bf 65 fb 9a 3e a3 c7 10 3e
       -0.08029932 -0.55180866 0.30269924 0.14138655
0001b0 f5 b2 9b 3d 48 d4 20 be f5 d0 fa bc 6b 83 bb be
       0.07602493 -0.15705979 -0.030617217 -0.366237
0001c0 2e c3 84 3f 09 17 81 bf 69 ff cc 3d f5 b8 96 3f
       1.0372064 -1.0085155 0.10009653 1.1775194
0001d0 51 a7 fa bd 90 75 8a be a3 d3 2d bf ce 68 2e bf
       -0.12238944 -0.27042818 -0.67901057 -0.6812867
0001e0 ab 09 b9 3c c2 a6 b7 c0 e4 31 9f be 04 0d 78 c0
       0.022587618 -5.739106 -0.3109275 -3.8757944
0001f0 f9 82 4e 3e 51 6c f2 3d 78 12 65 c0 5f 92 65 be
       0.2016715 0.11837066 -3.5792522 -0.22419117
000200 89 ef 97 3e dc c1 9d be fc 6a 30 bd 9b 6f 66 3f
       0.29674938 -0.30811965 -0.04307078 0.90014046
000210 f7 45 df bd e4 6b 59 3d 93 ee ca bf 4c 5a 32 3b
       -0.109020166 0.05308141 -1.5854057 0.0027214466
000220 ea c5 1f 3e f8 5c 09 bf b6 39 e3 bd b7 25 b8 3e
       0.15602842 -0.53657484 -0.11094992 0.35966274
000230 78 94 2f be 39 29 88 bd d9 3f ca be bd a5 8b bf
       -0.1714648 -0.066484876 -0.39501837 -1.0909954
000240 a8 e9 66 3e 52 67 22 3d 6e 97 b3 3e 0a b7 0d 3e
       0.2255007 0.039649315 0.3507647 0.13839355
000250 e8 fe b6 bd de f7 41 bd b5 1e 48 3e d5 2d fb be
       -0.08935338 -0.047355525 0.19542964 -0.49058405
000260 74 b9 96 3f 87 61 a2 bf b3 43 92 be 2c b3 a1 be
       1.1775346 -1.2686013 -0.28567275 -0.3158201
000270 6c 60 59 be 72 42 3e 3f 5e 98 35 bf 14 20 d8 3e
       -0.21228188 0.7432014 -0.7093562 0.42211974
000280 a6 d1 99 3e a9 6a 8a bf e6 5e 50 3e cf 3a 8e 3f
       0.30042762 -1.08138 0.20348701 1.1111697
000290 7f de c6 3e 78 9a c7 be 95 3c 51 be a3 2e 2f be
       0.38841626 -0.38985038 -0.20433266 -0.17107634
0002a0 dc 7f 96 3d f7 04 36 bf c6 0d 8f 3e e7 33 91 3f
       0.07348606 -0.71101326 0.27940196 1.1343964
0002b0 3c 13 40 bf 4d ec 1c 3e ee 14 0b bf a4 e8 73 bf
       -0.7502935 0.15324517 -0.5432881 -0.95276856
0002c0 1a 4c fe 3f 01 b0 87 bf 97 94 e6 be 89 89 6d 3e
       1.9866974 -1.0600587 -0.4503524 0.23196997
0002d0 20 8e 7f 3f 15 db ee 3e 29 3c a7 bf 07 2e 2d 3f
       0.9982624 0.4665152 -1.3065234 0.6764836
0002e0 98 2d 8c 3d 9f 4e 85 3d ba 8b 9e 3e a5 fe 2a be
       0.06844634 0.065091364 0.30965978 -0.16698702
0002f0 5c 03 5d be a1 98 d6 3d fb b3 9e be 5c 6d ba be
       -0.21583313 0.104783304 -0.3099669 -0.3641156
000300 0f 4c 2d 3e 4c 24 b7 be 7b ff 01 bd 27 f4 b9 3e
       0.16923545 -0.3576988 -0.031737786 0.36319086
000310 bc a1 57 be b3 bc fe 3d 70 b9 1e be c0 b4 35 bd
       -0.2105779 0.12438335 -0.15500426 -0.04436183
000320 3d 6f f5 3d fa d8 b6 3d 2a 3d fd 3c 19 e4 82 be
       0.11984108 0.08928104 0.030912954 -0.2556465
000330 2b 16 05 be 8b aa 19 be ae bc f6 be 9d 34 f4 be
       -0.12996738 -0.15006463 -0.48190826 -0.4769639
000340 35 56 31 3f 0f 11 7a bf 4a 79 00 3f 7e 2a 5a 3e
       0.69272166 -0.9768228 0.5018507 0.21305272
000350 a3 9a 01 3f 1a ee e5 3d 27 d9 90 be 35 34 72 bf
       0.5062658 0.11227055 -0.28290674 -0.9461091
000360 07 8e a4 bc fe f9 08 bf 76 ec 07 3e a3 04 0b 3f
       -0.020087255 -0.5350646 0.13273796 0.5430395
000370 73 1f dd bd af de 08 3e 5e 85 d1 3c 70 df c7 bd
       -0.10797014 0.13366197 0.02557629 -0.09759414
000380 29 c8 b2 bf fc 82 53 be d2 c2 b5 3f 6d a0 0d bf
       -1.3967334 -0.20655435 1.420008 -0.55322915
000390 6b 50 89 bf cf 32 78 3e fe 2c 83 bf 5b 6d 9a be
       -1.0727667 0.24238132 -1.0248106 -0.30161557
0003a0 1d 57 1a 3e b4 51 29 bd 85 e0 8f be 90 dd 3d 3f
       0.15072294 -0.041337684 -0.28100982 0.741662
0003b0 50 90 97 be 9d 1e 5b 3d b3 33 6d bf 0e c3 57 bf
       -0.2960229 0.053495992 -0.9265701 -0.84282005
0003c0 4f 9d 9b be fb 8f 08 bf 27 8b c3 bc 8a e6 fd 3e
       -0.30393454 -0.53344697 -0.023870064 0.4958995
0003d0 25 36 62 3e de cf b2 bd 3b cd 30 be 3a d0 3f bf
       0.22090967 -0.08731054 -0.17265789 -0.74927104
0003e0 ac da 45 3e 40 af 85 bf 55 a8 61 3e 4e 9e bc 3e
       0.19321698 -1.0444107 0.2203687 0.36839527
0003f0 94 2c 6b be 1d c4 df 3e 83 5e ba be 95 40 3f 3d
       -0.22966224 0.4370431 -0.36400232 0.04669245

input_layer.bias f4 [128]
000000 46 cd 9a bf 62 c9 6a bf 5d 48 e9 be 38 0a d6 bf
       -1.2093894 -0.91713536 -0.4556302 -1.6721869
000010 3e c8 2d bf 56 ff 3b bf f4 da 2c bf 3a 38 c8 be
       -0.6788367 -0.73436487 -0.67521596 -0.39105397
000020 bd 2a 3f bf 65 99 42 bf 02 2d 11 c0 c8 9e 64 bf
       -0.7467459 -0.7601531 -2.268372 -0.8930478
000030 c0 b4 66 bf fa 6f 33 bf dc 17 c9 bf 5b 66 33 3d
       -0.9011955 -0.7009274 -1.5710406 0.043798786
000040 85 d9 31 bf f7 b7 64 bf f5 40 3d bf d4 81 db bf
       -0.69472533 -0.8934321 -0.7392724 -1.7148995
000050 99 f9 9e bf e3 55 71 bf 2f 73 c9 bf 9c bb 36 bf
       -1.2419921 -0.9427168 -1.5738276 -0.7138002
000060 8f e6 b7 be c9 78 0b bf 5d dc ae bf 30 6b 3f bf
       -0.3591809 -0.5448118 -1.3661 -0.7477293
000070 2f 24 fd bf 73 db f6 bf 5d a4 aa bf 4b 10 aa bf
       -1.9776667 -1.928572 -1.333141 -1.3286222
000080 ca cb 0c bf 5f d7 99 bf ae 32 11 bf 5a 64 da bf
       -0.5499846 -1.2018851 -0.56717956 -1.7061875
000090 44 6f e2 bf 13 d1 2b bf b3 48 87 3f 8e 86 92 bf
       -1.7690206 -0.67115897 1.0569061 -1.1447313
0000a0 15 f0 9d bf d2 d2 26 bf 0e b9 bb bf 1e 6d 91 bf
       -1.2338892 -0.65165436 -1.4665849 -1.1361425
0000b0 fd 50 ca bf 5d 8e 40 bf 38 79 2b bf 83 c6 b4 bf
       -1.5805966 -0.7521723 -0.6698184 -1.4123081
0000c0 ad 06 a2 be 5b 77 af bf ec 96 72 bf 33 f8 1f bf
       -0.31645718 -1.3708299 -0.9476154 -0.62488097
0000d0 66 98 63 bf 62 fc 15 c0 83 cf 5f bf 17 65 c3 be
       -0.88904417 -2.3435292 -0.8742601 -0.38163063
0000e0 c7 dc 59 bf 0b 33 73 be 7f 18 f3 be 37 9c b8 be
       -0.85102504 -0.2374994 -0.47479627 -0.36056682
0000f0 87 d1 10 bf 6b 6d 18 bf 67 6b 94 bf 8b b3 de bd
       -0.56569713 -0.5954196 -1.1595277 -0.10874089
000100 68 43 ae bf f4 07 60 bf f2 88 c2 bf ee a2 4f bf
       -1.3614321 -0.87512136 -1.5198042 -0.81107986
000110 ee 61 88 bf 48 fa 24 bf ba 81 d2 bf 92 02 77 bf
       -1.0654886 -0.644444 -1.644584 -0.96488297
000120 c2 f8 c2 bf 4a ad 85 be cb 8e c7 bf ef de 86 bf
       -1.5232165 -0.26108772 -1.5590452 -1.0536784
000130 7c d0 cd bf 4b 6c bb bd ec 6e 4d bf 61 aa ce be
       -1.6079249 -0.091515146 -0.8024738 -0.40364364
000140 81 d2 ec be fa ca 24 bf c1 5c ab bf fd 43 4a bf
       -0.46254352 -0.6437222 -1.3387681 -0.7900999
000150 a4 36 42 bf 0a 3b a6 bf 9d 43 06 c0 d9 66 42 be
       -0.75864625 -1.2986767 -2.0978768 -0.18984546
000160 9a 37 eb bf 07 b1 a7 bf e3 9f 48 bf 0c 74 c0 bf
       -1.8376343 -1.31009 -0.7836897 -1.5035415
000170 e1 ed 2e bf 21 7d 7d bf d1 2a a5 bd 9b c4 74 bf
       -0.68331724 -0.99019057 -0.08064807 -0.95612496
000180 cf d2 8c bf e9 5d 76 bf d7 f0 a3 bf 26 56 aa bf
       -1.1001834 -0.96237046 -1.2807873 -1.330754
000190 3e 23 2f bf c6 ed 60 bf 53 92 e4 bf 24 df 6b bf
       -0.6841315 -0.87862813 -1.7857155 -0.9213736
0001a0 91 c1 19 bf 7c d2 09 bf 22 14 9e bf 54 0f 91 bf
       -0.60060984 -0.538368 -1.2349894 -1.1332803
0001b0 b7 8f cd bd 1b 87 4b bf 27 a7 30 bf 27 d6 45 bf
       -0.10037177 -0.7950303 -0.69005054 -0.77279896
0001c0 35 74 2b bf 56 04 d9 bf b4 b4 60 bf 24 ee ab be
       -0.6697419 -1.6954448 -0.8777573 -0.33580124
0001d0 6c 1b e7 be f8 a3 2e bf 7b 1f 91 bf 34 93 78 bf
       -0.4513811 -0.68218946 -1.1337732 -0.97099614
0001e0 b1 e5 e4 bf 14 ad e8 bf f8 5c 6b bf 0b 44 51 be
       -1.7882596 -1.8177819 -0.91938734 -0.20436113
0001f0 41 07 8e bf e0 32 de bf 30 63 23 bf ad c1 8f bf
       -1.1095964 -1.7359276 -0.63823223 -1.123098

action_layer.weight f4 [4, 128]
000000 c2 cd d2 bd 49 6e 39 be d0 9b d7 3d f6 90 c9 bf
       -0.102931514 -0.18108477 0.10527766 -1.5747364
000010 a5 0a 13 be b5 41 37 3d a2 bc 71 be 63 e3 e9 3e
       -0.1435953 0.044740397 -0.23607114 0.45681295
000020 e2 e4 cd 3d 0b 24 c7 bd 08 ec d5 bf c2 09 23 3e
       0.100534216 -0.097236715 -1.6712656 0.15921691
000030 a2 6d a8 3f 94 5f 95 be 3d d7 64 be a2 80 51 be
       1.3158457 -0.29174483 -0.22347732 -0.20459226
000040 0f a4 21 3d 19 23 97 be 43 15 7b 3b 55 b1 d0 bd
       0.0394631 -0.29518965 0.0038312234 -0.101900734
000050 44 f8 d7 bd fb fa 02 3f f3 7b 4b be 97 f0 64 be
       -0.105454 0.51164216 -0.19871502 -0.22357403
000060 9d 55 10 3e 5b 28 d5 bd 01 b2 7c be 14 53 bb be
       0.14095159 -0.10408088 -0.24677278 -0.3658682
000070 e3 42 38 bf 54 2e 78 3d 63 7e bd be 3f f4 3d bf
       -0.7197706 0.060591057 -0.37010488 -0.74200815
000080 16 85 8f be de 5d 4f c0 3e 14 f2 3e fd b1 aa be
       -0.28031224 -3.2401042 0.4728107 -0.3333892
000090 b3 d5 3f 3f 29 dd 7d bc 1f 4e bf 40 16 a4 1a bf
       0.74935454 -0.015494623 5.9782863 -0.60406625
0000a0 f4 03 32 bf c8 ca c1 be 15 74 7c bf 60 c2 3f bf
       -0.6953728 -0.37850022 -0.9861463 -0.7490597
0000b0 1e b3 33 3e aa 9f 9a bd 4c 9f 1c bf 97 19 07 bf
       0.17548797 -0.07549985 -0.6118057 -0.5277342
0000c0 4b 77 1e 3e a2 20 9a 3e f2 d7 02 3f 3f 19 18 be
       0.15475194 0.30103022 0.51110756 -0.1485338
0000d0 1b 41 10 bd a1 e4 bb 3e 15 8b 3a be 99 3e 68 c0
       -0.03521834 0.36697868 -0.18217118 -3.6288207
0000e0 67 80 f2 be 67 5d 25 be a5 28 dc be ea 06 d1 3e
       -0.47363588 -0.16148911 -0.4299976 0.40825588
0000f0 9b 73 a5 3b 52 83 9a 3e 4e 98 0f 3b 56 eb c4 3e
       0.0050491816 0.30178314 0.002191085 0.38460797
000100 f1 76 bd be cd 7d 87 3f 10 c9 59 bf 03 20 0e be
       -0.37004808 1.0585266 -0.8507242 -0.13879399
000110 5d cd c3 3e 6a 5f 1b be 58 d8 0b be f8 0a a8 3e
       0.38242617 -0.15173116 -0.13656747 0.32820868
000120 e5 35 24 bf f1 85 9f bd a1 43 94 bf 9a 13 7d be
       -0.64144737 -0.07789219 -1.1583139 -0.24714509
000130 3f 25 73 3f 52 c8 07 c0 38 22 96 bf 78 e0 45 bd
       0.9497871 -2.1216016 -1.1729193 -0.048309773
000140 35 ba 89 be fe 59 53 3e 04 15 78 bf 44 d3 0e be
       -0.26899877 0.20639798 -0.9690707 -0.13947779
000150 8c 2b a8 3d 11 83 91 3e 49 e2 b3 be 98 b3 b3 bf
       0.08211431 0.28420308 -0.3513358 -1.4039183
000160 f7 08 a1 be 8e fc 4d bf 0a 25 dd bf 9f ed ab 3d
       -0.31452152 -0.8046349 -1.7276928 0.08394932
000170 ba d6 83 be 07 1d c5 bf 4c d9 71 c0 f3 4c 98 be
       -0.2574976 -1.5399483 -3.7788877 -0.29746208
000180 92 8a e6 be ae 3f 05 bf 0a 0b 7f 3d a3 58 d2 bd
       -0.45027596 -0.5205029 0.062266387 -0.10270812
000190 01 b7 f1 3d ad b9 62 be ac 8f c6 be 2f 40 26 3e
       0.11802483 -0.22141142 -0.38781488 0.16235422
0001a0 c7 bc aa be 95 0b fc be 96 7f a8 3e 12 21 a1 3e
       -0.3334715 -0.49227586 0.3290984 0.31470543
0001b0 10 b5 3a c0 1a 3d 2c 3d 1a 84 50 be 6c e0 e8 bd
       -2.9173012 0.04205046 -0.20362893 -0.1137093
0001c0 83 77 93 bd ba fc 8b be 5f d8 12 c0 42 6c 48 c0
       -0.072005294 -0.27341253 -2.2944562 -3.1316075
0001d0 73 c9 a0 3d 09 b3 c9 3e e3 80 ae bf dd 76 d8 bd
       0.078509234 0.39394405 -1.3633083 -0.10569546
0001e0 6d 6b 36 be b1 76 28 3f 27 aa 77 be 35 60 7a 3f
       -0.17814417 0.6580611 -0.24186002 0.9780305
0001f0 7e e0 c3 bf 68 bf 86 bf 46 9d 2b be b9 0f 63 3f
       -1.5302885 -1.0527163 -0.16759214 0.88695866
000200 14 8f 2a 3f 26 56 0f 3e e8 d7 b8 bc e6 f6 91 3f
       0.6662457 0.13997707 -0.02256389 1.1403472
000210 7d 80 8e bd 9d e3 b1 3e e5 55 bb be 4b a4 84 40
       -0.06958101 0.34743968 -0.3658897 4.1450553
000220 d8 32 8a 3e 87 9c 05 3d 16 a7 aa 3f 5e 8c 22 bf
       0.26991916 0.03261998 1.333224 -0.63495433
000230 13 fc 8d be 08 b6 ee 3e c3 43 0d 3f ef 96 74 c0
       -0.2773138 0.46623254 0.5518152 -3.8217123
000240 da a2 be 3e 49 13 95 bd d8 3d 2f be d5 e1 ae 3d
       0.3723362 -0.07279069 -0.17113435 0.08539168
000250 56 33 5f 3f 0c cd d1 be 04 34 27 bf 79 89 c1 3c
       0.8718771 -0.4097675 -0.65313745 0.023625122
000260 1c 50 80 bc 7a 79 91 3e bc 1d 28 3e 6c 29 04 3f
       -0.0156632 0.28412992 0.16417593 0.51625705
000270 8e a2 d2 3e c5 90 d1 3c 64 2b e3 3e 3a dc 16 bf
       0.41139644 0.025581727 0.44369042 -0.5892979
000280 eb 79 21 be 1a 5e 53 c0 fc f0 43 bf 6b 13 82 3e
       -0.15769164 -3.3026185 -0.7653959 0.2540544
000290 d3 d6 5b 3d 93 31 62 bd 27 a3 b5 bf d6 22 45 be
       0.05367167 -0.05522306 -1.4190415 -0.1925157
0002a0 90 45 3a 3e 35 4b 51 be 6b da 08 40 7f 5e 2e 40
       0.18190598 -0.20438845 2.1383312 2.7245176
0002b0 1d c7 a5 bc 8b 3c 04 3f a3 1b 74 40 5e c4 5c 3e
       -0.020236546 0.5165488 3.8141868 0.21559283
0002c0 41 1e 52 3c d8 cd dd 3e 02 1d 23 3f 83 eb a9 3d
       0.012824596 0.4332111 0.6371614 0.082968734
0002d0 6d e1 4a 3d d2 96 f1 be 96 91 8a 3e 40 92 13 40
       0.04953139 -0.4718538 0.27064198 2.3058014
0002e0 fd e5 99 be 3a 1c af 3b 30 4b 23 3f 6d e6 a2 bf
       -0.3005828 0.005343941 0.637866 -1.272657
0002f0 77 fb d2 3d cc f2 84 be f4 4b de bf 57 27 8e 40
       0.10301869 -0.2596649 -1.7366929 4.442302
000300 af 2f c5 be 72 be c5 3e 4a 5a c0 3d 36 6f fa bd
       -0.38512942 0.3862186 0.09392221 -0.12228243
000310 17 7e 1a bf 3a 26 38 3e f0 71 45 3f 28 3a 0e 3f
       -0.6034865 0.17983332 0.7712698 0.5555749
000320 3d 9f 22 3f a9 36 be 3e ec d3 61 3e 56 46 7e 3e
       0.6352423 0.37151077 0.22053498 0.24831519
000330 e2 bb d7 3e 4a de c1 bf a9 60 ed 3e 38 18 8f bd
       0.4213553 -1.5145962 0.46362808 -0.06987041
000340 d8 8a 13 be 57 94 f9 bc ce 05 f4 be cf d2 12 3e
       -0.14408433 -0.030466242 -0.4766068 0.1433823
000350 b3 65 a6 be 78 37 22 3f 1e 19 e3 be 5d ee 03 c0
       -0.32499465 0.6336589 -0.443551 -2.0614235
000360 31 74 63 bf 45 a3 f7 3e b7 2e a1 40 93 be a8 3e
       -0.8884917 0.48366752 5.0369525 0.32957897
000370 e2 26 82 be 68 29 23 c0 b4 6f 06 3e e3 1a ea 3e
       -0.2542029 -2.5494022 0.13128549 0.45723638
000380 f2 27 2d 3f e3 f3 28 3f 1d c9 f8 be d6 8e 9a 3e
       0.67639077 0.6599714 -0.48590937 0.301871
000390 9f 51 33 bf 68 7e 2b 3e 06 53 63 3c a2 7b d1 3c
       -0.7004642 0.16747439 0.013874775 0.025571648
0003a0 a0 c6 29 3e bc a3 e5 be 16 0f cf 3e cf 68 fd 3e
       0.16579676 -0.44851482 0.40441197 0.49494025
0003b0 41 fe 1b 41 37 bf 14 3f aa fe ad 3e c2 43 be 3e
       9.749574 0.5810427 0.33983356 0.3716107
0003c0 a4 5e 29 3d 5f e6 30 3e 59 f6 66 c0 2f 50 e1 bf
       0.041350022 0.1727538 -3.6087859 -1.7602595
0003d0 e6 07 bd 3e cd a6 a1 3e fd 31 70 c0 b5 33 eb 3c
       0.3692009 0.3157257 -3.753051 0.02871118
0003e0 6b 02 08 be 9f b9 da be 76 ce 02 be bc 6f 10 c0
       -0.13282172 -0.42719743 -0.12774071 -2.2568197
0003f0 98 d5 cd c0 52 ee 9c 3f 3c c7 28 bb 91 1c 46 bf
       -6.4323235 1.226023 -0.0025753519 -0.7738734

action_layer.bias f4 [4]
000000 a0 16 f1 3e 1d cd aa 3d 26 9c e9 bf 62 b9 22 40
       0.47087574 0.083399035 -1.8250778 2.5425649

value_layer.weight f4 [1, 128]
000000 6a 69 ba bd ec 8f 03 bf 61 53 a8 bc df fc fc be
       -0.091021374 -0.5139148 -0.02054757 -0.49411675
000010 dc 05 15 bc 80 fb 34 3d 7e 19 5f 3d cc cc 29 bf
       -0.009095635 0.04418516 0.05446767 -0.6632812
000020 db 13 c0 3d 88 f7 31 3e 5c 5f 96 3c 4f 98 6a be
       0.09378787 0.17379582 0.018356018 -0.22909664
000030 8a 7f a0 3d bf 21 e1 bc cd 6e 07 bf 25 4f 5a 3f
       0.07836826 -0.027481912 -0.52903444 0.85277015
000040 6c aa c0 3c c9 89 0a 3f 15 d7 a3 3d 6e b6 fc 3d
       0.023518763 0.54116493 0.08000008 0.12339483
000050 c3 99 ec be c8 8b 24 3f c2 be 8d bd a4 42 ec 3d
       -0.4621106 0.6427579 -0.0692115 0.11536148
000060 23 bc ec 3c 5b 1b 90 bc 3a f8 0d 3e 8a 5b 55 3e
       0.028898304 -0.01759117 0.13864222 0.208357
000070 c8 e0 ef be bd 40 84 bd ff c3 ce be 66 69 c9 be
       -0.46851182 -0.0645766 -0.40383908 -0.39338225
000080 58 67 08 3d 49 0d 6d bb da 46 70 3e 19 82 e6 bd
       0.03330168 -0.0036171249 0.23464528 -0.11255283
000090 0b 4e b6 3c b3 b2 04 3e c6 33 64 be 2b a4 ef 3d
       0.02225401 0.12958793 -0.22285375 0.117012344
0000a0 aa b4 89 bd 2a 62 ea bc ce 7b 43 bf 0d 7d 3a bf
       -0.06723912 -0.028611261 -0.76360786 -0.7284706
0000b0 5e c2 10 3f 8f 95 95 bd 68 9d 8d be 59 53 3f be
       0.5654658 -0.07303917 -0.27659154 -0.18684138
0000c0 01 7e 40 3e 29 8b b3 3c 7f e1 ac bd 68 d9 2c bd
       0.18798067 0.021916943 -0.084414475 -0.042199522
0000d0 eb ca 5e 3d 41 0c 09 bf 75 8e 83 bd 81 cf ca 3e
       0.054392736 -0.5353432 -0.06423656 0.39611438
0000e0 41 29 66 3e 65 e6 74 bc 2d 41 31 3d 05 54 24 3f
       0.22476675 -0.014947508 0.043275047 0.64190704
0000f0 2e 2c 2c bd 79 8d 6d be 5b 86 e6 be 50 18 11 3d
       -0.04203432 -0.23198499 -0.4502438 0.035423577
000100 6a 33 eb 3d 12 29 bb bc 70 05 a2 3d 8d 69 22 3d
       0.11484416 -0.022846732 0.07911193 0.039651442
000110 88 6b 55 3e 23 2a f0 3d e8 47 cd be e6 b2 cd bd
       0.20841801 0.11726787 -0.40093923 -0.10043888
000120 9a 0d da be 86 ef f3 3d ab 2d 6e be bb 0f 32 be
       -0.42588502 0.1191092 -0.23259608 -0.17388813
000130 da 9b 18 3e dc e1 ee be 8c f2 78 3f 12 66 89 bc
       0.14903203 -0.46656692 0.972451 -0.016772304
000140 b5 b9 cc bc 18 59 8e bd 8a 7d d0 bd a5 fd c8 3d
       -0.024990896 -0.06950587 -0.10180195 0.09814004
000150 40 0d 2c bd e8 1e f8 bd 88 32 08 be 47 31 d7 3e
       -0.042004824 -0.1211527 -0.13300526 0.42029783
000160 c1 7d 08 bd e9 90 60 3d 43 8f 81 be 1a b9 57 be
       -0.033323053 0.054825697 -0.25304613 -0.21066704
000170 3c 0b 1a 3e 2b e4 c1 3e d3 d6 11 bf e2 e6 a8 3d
       0.15043348 0.3786939 -0.5696842 0.082471624
000180 7e 6d 7c 3d 6f 53 fd bd a1 00 92 bd d9 74 1b bf
       0.061627857 -0.12369429 -0.07129026 -0.6072517
000190 9c 8d b9 bd 05 97 4f bf fd af 0b 3e 53 dd 1a be
       -0.09060213 -0.8108981 0.13641353 -0.15123491
0001a0 f4 8f 26 3b 72 cb bd 3d 2c 1c cc 3d 8d 42 92 3d
       0.0025415393 0.0926732 0.09966311 0.071416
0001b0 f1 cc 8c be 49 f8 59 3c 48 31 88 bd 69 27 aa 3d
       -0.27500108 0.013303825 -0.06650025 0.08308298
0001c0 ee f3 07 3e 75 77 53 be 9e 7c ac 3e 7d 30 42 bd
       0.13276646 -0.20651038 0.33688825 -0.047409523
0001d0 19 53 39 3d d9 f2 9a ba 36 6d 91 bf 5b 5a 80 bc
       0.045245264 -0.0011821642 -1.1361454 -0.015668085
0001e0 ad ce 3a 3e ca 74 2e be 4f 4e 15 3f 24 ca df 3c
       0.18242903 -0.17036739 0.58322614 0.027318068
0001f0 8f ec fa be 9c 47 9d be 78 3c eb 3c 55 15 f9 bc
       -0.49008605 -0.30718696 0.028715357 -0.03040568
