checkpoint/LunarLander_0100.pth (torch_old, 8217 bytes, 5 tensors)

input_layer.weight f4 [128, 8]
0	0x3e80bd5c	0.2514447
1	0xbf04a241	-0.5181008
2	0xbc43ef7c	-0.011958953
3	0x3dbf6e7a	0.093472436
4	0xbdfd4f28	-0.123686135
5	0xbdbd4ca0	-0.09243131
6	0xbe833ce8	-0.25632405
7	0x3e4e965c	0.20174545
8	0x3ea39a20	0.31953526
9	0xbd1b8f44	-0.037978426
10	0xbe993cb0	-0.29929113
11	0xba0f9eac	-0.0005478661
12	0xbd93a0d5	-0.07208411
13	0xbe0c3e8c	-0.13695735
14	0xbe923f55	-0.28563944
15	0x3c19d317	0.009388707
16	0x3e835c74	0.25656474
17	0xbecd4fae	-0.40099853
18	0xbb488933	-0.0030599355
19	0x3e754461	0.23951866
20	0xbe2fb5f8	-0.1715926
21	0x3dbf1183	0.09329512
22	0xbe912b82	-0.28353506
23	0xbe060c97	-0.1309074
24	0x3f0ccab1	0.5499678
25	0x3decdf87	0.11566072
26	0x3ef109d1	0.47077802
27	0xbd84a520	-0.064768076
28	0xbe8452be	-0.25844377
29	0x3e150ae4	0.14554936
30	0xbe1e691d	-0.15469785
31	0x3e1d8f6e	0.15386745
32	0x3ec02fd9	0.37536505
33	0xbf0a8f86	-0.5412525
34	0x3d858297	0.06519049
35	0x3eb3c81a	0.35113603
36	0x3dc75a47	0.09734016
37	0xbd565b89	-0.05233339
38	0xbeb48a60	-0.35261822
39	0x3dbdab3f	0.09261178
40	0xbe631d43	-0.22179131
41	0xbda916b5	-0.08256284
42	0xbe5d83f4	-0.21632367
43	0x3bf69f03	0.00752628
44	0xbeaf1727	-0.3419735
45	0x3dfa3210	0.1221658
46	0xbe88738d	-0.26650658
47	0x3eae2fe5	0.34020916
48	0x3f09143e	0.5354651
49	0x3d2b3a7d	0.041803826
50	0x3eba4dbf	0.3638744
51	0xbdb6c548	-0.08924347
52	0xbea7dc26	-0.32785147
53	0x3ea4e3d7	0.32205078
54	0xbe8553cc	-0.26040494
55	0xbed3e454	-0.41385138
56	0x3f02030b	0.50785893
57	0xbf3e30fd	-0.742935
58	0x3ea6f601	0.3260956
59	0x3e889f39	0.26683977
60	0xbd207854	-0.039177254
61	0xbdfeff18	-0.12450999
62	0xbe356d3f	-0.17717455
63	0xbdfceadb	-0.123494826
64	0x3e3cf4e8	0.184528
65	0xbe8b1f01	-0.27172092
66	0xbdf10708	-0.11768919
67	0x3ea32930	0.3186736
68	0x3e00a898	0.12564313
69	0xbe947e46	-0.2900259
70	0x3d97f2c5	0.074193515
71	0xbca2a788	-0.019855276
72	0x3effe245	0.49977317
73	0xbd1763e8	-0.036960512
74	0x3f06ad6b	0.52608365
75	0x3e4b73fe	0.19868466
76	0xbef8355e	-0.48478216
77	0x3e22df74	0.15905553
78	0x3d99d01e	0.07510398
79	0x3e24370b	0.16036622
80	0xbcc02ea6	-0.023459744
81	0x3e6202a3	0.22071318
82	0xbe826077	-0.25464222
83	0xbce66140	-0.028122544
84	0xbdaa5f4b	-0.08318957
85	0xbe853044	-0.26013386
86	0xbe9bf6fc	-0.30461872
87	0xbdf68d37	-0.12038653
88	0xbf025309	-0.5090795
89	0x3eb00ffb	0.34387192
90	0xbe9e38ad	-0.30902615
91	0xbea296a6	-0.3175556
92	0x3dd7ef84	0.10543731
93	0x3dfb12c1	0.122594364
94	0xbe9c6868	-0.30548406
95	0x3e012877	0.12613092
96	0xbe05a141	-0.13049795
97	0xbe86a9b6	-0.26301354
98	0xbe47b7d1	-0.19503714
99	0x3ea9d1b1	0.33167794
100	0xbd498496	-0.04919871
101	0xbe5330c2	-0.20624068
102	0x3dba2c7a	0.090905145
103	0x3e63b212	0.22235897
104	0xbe26e769	-0.16299213
105	0xbf04a21c	-0.5180986
106	0x3eab5878	0.33465934
107	0x3c89638c	0.0167711
108	0x3d85b635	0.06528894
109	0xbe6d9ffc	-0.2320556
110	0x3f121e9f	0.57077974
111	0x3eac7984	0.3368646
112	0xbc8e6238	-0.017380819
113	0xbec3d52a	-0.3824857
114	0x3de8d5cf	0.11368906
115	0x3e5e6339	0.21717538
116	0x3c882c15	0.016622582
117	0xbe929ed0	-0.2863679
118	0xbf14259e	-0.578699
119	0x3e7b1d3f	0.24522875
120	0xbcd031f4	-0.025414445
121	0xbc9576e9	-0.018245177
122	0xbe462959	-0.1935171
123	0xbd825f2b	-0.06365808
124	0xbd14070b	-0.03613953
125	0x3d337b0a	0.04381851
126	0xbe94b2a5	-0.29042545
127	0x3e7c9083	0.24664502
128	0x3e8f87c1	0.2803326
129	0xbeb89f7a	-0.3605917
130	0x3e42c8b9	0.19021882
131	0x3e9fd87c	0.31219852
132	0x3ce645d5	0.02810947
133	0xbcb3912e	-0.021919813
134	0xbef48d15	-0.47763887
135	0xbc530aaa	-0.0128809605
136	0x3ee50df0	0.44737196
137	0xbef79307	-0.4835436
138	0x3c97e2c4	0.018540747
139	0x3e11cd63	0.14238505
140	0xbd1ba7bc	-0.03800176
141	0x3e85d4e8	0.26138997
142	0xbd13c21c	-0.03607379
143	0xbd11645d	-0.035496105
144	0x3e149853	0.14511232
145	0x3d207df9	0.039182637
146	0x3ea125f7	0.31474277
147	0x3e21b5cf	0.1579201
148	0x3ce7fc5e	0.02831858
149	0xbcda93f5	-0.02668188
150	0x3d52c604	0.051458374
151	0xbd87cfe6	-0.0663145
152	0x3d16a7fa	0.03678129
153	0xbd4e90c0	-0.050431013
154	0x3ee789b5	0.4522225
155	0x3e4bb5a8	0.19893515
156	0xbeb2cf93	-0.34923992
157	0xbe466bbd	-0.19377036
158	0xbe2debd9	-0.169845
159	0x3d9386a3	0.07203414
160	0x3dacb06e	0.08432089
161	0xbf182ff0	-0.59448147
162	0x3ec0e5bb	0.3767527
163	0x3ef8be43	0.48582658
164	0x3d9473ca	0.072486475
165	0xbee96504	-0.4558488
166	0xbd4944f7	-0.049138036
167	0x3d364515	0.044499476
168	0xbde73fe0	-0.1129148
169	0x3dc1f439	0.0947041
170	0xbee62068	-0.449466
171	0x3e854883	0.26031885
172	0x3e3f9a8f	0.18711303
173	0x3da038dd	0.07823346
174	0xbe10f074	-0.14154226
175	0x3d1cacd3	0.038250756
176	0x3e7a98a7	0.24472295
177	0xbd85e178	-0.065371454
178	0xbefaea86	-0.49007052
179	0xbda48def	-0.08034884
180	0xbd8d92ba	-0.069127515
181	0xbe80ffc4	-0.25195134
182	0x3db4e88b	0.088334166
183	0xbea55804	-0.32293713
184	0x3c4dcac9	0.012560555
185	0x3dd41fc5	0.10357622
186	0x3efa4a27	0.488847
187	0xbe7e5642	-0.24837592
188	0xbe201ef2	-0.15636805
189	0x3e39b4d6	0.1813539
190	0xbe971aa1	-0.29512504
191	0xbeba62f2	-0.36403614
192	0x3ef757a4	0.48309052
193	0xbe8ccbe4	-0.27499306
194	0x3dabb6ad	0.08384452
195	0x3e047e55	0.12938817
196	0xbe1bb166	-0.15204391
197	0x3e3595e2	0.17732957
198	0xbe1eb970	-0.15500426
199	0x3e27a1ea	0.16370359
200	0x3c2e3500	0.010632753
201	0x3dcf7469	0.10129625
202	0xbd7e11ff	-0.06202888
203	0xbe9f54d2	-0.311194
204	0x3cb63948	0.02224411
205	0x3e13a537	0.14418493
206	0xbec0588c	-0.37567556
207	0xbec4585c	-0.38348663
208	0xbe33f882	-0.17575267
209	0xbe57ab96	-0.21061549
210	0xbeb87fd1	-0.36035016
211	0x3cd617df	0.02613443
212	0xbe89535f	-0.2682142
213	0x3dfdd533	0.1239418
214	0x3db0c179	0.08630652
215	0xbe9f22ce	-0.3108124
216	0xbdaafa33	-0.08348503
217	0xbf01892d	-0.5059994
218	0x3ebea702	0.37236792
219	0x3eff8f26	0.499139
220	0xbe01cfcb	-0.12676923
221	0xbc3dc8a3	-0.01158348
222	0xbd7016f4	-0.05861564
223	0xbde6607b	-0.11248871
224	0x3d071593	0.03297956
225	0xbde1ee8b	-0.110318266
226	0x3eca880e	0.39556926
227	0x3e8618fb	0.26190934
228	0xbecd3442	-0.40078932
229	0x3eb7c3a4	0.3589145
230	0xbb712ff4	-0.0036802264
231	0x3ddf82b0	0.109135985
232	0x3ea2d866	0.31805724
233	0xbddac372	-0.106818095
234	0xbf27d3be	-0.6555747
235	0x3e2c4a6e	0.16825268
236	0xbe4e292e	-0.20132896
237	0x3e3aba5a	0.1823515
238	0xbcaa72e2	-0.020806734
239	0xbeb2450f	-0.34818313
240	0x3e7d18df	0.24716519
241	0xbee32e80	-0.44371414
242	0x3e8829c1	0.26594356
243	0xbba4c4b6	-0.0050283326
244	0xbe71af0e	-0.23601934
245	0x3ccd68b2	0.025074337
246	0xbe9be494	-0.3044783
247	0xbdef5e30	-0.11687887
248	0xbe42e5b9	-0.19032945
249	0xbdcaa4df	-0.09894728
250	0xbe636eef	-0.22210287
251	0x3e45afca	0.1930534
252	0xbe3d2c95	-0.18474038
253	0x3eb82daf	0.35972354
254	0x3e842c7c	0.2581519
255	0x3d8dcbb9	0.06923623

input_layer.bias f4 [128]
0	0xbf0a62a6	-0.54056776
1	0xbedc0b6c	-0.42977464
2	0xbee38cbe	-0.44443315
3	0x3d1ce93a	0.03830836
4	0xbf23ee30	-0.6403532
5	0xbf250505	-0.64460784
6	0xbe6576cd	-0.224086
7	0xbe2150f5	-0.15753539
8	0xbeb639c4	-0.35590947
9	0xbe5e50cf	-0.21710514
10	0xbee6ff1b	-0.45116505
11	0x3f00f031	0.50366503
12	0xbea4aa30	-0.32161093
13	0xbe32cb50	-0.1746037
14	0xbeb4aa46	-0.35286158
15	0xbb9117cb	-0.004427885
16	0xbcb227c7	-0.021747483
17	0xbe6ed20d	-0.23322316
18	0xbf08769e	-0.53305995
19	0xbef070af	-0.4696097
20	0xbf093e8d	-0.5361107
21	0xbdfe8eb4	-0.12429562
22	0x3d1ef7fe	0.038810723
23	0xbecdcfe5	-0.40197673
24	0xbe17a77d	-0.14809985
25	0xbee311e2	-0.4434958
26	0xbe815c1e	-0.25265592
27	0xbf122577	-0.57088417
28	0xbd597d72	-0.05309815
29	0xbeeaf923	-0.458932
30	0xbebe0341	-0.37111858
31	0xbed484a4	-0.41507447
32	0xbe73f8a1	-0.23825313
33	0x3e75df68	0.24011004
34	0xbda8d9e0	-0.08244681
35	0x3dacacc2	0.084313884
36	0x3f0428e0	0.5162487
37	0xbf1cb9fb	-0.61221284
38	0x3f007044	0.50171304
39	0xbeaa86bd	-0.33305922
40	0x3e098a58	0.1343168
41	0xbe505774	-0.2034586
42	0xbd1b6e5d	-0.037947048
43	0x3e9798a0	0.2960863
44	0xbf1c9802	-0.61169446
45	0xbe7b5f59	-0.24548091
46	0x3d87e8d5	0.06636206
47	0xbf283581	-0.6570664
48	0xbe84dde2	-0.25950533
49	0xbea9273e	-0.33037752
50	0xbea183d6	-0.31545895
51	0xbec9539e	-0.39321607
52	0xbee98623	-0.4561015
53	0xbe8ac583	-0.27103814
54	0xbedb9d9d	-0.42893687
55	0xbd5dbea3	-0.054136883
56	0xbe945965	-0.28974453
57	0xbcd08e3d	-0.02545845
58	0x3e19210f	0.14954017
59	0xbe1a9cc5	-0.15098865
60	0xbefc3ad9	-0.49263647
61	0xbda38b14	-0.079855114
62	0x3e410ccc	0.18852538
63	0xbe598ff7	-0.21246324
64	0xbe3c99c0	-0.18418026
65	0x3f0cc996	0.54995096
66	0xbe85b264	-0.26112664
67	0xbe855ff2	-0.26049763
68	0x3d04da3a	0.03243468
69	0xbeea559d	-0.45768443
70	0xbeb5c679	-0.35502985
71	0xbe5e3248	-0.21698868
72	0xbe8071ff	-0.25086972
73	0xbe267e74	-0.16259176
74	0xbdebd045	-0.11514334
75	0xbdb2f12c	-0.08737406
76	0xbe1651d0	-0.14679646
77	0xbdf23658	-0.118267715
78	0xbec6c4fb	-0.3882216
79	0xbec1021f	-0.3769693
80	0xbe9b47d6	-0.30328244
81	0xbd5dc38b	-0.054141562
82	0x3c10c0a0	0.008834988
83	0xbd937db9	-0.07201714
84	0xbeeaee41	-0.45884898
85	0xbdcd7979	-0.10032935
86	0x3e5b0697	0.21389233
87	0xbecffd41	-0.40622905
88	0xbee9621d	-0.45582667
89	0xbd952e9b	-0.0728428
90	0x3d94d1b0	0.07266557
91	0xbed75a01	-0.42060855
92	0xbed1a604	-0.40946972
93	0x3cb2d289	0.021828907
94	0xbec4f74c	-0.38469923
95	0xbe69fdc6	-0.22850713
96	0xbd864fdc	-0.06558201
97	0xbf09fdb1	-0.5390273
98	0x3c2adbfa	0.010428423
99	0xbf061423	-0.52374476
100	0x3e8594c0	0.2609005
101	0xbd8103ce	-0.06299554
102	0x3c8e8127	0.017395569
103	0x3eeb7663	0.4598876
104	0xbe37ed8a	-0.17961708
105	0x3eaee858	0.3416164
106	0xbf00368e	-0.50083244
107	0xbf0b9dd5	-0.5453771
108	0xbe9aa54c	-0.30204237
109	0xbf2c5297	-0.6731352
110	0x3de1f1ca	0.11032446
111	0xbefaa12f	-0.48951098
112	0xbef69f03	-0.4816819
113	0xbef29685	-0.47380462
114	0xbe502405	-0.2032624
115	0xbe379220	-0.17926836
116	0xbe8d8ae6	-0.27645034
117	0xbd8a9548	-0.067667544
118	0x3ebe5927	0.37177393
119	0xbef797cc	-0.48358
120	0x3ea02d2b	0.3128446
121	0xbec78dda	-0.38975412
122	0xbea920ce	-0.3303284
123	0x3d7874e3	0.060658347
124	0x3cf3b150	0.029747635
125	0xbe453047	-0.19256698
126	0xbec45e28	-0.38353086
127	0xbf129b0a	-0.5726782

action_layer.weight f4 [4, 128]
0	0xbdd0a5ca	-0.10187872
1	0xbdb62f03	-0.088956855
2	0x3db32a1d	0.08748267
3	0xbcff2019	-0.031143235
4	0xbe130750	-0.14358258
5	0x3d36134b	0.044451993
6	0xbe2d84c3	-0.16945176
7	0xbdf609be	-0.12013577
8	0x3e0e24cf	0.13881229
9	0xbdd97c80	-0.106194496
10	0xbc3ac5ab	-0.011399667
11	0xbe874570	-0.26420164
12	0xbd99a274	-0.075016886
13	0xbe7ee8c0	-0.24893475
14	0x3d0f605f	0.035004016
15	0xbe8a2860	-0.2698393
16	0x3cc3798e	0.023861673
17	0xbe9a0ada	-0.30086404
18	0xbd1ebe94	-0.03875597
19	0xbdbdb221	-0.09262491
20	0xb9f277f7	-0.00046247218
21	0xbdfd267c	-0.12360856
22	0xbe663336	-0.22480473
23	0xbea3769e	-0.31926435
24	0x3e1763ad	0.14784117
25	0xbda3dcfd	-0.080011345
26	0xbe8f90e5	-0.28040233
27	0xbd3afbfb	-0.045650464
28	0xbd0fe5a6	-0.03513112
29	0xbdcfc8b2	-0.101457015
30	0xbdca608a	-0.098816946
31	0xbdac87a8	-0.08424312
32	0xbdefd8b3	-0.11711254
33	0xbe916375	-0.28396192
34	0xbd97ca95	-0.07411686
35	0xbe46c64c	-0.19411582
36	0xbe3d4c2b	-0.18486087
37	0xbdf02203	-0.11725237
38	0xbdbc9d27	-0.09209662
39	0xbde59dfc	-0.11211774
40	0xbd69d38a	-0.057086505
41	0x3e4cc363	0.19996409
42	0xbcc8078e	-0.024417665
43	0xbe8568a5	-0.260564
44	0xbe4d7d53	-0.20067339
45	0xbcc1dad8	-0.023663923
46	0xbd49a8cb	-0.04923324
47	0x3d7391aa	0.059465088
48	0x3e1e2668	0.15444338
49	0xbe4af8b1	-0.1982143
50	0xbe0288f5	-0.12747557
51	0x3d9f41df	0.07776236
52	0xbd60784f	-0.054802235
53	0x3cfa3cd3	0.030546581
54	0xbe1be5bc	-0.15224355
55	0xbe3b704b	-0.18304555
56	0xbe0e94f4	-0.13924009
57	0xbb17cf74	-0.0023164423
58	0xbe1687bc	-0.14700216
59	0x3ce9ce15	0.02854065
60	0xbba40e91	-0.0050066193
61	0x3e07f5a5	0.132773
62	0x3e1c1780	0.1524334
63	0xbd248de9	-0.0401744
64	0xbe2e5843	-0.17025857
65	0xbe5b7971	-0.21433045
66	0xbd88ca68	-0.06679231
67	0xbe3b1645	-0.18270214
68	0xbe11e8b0	-0.1424892
69	0xbe1b7c48	-0.15184128
70	0xbe47241f	-0.19447373
71	0x3bc6ba0c	0.006064659
72	0xbe63b329	-0.22236313
73	0xbda38b0d	-0.07985506
74	0xbdee561f	-0.1163752
75	0xbe3e1044	-0.18560892
76	0x3d9b907d	0.07595918
77	0xbe80b5b6	-0.25138634
78	0x3e320865	0.17386015
79	0x3a806d1a	0.000979814
80	0xbe8cb446	-0.27481288
81	0xbd6f7614	-0.058462217
82	0xbe537e6e	-0.20653698
83	0xbd1fb7ca	-0.038993634
84	0x3d6b8f16	0.057509504
85	0xbd7e0886	-0.062019847
86	0xbe3ad030	-0.1824348
87	0xbe40c769	-0.18826069
88	0xbe038551	-0.12843825
89	0xbe417cc4	-0.1889525
90	0xbd88d4a5	-0.06681184
91	0xbe680528	-0.22658217
92	0xbe8d6253	-0.27614078
93	0x3c77dc70	0.01512824
94	0x3e1ad486	0.15120134
95	0xbe985243	-0.2975026
96	0xbe15e5b8	-0.14638412
97	0xbd902264	-0.070378095
98	0x3d998450	0.0749594
99	0xbe0957ea	-0.13412443
100	0xbe77eed5	-0.24212201
101	0xbe5b297c	-0.21402544
102	0xbe77b92a	-0.24191728
103	0xbe770261	-0.24122001
104	0xbe9027c8	-0.2815535
105	0xbea15605	-0.3151094
106	0xbe2dc173	-0.16968326
107	0xbd198f66	-0.03749027
108	0xbcc274ef	-0.023737399
109	0x3e197462	0.14985803
110	0xbd8552cd	-0.065099336
111	0x3daa947a	0.08329101
112	0xbd5ea411	-0.054355685
113	0xbe90a8f4	-0.282539
114	0xbeaf0d4a	-0.34189826
115	0xbe6fcafb	-0.23417275
116	0x3da26c33	0.079307936
117	0xbd16a4ff	-0.036778446
118	0xbebc5e1a	-0.36790544
119	0xbd89ba7c	-0.06725022
120	0xbe82bd6c	-0.25535142
121	0x3daf9e82	0.08575155
122	0xbdfc885d	-0.12330697
123	0xbe5b4181	-0.21411707
124	0xbc74913a	-0.014927203
125	0xbe3cb0cf	-0.18426822
126	0xbe36b3e0	-0.17842054
127	0xbcdcbc57	-0.026945276
128	0x3d3594ea	0.04433147
129	0x3eb80fc4	0.35949528
130	0xbad970c0	-0.0016589388
131	0xbe7d7fe5	-0.24755819
132	0xbd8fbd7a	-0.07018562
133	0x3eb28fe3	0.34875402
134	0xbe4bdf4e	-0.19909403
135	0xbc612479	-0.013741606
136	0x3dd6d2d9	0.10489435
137	0xbe68a251	-0.22718169
138	0x3f37c072	0.71778023
139	0x3e4316f5	0.19051726
140	0x3d452ef0	0.048140466
141	0xbd87a473	-0.06623163
142	0x3e65a76c	0.22427148
143	0x3e8c0773	0.27349433
144	0xbe86c0c8	-0.26318955
145	0xbdb8f569	-0.09031183
146	0xbe8e75db	-0.27824292
147	0xbe7ba63e	-0.24575135
148	0x3ea50d1c	0.32236564
149	0x3f44d70e	0.7689065
150	0x3cabf6d3	0.020991718
151	0xbe184f07	-0.14873897
152	0xbd78fdaf	-0.060788807
153	0x3e864373	0.26223335
154	0x3e145371	0.14484955
155	0x3e65cd45	0.22441585
156	0xbe863a9a	-0.26216584
157	0x3f0d363e	0.5516089
158	0xbdf6880b	-0.12037667
159	0x3ea63aea	0.32466823
160	0xbe84f8b0	-0.25970984
161	0xbd0f2388	-0.034945995
162	0xbec72744	-0.38897145
163	0xbe13d155	-0.14435323
164	0x3e7dfcee	0.24803516
165	0x3d2e8bf9	0.042613957
166	0x3eb2b47b	0.3490332
167	0x3e7e68d0	0.2484467
168	0x3e3c2b00	0.18375778
169	0x3e3570f0	0.17718863
170	0x3f6f1ebe	0.93406284
171	0x3df259ce	0.11833535
172	0xbe7ae594	-0.2450164
173	0x3eec87dc	0.46197402
174	0xbd6d96d7	-0.05800518
175	0x3ee6b075	0.450565
176	0x3bf2c6d0	0.007408954
177	0xbd79331b	-0.060839754
178	0x3f0cf064	0.55054307
179	0xbdff67b0	-0.12470949
180	0xbe545694	-0.20736152
181	0xbceed3f0	-0.029153794
182	0x3e2ad625	0.16683252
183	0xbeb40194	-0.35157454
184	0xbe1eb885	-0.15500076
185	0xbc529b15	-0.012854357
186	0x3f0839a4	0.5321295
187	0x3f0a3c99	0.53998715
188	0x3ded72e5	0.1159418
189	0xbdd920d2	-0.10601963
190	0x3e690d39	0.2275895
191	0x3db0c6aa	0.08631642
192	0xbe7195b0	-0.23592257
193	0x3ebe913c	0.3722018
194	0xbe3710fe	-0.17877576
195	0x3cf5a6bb	0.02998673
196	0x3dc2d90f	0.09514057
197	0x3e6301a5	0.22168596
198	0x3d6e466b	0.058172625
199	0x3e6f739a	0.23383942
200	0x3f4d0b4d	0.8009537
201	0x3ebb9ee2	0.36644655
202	0x3c5f8a83	0.013643864
203	0x3d494a24	0.04914297
204	0xbbd2c5a4	-0.006432252
205	0xbe6bab1a	-0.23014489
206	0xbcd3b5ed	-0.025843585
207	0xbe09faf9	-0.13474645
208	0xbe396362	-0.18104318
209	0x3e524afd	0.20536418
210	0xbe8510ba	-0.25989324
211	0x3d9362fd	0.07196615
212	0xbe8c8314	-0.27443755
213	0x3e74be4f	0.23900722
214	0xbec9f5db	-0.39445385
215	0xbd7ad0a5	-0.061234135
216	0xbc87d4f6	-0.01658104
217	0x3f73394d	0.9500931
218	0x3f6c25fe	0.9224547
219	0x3e2b11c7	0.16706
220	0xbe3659a9	-0.1780764
221	0xbe39c478	-0.18141353
222	0x3d163e0a	0.03668026
223	0x3ec56d18	0.38559794
224	0xbc8f3b47	-0.01748432
225	0x3ea59508	0.32340264
226	0xbced5238	-0.028969869
227	0xbe006d0b	-0.12541597
228	0x3e4c5b0e	0.1995661
229	0xbe266bfd	-0.16252132
230	0x3debb733	0.11509552
231	0x3e95c149	0.29249027
232	0xbdf12db7	-0.117762975
233	0x3e9eb5c9	0.30998066
234	0x3e81c2fa	0.25344068
235	0x3e9f1af4	0.3107525
236	0xbb97d1b9	-0.004633155
237	0x3f007ee9	0.5019365
238	0x3e013012	0.12615994
239	0x3e5394b3	0.20662193
240	0x3d3c0cd5	0.045910675
241	0xbe969446	-0.2941
242	0x3d928d3d	0.07155845
243	0x3e9107a8	0.28326154
244	0x3eb2cb0e	0.34920543
245	0x3e8dbee8	0.27684712
246	0x3d8ededf	0.06976103
247	0x3c66872c	0.014070313
248	0x3df1659c	0.117869586
249	0x3d88c36a	0.06677897
250	0x3f16bc07	0.58880657
251	0xbe1c6860	-0.15274191
252	0x3f0ee1a1	0.5581303
253	0x3e971ba4	0.29513276
254	0x3cd5aeef	0.026084391
255	0x3e8ea9c0	0.27863884

action_layer.bias f4 [4]
0	0xbe4d6dd5	-0.20061429
1	0x3d605d68	0.05477658
2	0x3e4e9407	0.20173655
3	0x3d2fa0cf	0.04287797

value_layer.weight f4 [1, 128]
0	0x3d800408	0.06250769
1	0x3e00c3cd	0.12574692
2	0xbbe9f232	-0.0071394676
3	0x3e3a01b9	0.1816472
4	0x3cb1d076	0.021705847
5	0x3d3c33a6	0.045947693
6	0x3dca1af1	0.0986842
7	0x3dd3721c	0.10324499
8	0x3e433a77	0.19065271
9	0x3e578666	0.21047363
10	0x3d04cf93	0.03242452
11	0xbe0cfc2a	-0.13768068
12	0x3d6bc758	0.057563156
13	0x3d2a5706	0.0415869
14	0x3e14172e	0.14461967
15	0x3c04b4bb	0.00809973
16	0x3e061f99	0.13097991
17	0xbdf58188	-0.11987597
18	0x3d17f777	0.037101235
19	0x3dd99f80	0.10626125
20	0x3e129992	0.14316395
21	0x3db8f632	0.09031333
22	0x3cecee21	0.028922142
23	0x3dfd2d7a	0.123621896
24	0x3e136afe	0.14396283
25	0xbb6399b5	-0.0034729068
26	0x3d11be6f	0.035582002
27	0x3e4c0375	0.19923194
28	0x3de4ef9f	0.111785166
29	0x3db1f82a	0.08689912
30	0x3de52d34	0.111902624
31	0x3d83dd37	0.06438678
32	0xbc0ed58c	-0.008717906
33	0xbd65283b	-0.05594657
34	0x3e3c9cb8	0.18419158
35	0xba7b5494	-0.0009587493
36	0xbde66757	-0.11250179
37	0x3e0e8f02	0.1392174
38	0xbe066628	-0.13124907
39	0x3e0274c7	0.1273986
40	0x3cd72e69	0.026267247
41	0xbdc846b9	-0.09779114
42	0x3dc65c01	0.09685517
43	0x3ca52623	0.020159787
44	0x3d7c92a0	0.06166327
45	0x3ba3899f	0.004990771
46	0x3d253298	0.040331453
47	0x3e444993	0.19168691
48	0x3e34d607	0.1765977
49	0x3dc77ed4	0.097409874
50	0xbd0d512b	-0.034501236
51	0xbd9bd4d7	-0.07608955
52	0x3e17ee91	0.148371
53	0x3de0e21c	0.10980627
54	0x3da8f3a5	0.082495965
55	0x3e1f1005	0.15533455
56	0x3dde12e0	0.10843444
57	0x3dbadb70	0.09123886
58	0xbcdc6541	-0.02690375
59	0x3d0c2899	0.034218404
60	0xbd2f2b95	-0.042766172
61	0x3dd4bb6e	0.10387312
62	0xbd0fcfd3	-0.035110306
63	0x3c90ce2c	0.017676435
64	0x3c298e02	0.010348799
65	0xbe1b5fc1	-0.15173246
66	0xbd2f68b6	-0.04282447
67	0x3d3f3913	0.04668529
68	0xbd705ded	-0.058683325
69	0x3e3d4fb5	0.18487437
70	0x3daf7022	0.085663095
71	0xbd2ddd9e	-0.04244768
72	0x3e2f5727	0.1712309
73	0x3df65a5c	0.120289534
74	0x3d977fc3	0.073974155
75	0x3db12268	0.086491406
76	0x3e26c122	0.16284612
77	0x3d5640c1	0.052307848
78	0xbdf56962	-0.11982991
79	0xbc9251e9	-0.017861323
80	0xba26049e	-0.00063330855
81	0xbc78c6e7	-0.015184141
82	0x3d91e124	0.0712302
83	0x3df6e944	0.12056211
84	0x3e42593b	0.18979351
85	0xbcf0683e	-0.029346582
86	0x3ddf3162	0.10898091
87	0xbc68eaef	-0.014216169
88	0x3d2c4c6f	0.04206508
89	0x3e22f20c	0.15912646
90	0x3d899eec	0.06719765
91	0x3e03fcee	0.12889454
92	0x3d09ebc1	0.033672098
93	0x3d03f950	0.032220185
94	0x3dbd7dcc	0.092525095
95	0x3e1445a4	0.14479691
96	0x3d2af8fc	0.041741356
97	0x3c10afc9	0.008830973
98	0x3c0e0545	0.008668249
99	0x3dc03903	0.09385874
100	0xbd0d756f	-0.03453582
101	0x3c2eb138	0.010662369
102	0xbc6af1e0	-0.014339894
103	0xbddd474a	-0.10804613
104	0x3d859239	0.065220304
105	0xbd8a80c0	-0.06762838
106	0x3def6d7d	0.11690805
107	0x3e62f6c0	0.2216444
108	0x3df24061	0.118286856
109	0x3ddc804e	0.1076666
110	0xbd169537	-0.036763396
111	0x3e3ace96	0.18242869
112	0x3e0f7faf	0.14013551
113	0x3d4172a8	0.047228485
114	0x3d6de1a5	0.05807652
115	0xbb8e04d3	-0.004334071
116	0xbcc4ad8d	-0.024008537
117	0x3e616021	0.22009327
118	0xbda82742	-0.08210613
119	0x3d7ada29	0.06124321
120	0xbda518db	-0.080613814
121	0x3e29bf33	0.16576843
122	0xbb9ffda3	-0.004882531
123	0x3d9c3551	0.07627357
124	0x3eab2a53	0.33430728
125	0x3cdb715d	0.026787454
126	0x3d86d00c	0.065826505
127	0x3e4e4e73	0.20147114
