checkpoint/LunarLander_6000.pth (torch_old, 8217 bytes, 5 tensors)

input_layer.weight f4 [128, 8]
0.08070432 -0.6020106 -0.1730892 0.19291037 -0.0582843 0.027266333 -0.25633025 0.20174229
0.009092821 -0.040935647 -0.28391802 0.023581319 -0.039521154 0.069117725 -0.296824 -0.24772148
0.27656648 -0.41744733 0.015569722 0.25468594 -0.18715487 0.07759445 -0.28353506 -0.11600974
0.79856515 -1.0578667 0.18015467 -2.0139065 -1.8754089 -2.5943193 -1.0455501 0.13329962
0.4119491 -0.5652756 0.0949599 0.39112973 0.08015275 -0.08617287 -0.44119158 0.06826121
-0.08140459 -0.09989349 -0.11892563 0.029330105 -0.3272875 0.09931516 -0.26650658 -0.12207974
0.18501388 -0.0018771475 0.11025525 0.071714796 -0.26544315 0.21083899 -0.66434664 -0.31900886
0.098942064 -2.0458884 2.45148 4.3891516 -2.1319673 0.036540847 -0.39785987 -0.28639027
0.2896292 -0.43502787 -0.23320006 0.47695413 -0.07478527 -0.290802 -0.22753534 -0.2882263
0.36369902 -0.15861739 0.33105344 0.22322872 -0.27751485 0.22710663 -0.268186 -0.28378314
1.5113313 -0.7107557 -0.8130427 0.5723648 -1.7647178 1.3350235 0.78906554 -2.9086745
0.094813846 -0.12802517 -0.4906163 -0.05670118 0.2097138 0.16160046 -0.81329083 0.039243586
0.0643817 -0.547523 0.0021566008 0.31923795 -0.14337426 -0.09511666 -0.056815278 0.2223432
-0.08029932 -0.55180866 0.30269924 0.14138655 0.07602493 -0.15705979 -0.030617217 -0.366237
-0.07309505 -0.40308225 0.08853567 0.23036343 0.0026203867 -0.25141063 -0.67901057 -0.07651446
0.3524767 -4.5732865 0.6565803 -2.1495976 -0.20178373 -0.15884626 -2.7120833 -0.14161718
0.3059162 -0.31176272 -0.08559383 0.921007 -0.14319493 0.36899444 -1.5854057 0.14092684
0.12626877 -0.4243184 -0.10416501 0.29668525 -0.08563913 0.21844156 -0.39501837 -0.45596504
0.2255007 0.039649315 0.3507647 0.13839355 -0.08935338 -0.047355525 0.19542964 -0.49058405
0.1281797 -0.042250507 0.46135977 0.2839065 -0.32436743 0.05503989 -0.7093562 0.1465663
0.30042762 -1.08138 0.20348701 1.1111697 0.38841626 -0.38985038 -0.20433266 -0.17107634
0.03720453 -0.03248741 -0.17457221 0.28765085 -0.06882516 -0.108135305 -0.5432881 0.07385291
0.07345825 -0.20463695 -0.2063474 -0.039831806 -0.09948736 -0.23217411 -0.47492146 -0.039632916
0.06844634 0.065091364 0.30965978 -0.16698702 -0.21583313 0.104783304 -0.3099669 -0.3641156
0.16923545 -0.3576988 -0.031737786 0.36319086 -0.2105779 0.12438335 -0.15500426 -0.04436183
0.11984108 0.08928104 0.030912954 -0.2556465 -0.12996738 -0.15006463 -0.48190826 -0.4769639
-0.026957847 -0.31861353 -0.15218022 0.16381076 -0.38208237 0.010196381 -0.28290674 -0.3108278
-0.020087255 -0.5350646 0.13273796 0.5430395 -0.10797014 0.13366197 0.02557629 -0.09759414
-1.5392985 -0.32086957 1.513778 -0.2514475 -0.983723 1.4160237 -0.8080208 0.4137193
-0.29615614 -0.035768338 -0.6324268 0.38265058 -0.22144122 -0.276461 -0.9265701 -0.84282005
0.25923815 -1.1212926 0.3721316 0.09639052 -0.34003532 -0.18809466 -0.14559947 -0.74927104
-0.29693145 -0.35527477 -0.036269404 0.22026987 -0.21455511 0.305908 -0.36400232 -0.3172792
00000000: 4e48 a53d 5e1d 1abf 4c3e 31be 4c8a 453e
00000010: 85bb 6ebd a55d df3c b83d 83be 8895 4e3e
00000020: 0efa 143c 23ac 27bd b45d 91be 9c2d c13c
00000030: efe0 21bd 988d 8d3d 51f9 97be b3aa 7dbe
00000040: 1f9a 8d3e a8bb d5be 2618 7f3c 3266 823e
00000050: 87a5 3fbe d7e9 9e3d 822b 91be 8496 edbd
00000060: c46e 4c3f 2d68 87bf 777a 383e d8e3 00c0
00000070: 660d f0bf 5409 26c0 96d4 85bf b27f 083e
00000080: feea d23e e7b5 10bf 567a c23d 2842 c83e
00000090: 2027 a43d 677b b0bd dde3 e1be 89cc 8b3d
000000a0: 73b7 a6bd f594 ccbd 488f f3bd b045 f03c
000000b0: 3a92 a7be bf65 cb3d 8d73 88be f104 fabd
000000c0: 4774 3d3e 9e0a f6ba 81cd e13d 35df 923d
000000d0: 2ae8 87be 2de6 573e 9f12 2abf 2155 a3be
000000e0: 23a2 ca3d d6ef 02c0 0ce5 1c40 ee73 8c40
000000f0: 2772 08c0 dbab 153d 4ab4 cbbe bfa1 92be
00000100: 474a 943e f9bb debe ffcb 6ebe 5533 f43e
00000110: 0529 99bd 00e4 94be 06ff 68be 6692 93be
00000120: c236 ba3e 996c 22be d67f a93e 1296 643e
00000130: 6d16 8ebe a48e 683e ad4f 89be 064c 91be
00000140: 4e73 c13f 16f4 35bf 9123 50bf 8086 123f
00000150: 46e2 e1bf 0de2 aa3f 3300 4a3f b927 3ac0
00000160: c32d c23d 0819 03be 0f32 fbbe 7f3f 68bd
00000170: 37bf 563e 977a 253e d433 50bf e2bd 203d
00000180: 8dda 833d 782a 0cbf c255 0d3b 2873 a33e
00000190: b4d0 12be 86cc c2bd 23b7 68bd f0ad 633e
000001a0: f873 a4bd 5543 0dbf 65fb 9a3e a3c7 103e
000001b0: f5b2 9b3d 48d4 20be f5d0 fabc 6b83 bbbe
000001c0: dcb2 95bd cc60 cebe 3052 b53d 64e4 6b3e
000001d0: cbba 2b3b e5b8 80be a3d3 2dbf 9db3 9cbd
000001e0: d377 b43e 5d58 92c0 a615 283f 0293 09c0
000001f0: 65a0 4ebe 98a8 22be c692 2dc0 1804 11be
00000200: 0ca1 9c3e 5d9f 9fbe d14b afbd 1dc7 6b3f
00000210: b1a1 12be d7ec bc3e 93ee cabf 204f 103e
00000220: 9a4c 013e 4340 d9be 7754 d5bd 21e7 973e
00000230: 9163 afbd 25af 5f3e d93f cabe 4074 e9be
00000240: a8e9 663e 5267 223d 6e97 b33e 0ab7 0d3e
00000250: e8fe b6bd def7 41bd b51e 483e d52d fbbe
00000260: 8a41 033e de0e 2dbd 5937 ec3e 315c 913e
00000270: 7d13 a6be 8271 613d 5e98 35bf 7a15 163e
00000280: a6d1 993e a96a 8abf e65e 503e cf3a 8e3f
00000290: 7fde c63e 789a c7be 953c 51be a32e 2fbe
000002a0: c763 183d 8511 05bd 0fc3 32be f946 933e
000002b0: 35f4 8cbd 0b76 ddbd ee14 0bbf 3240 973d
000002c0: 4771 963d 598c 51be bc4c 53be ad26 23bd
000002d0: 07c0 cbbd 0dbf 6dbe e828 f3be 2056 22bd
000002e0: 982d 8c3d 9f4e 853d ba8b 9e3e a5fe 2abe
000002f0: 5c03 5dbe a198 d63d fbb3 9ebe 5c6d babe
00000300: 0f4c 2d3e 4c24 b7be 7bff 01bd 27f4 b93e
00000310: bca1 57be b3bc fe3d 70b9 1ebe c0b4 35bd
00000320: 3d6f f53d fad8 b63d 2a3d fd3c 19e4 82be
00000330: 2b16 05be 8baa 19be aebc f6be 9d34 f4be
00000340: b4d6 dcbc 5021 a3be 22d5 1bbe 02be 273e
00000350: 4da0 c3be b90e 273c 27d9 90be d224 9fbe
00000360: 078e a4bc fef9 08bf 76ec 073e a304 0b3f
00000370: 731f ddbd afde 083e 5e85 d13c 70df c7bd
00000380: bc07 c5bf 0449 a4be 7ac3 c13f babd 80be
00000390: 45d5 7bbf 4440 b53f 73da 4ebf 04d3 d33e
000003a0: c7a1 97be d281 12bd b9e6 21bf c7ea c33e
000003b0: 7dc1 62be 4c8c 8dbe b333 6dbf 0ec3 57bf
000003c0: ddba 843e 8486 8fbf 0888 be3e 6568 c53d
000003d0: 1c19 aebe e39b 40be 0718 15be 3ad0 3fbf
000003e0: 6607 98be 93e6 b5be 3a8f 14bd 6d8e 613e
000003f0: 56b4 5bbe f99f 9c3e 835e babe 6b72 a2be

input_layer.bias f4 [128]
-0.6643412 -0.79542696 -0.4556302 -0.9833597 -0.6788367 -0.73436487 -0.67521596 -0.86912805
-0.7467459 -0.7601531 -1.1317003 -0.57791597 -0.5553072 -0.7009274 -0.4216991 0.36618415
-0.6623652 -0.7130102 -0.7392724 -0.6679664 -1.2419921 -0.28087294 -0.5330995 -0.7138002
-0.3591809 -0.5448118 -0.5801684 -0.7477293 -1.4656497 -1.4652305 -0.79894215 -0.95689464
-0.5499846 -0.39886427 -0.56717956 -0.5539979 -0.9053753 -0.67115897 0.5964646 -0.7234043
-0.89362127 -0.5547277 -1.2550972 -0.8646858 -1.5805966 -0.7521723 -0.04821519 -0.9156022
-0.31645718 -1.0897274 -0.9160867 -0.62488097 -0.88904417 -1.8842233 -0.8742601 -0.18934035
-0.7969152 -0.2374994 -0.47479627 -1.0307088 -0.56569713 -0.5954196 -0.32406798 0.06540559
-1.2847505 -0.441242 -0.74272263 -0.47919774 -1.0654886 -0.644444 -1.1663406 -0.83213335
-0.8803103 -0.26108772 -0.8717247 -1.0536784 -1.1952482 -0.36323687 -0.783068 -0.40364364
-0.46254352 -0.533266 -1.0119057 -0.35895008 -0.75864625 -0.9371786 -0.9668061 -0.6147771
-1.0007259 -1.0724671 -1.2195058 -0.9853609 -0.68331724 -0.25795758 -0.024572134 -0.95612496
-1.1001834 -0.96237046 -0.6982756 -1.330754 -0.48810592 -0.081829496 -0.5189925 -0.79207516
-0.55774903 -0.538368 -0.6934726 -1.1332803 -0.9682879 -0.7950303 -0.69005054 -0.72532815
-0.6697419 -1.053386 -0.16280384 -0.73493356 -0.4513811 -0.6798211 -0.78679097 -0.80900353
-0.7965245 -1.2077557 -0.49427855 -0.59691554 -1.0707908 -0.7663755 -0.455442 -1.123098
00000000: 4412 2abf 1aa1 4bbf 5d48 e9be 76bd 7bbf
00000010: 3ec8 2dbf 56ff 3bbf f4da 2cbf 2d7f 5ebf
00000020: bd2a 3fbf 6599 42bf 8edb 90bf 4df2 13bf
00000030: 9d28 0ebf fa6f 33bf f2e8 d7be 7d7c bb3e
00000040: c490 29bf d687 36bf f540 3dbf d9ff 2abf
00000050: 99f9 9ebf 94ce 8fbe 3579 08bf 9cbb 36bf
00000060: 8fe6 b7be c978 0bbf eb85 14bf 306b 3fbf
00000070: 699a bbbf ac8c bbbf 7987 4cbf 0cf7 74bf
00000080: cacb 0cbf f037 ccbe ae32 11bf ced2 0dbf
00000090: adc6 67bf 13d1 2bbf e7b1 183f 0631 39bf
000000a0: 5dc4 64bf a202 0ebf 06a7 a0bf 0c5c 5dbf
000000b0: fd50 cabf 5d8e 40bf 4b7d 45bd e864 6abf
000000c0: ad06 a2be 307c 8bbf a884 6abf 33f8 1fbf
000000d0: 6698 63bf 3b2e f1bf 83cf 5fbf 70e2 41be
000000e0: a202 4cbf 0b33 73be 7f18 f3be 44ee 83bf
000000f0: 87d1 10bf 6b6d 18bf 3dec a5be 5ef3 853d
00000100: b472 a4bf 79ea e1be 1223 3ebf 6859 f5be
00000110: ee61 88bf 48fa 24bf a64a 95bf b106 55bf
00000120: 045c 61bf 4aad 85be 5a29 5fbf efde 86bf
00000130: e5fd 98bf 2ffa b9be 2577 48bf 61aa cebe
00000140: 81d2 ecbe 1f84 08bf 2086 81bf 4ec8 b7be
00000150: a436 42bf f0ea 6fbf 9b80 77bf 0862 1dbf
00000160: c917 80bf 9a46 89bf c418 9cbf 9d40 7cbf
00000170: e1ed 2ebf 0413 84be 804b c9bc 9bc4 74bf
00000180: cfd2 8cbf e95d 76bf 31c2 32bf 2656 aabf
00000190: 05e9 f9be 3996 a7bd b1dc 04bf 70c5 4abf
000001a0: a4c8 0ebf 7cd2 09bf 6c87 31bf 540f 91bf
000001b0: b7e1 77bf 1b87 4bbf 27a7 30bf 1baf 39bf
000001c0: 3574 2bbf 5ad5 86bf 0db6 26be 9b24 3cbf
000001d0: 6c1b e7be c108 2ebf 226b 49bf db1a 4fbf
000001e0: 08e9 4bbf bd97 9abf 1412 fdbe 75cf 18bf
000001f0: ac0f 89bf 2f31 44bf b22f e9be adc1 8fbf

action_layer.weight f4 [4, 128]
-0.10185265 -0.18108477 0.10527766 -1.756992 -0.1435953 0.044740397 -0.23607114 0.42997375
0.100534216 -0.097236715 -0.8708857 0.15921836 -0.3326325 -0.29174483 -0.22347732 -0.4689237
0.039456625 -0.29518965 0.0038312234 -0.09114091 -0.105454 0.4702478 -0.1637981 -0.22357403
0.14095159 -0.10408088 -0.24677278 -0.3658682 -0.611965 0.060591057 -0.37010488 -0.1521716
-0.28031224 -2.2922962 0.4728107 -0.3333892 0.74658394 -0.015494623 2.5787807 0.09194865
-1.0721768 -0.37850022 -0.40312484 -0.20986319 0.17548797 -0.07549985 -1.3281021 -0.5277342
0.15475194 0.30103022 0.5105353 -0.1485338 -0.03521834 0.37068394 -0.18217118 -2.5661051
-0.47363588 -0.16148911 -0.4299976 1.0318204 0.0050491816 0.30178314 -0.17039338 1.5421376
-0.37004808 1.0760206 0.02200402 -0.13879399 0.38242617 -0.15173116 -0.13656747 0.32821238
-0.6499262 -0.07789219 -0.12436676 -0.24714509 0.95848775 -2.8491106 0.3468568 -0.048309773
-0.26899877 0.20639798 -0.44300905 -0.13947779 0.08211431 0.2868285 -0.34969482 -0.6602428
-0.416667 -0.98792934 -1.7339349 0.08394932 -0.2574976 -0.3449777 -2.762964 -0.29746208
-0.45027596 -0.5205029 0.062266387 -0.10270812 0.15396437 -0.49069571 -0.38779804 0.16461746
-0.3334715 -0.49227586 0.3290984 0.31470543 -1.1657329 0.04205046 -0.20362893 -0.1137093
-0.072005294 -0.2751457 -1.2664139 -1.1972107 0.078509234 0.39394405 -1.3214246 -0.10569546
-0.044488702 0.59343344 -0.023205893 0.9781466 -0.9411965 -0.6473068 -0.16759214 0.88695866
0.046726223 0.13997707 -0.02256389 0.8623435 -0.06958101 0.34743968 -0.3658897 2.5725427
0.26991916 0.03261998 1.5639701 -0.63495433 -0.22694635 0.46623254 0.5518152 -2.298661
0.37389916 -0.07279069 -0.17113435 -0.2724818 0.8718771 0.40927222 -0.010313224 0.023625122
-0.0156632 0.28412992 0.0076362956 0.51625705 -1.482383 0.025581727 0.44496423 0.15734737
-0.15769164 -2.4558704 -0.7653959 -0.07377074 0.05372283 -0.05522306 1.1540738 -0.26834092
-0.25230703 -0.20438845 1.6312741 1.627778 -0.020236546 0.5165488 4.2778797 0.21559283
0.012824596 0.4332111 0.637158 0.082968734 0.04953139 -1.3747256 0.27064198 1.7767566
-0.28486425 0.005343941 0.637866 -1.9518018 0.10301869 -0.2596649 -0.52097654 4.5311933
-0.38512942 0.3881466 -0.6200314 0.08117459 -0.6034865 0.17983332 0.7712698 0.5555722
0.62598085 0.37151077 -0.0683147 0.24831519 -0.36702543 -1.5965122 -0.007123427 -0.06987041
-0.14408433 -0.030466242 -0.58558327 0.1433823 -0.32499465 0.5750332 -0.9925439 -2.6405237
-0.6580283 0.976431 4.136785 0.31912932 -0.2542029 -2.1886222 -0.21285512 0.45723638
0.67639077 0.6599714 -0.7075928 0.301871 -0.19269867 0.10362656 0.19186203 0.078051105
0.16579676 -0.44851482 0.40441197 0.49494025 7.0054607 0.5810427 0.33983356 0.3716107
0.041350022 0.08658801 -2.5704856 -0.17782362 0.3692009 0.3157257 -1.4817722 0.028711757
-0.25456738 0.093955316 0.2771981 -0.69597125 -4.30476 0.17793205 -0.0025753519 -0.7738734
00000000: 1f98 d0bd 496e 39be d09b d73d 1de5 e0bf
00000010: a50a 13be b541 373d a2bc 71be 8525 dc3e
00000020: e2e4 cd3d 0b24 c7bd 5ef2 5ebf 230a 233e
00000030: cf4e aabe 945f 95be 3dd7 64be c416 f0be
00000040: 459d 213d 1923 97be 4315 7b3b 16a8 babd
00000050: 44f8 d7bd 52c4 f03e b0ba 27be 97f0 64be
00000060: 9d55 103e 5b28 d5bd 01b2 7cbe 1453 bbbe
00000070: bda9 1cbf 542e 783d 637e bdbe dfd2 1bbe
00000080: 1685 8fbe fbb4 12c0 3e14 f23e fdb1 aabe
00000090: 2020 3f3f 29dd 7dbc be0a 2540 934f bc3d
000000a0: 173d 89bf c8ca c1be 6166 cebe 60e6 56be
000000b0: 1eb3 333e aa9f 9abd 40ff a9bf 9719 07bf
000000c0: 4b77 1e3e a220 9a3e 71b2 023f 3f19 18be
000000d0: 1b41 10bd 49ca bd3e 158b 3abe 113b 24c0
000000e0: 6780 f2be 675d 25be a528 dcbe b112 843f
000000f0: 9b73 a53b 5283 9a3e 9a7b 2ebe c464 c53f
00000100: f176 bdbe 0bbb 893f c641 b43c 0320 0ebe
00000110: 5dcd c33e 6a5f 1bbe 58d8 0bbe 740b a83e
00000120: 9061 26bf f185 9fbd 00b4 febd 9a13 7dbe
00000130: 745f 753f d457 36c0 3797 b13e 78e0 45bd
00000140: 35ba 89be fe59 533e 15d2 e2be 44d3 0ebe
00000150: 8c2b a83d 2fdb 923e 330b b3be ac05 29bf
00000160: 6155 d5be f0e8 7cbf 94f1 ddbf 9fed ab3d
00000170: bad6 83be eba0 b0be 67d4 30c0 f34c 98be
00000180: 928a e6be ae3f 05bf 0a0b 7f3d a358 d2bd
00000190: d6a8 1d3e 783c fbbe 778d c6be 7b91 283e
000001a0: c7bc aabe 950b fcbe 967f a83e 1221 a13e
000001b0: bc36 95bf 1a3d 2c3d 1a84 50be 6ce0 e8bd
000001c0: 8377 93bd e6df 8cbe da19 a2bf 333e 99bf
000001d0: 73c9 a03d 09b3 c93e 7124 a9bf dd76 d8bd
000001e0: c939 36bd 41eb 173f 491a bebc d167 7a3f
000001f0: 41f2 70bf e6b5 25bf 469d 2bbe b90f 633f
00000200: ff63 3f3d 2656 0f3e e8d7 b8bc 8bc2 5c3f
00000210: 7d80 8ebd 9de3 b13e e555 bbbe 8aa4 2440
00000220: d832 8a3e 879c 053d 2c30 c83f 5e8c 22bf
00000230: a064 68be 08b6 ee3e c343 0d3f 431d 13c0
00000240: b66f bf3e 4913 95bd d83d 2fbe bc82 8bbe
00000250: 5633 5f3f 218c d13e ccf8 28bc 7989 c13c
00000260: 1c50 80bc 7a79 913e e439 fa3b 6c29 043f
00000270: babe bdbf c590 d13c 5ad2 e33e ab1f 213e
00000280: eb79 21be fb2c 1dc0 fcf0 43bf 1d15 97bd
00000290: 780c 5c3d 9331 62bd b1b8 933f fb63 89be
000002a0: 632e 81be 354b 51be 97cd d03f 085b d03f
000002b0: 1dc7 a5bc 8b3c 043f 64e4 8840 5ec4 5c3e
000002c0: 411e 523c d8cd dd3e c91c 233f 83eb a93d
000002d0: 6de1 4a3d 02f7 afbf 9691 8a3e c36c e33f
000002e0: bad9 91be 3a1c af3b 304b 233f a4d4 f9bf
000002f0: 77fb d23d ccf2 84be b85e 05bf 89ff 9040
00000300: af2f c5be 27bb c63e 61ba 1ebf dd3e a63d
00000310: 177e 1abf 3a26 383e f071 453f fb39 0e3f
00000320: 4840 203f a936 be3e 94e8 8bbd 5646 7e3e
00000330: c2ea bbbe 835a ccbf a36b e9bb 3818 8fbd
00000340: d88a 13be 5794 f9bc c9e8 15bf cfd2 123e
00000350: b365 a6be 6035 133f 5b17 7ebf 57fe 28c0
00000360: 8b74 28bf 62f7 793f 8b60 8440 eb64 a33e
00000370: e226 82be 6312 0cc0 b1f6 59be e31a ea3e
00000380: f227 2d3f e3f3 283f cd24 35bf d68e 9a3e
00000390: cd52 45be 293a d43d 7b77 443e 42d9 9f3d
000003a0: a0c6 293e bca3 e5be 160f cf3e cf68 fd3e
000003b0: bc2c e040 37bf 143f aafe ad3e c243 be3e
000003c0: a45e 293d 0e55 b13d d682 24c0 6517 36be
000003d0: e607 bd3e cda6 a13e b6aa bdbf eb34 eb3c
000003e0: a856 82be a56b c03d e9ec 8d3e 2c2b 32bf
000003f0: 98c0 89c0 d233 363e 3cc7 28bb 911c 46bf

action_layer.bias f4 [4]
0.5344477 0.31053013 -1.2537571 1.586259
00000000: 91d1 083f cefd 9e3e 1d7b a0bf 890a cb3f

value_layer.weight f4 [1, 128]
0.019787982 0.08043825 -0.02054757 -0.6260101 -0.009095635 0.04418516 0.05446767 0.045246553
0.09378787 0.17379582 0.58070016 -0.013888632 0.04399922 -0.027481912 0.1454918 0.83126897
0.02357271 -0.079634085 0.08000008 0.11735208 -0.4621106 0.0006134023 0.0026555792 0.11536148
0.028898304 -0.01759117 -0.038315035 0.208357 0.09004826 0.03068223 0.12730448 0.01103613
0.03330168 0.15434039 0.23464528 0.01980161 -0.15299095 0.12958793 -0.63895684 -0.03529352
-0.14915617 -0.034314144 -0.113095336 0.09648304 0.5654658 -0.07303917 -0.6398831 -0.007970692
0.18798067 0.111153305 -0.085126214 -0.042199522 0.054392736 -0.03988798 -0.06423656 0.19012338
0.0060591106 -0.014947508 0.043275047 0.3908803 -0.04203432 -0.23198499 0.3081193 0.35497445
0.12628496 -0.07574242 -0.005844583 0.04790431 0.20841801 0.11726787 -0.5230503 -0.12890206
0.19442119 0.1191092 0.07413568 -0.17388813 0.1398556 0.20100157 0.97807014 -0.016772304
-0.024990896 -0.06965183 -0.08339828 0.09915342 -0.042004824 -0.13879852 -0.41300794 0.38736597
0.06626584 0.07039478 -0.061659925 -0.23033568 0.15043348 0.5886629 -0.60278213 0.082471624
0.061627857 -0.12369429 -0.13261805 -0.6072517 0.09005766 0.37873676 -0.34512222 -0.20058133
0.01200854 0.0926732 0.12500818 0.071416 -0.079876095 0.013303825 -0.06650025 0.083672866
0.13276646 0.38100323 0.1862196 -0.37597188 0.045245264 0.0018021326 -0.3264572 -0.022322841
0.0033060184 0.14627442 0.062307082 0.775039 -0.4151873 0.104070485 0.04708126 -0.03040568
00000000: 681a a23c cfbc a43d 6153 a8bc 3342 20bf
00000010: dc05 15bc 80fb 343d 7e19 5f3d 7354 393d
00000020: db13 c03d 88f7 313e c4a8 143f 258d 63bc
00000030: 8738 343d bf21 e1bc cdfb 143e 0bce 543f
00000040: 8e1b c13c 3217 a3bd 15d7 a33d 4a56 f03d
00000050: c399 ecbe bbcc 203a 3a09 2e3b a442 ec3d
00000060: 23bc ec3c 5b1b 90bc 3af0 1cbd 8a5b 553e
00000070: 396b b83d 4d59 fb3c 1b5c 023e e2d0 343c
00000080: 5867 083d 680b 1e3e da46 703e fc36 a23c
00000090: a9a9 1cbe b3b2 043e ad92 23bf f08f 10bd
000000a0: 65bc 18be fd8c 0cbd 879e e7bd e698 c53d
000000b0: 5ec2 103f 8f95 95bd 61cf 23bf 8197 02bc
000000c0: 017e 403e 58a4 e33d a756 aebd 68d9 2cbd
000000d0: ebca 5e3d 9461 23bd 758e 83bd b4af 423e
000000e0: 818b c63b 65e6 74bc 2d41 313d 7621 c83e
000000f0: 2e2c 2cbd 798d 6dbe d0c1 9d3e 36bf b53e
00000100: d850 013e d81e 9bbd ea83 bfbb 4f37 443d
00000110: 886b 553e 232a f03d a0e6 05bf e7fe 03be
00000120: 5916 473e 86ef f33d 73d4 973d bb0f 32be
00000130: 4e36 0f3e 5bd3 4d3e ce62 7a3f 1266 89bc
00000140: b5b9 ccbc 9ea5 8ebd b8cc aabd f310 cb3d
00000150: 400d 2cbd 3321 0ebe c775 d3be d554 c63e
00000160: 62b6 873d 232b 903d 1e8f 7cbd 1edd 6bbe
00000170: 3c0b 1a3e 9db2 163f ee4f 1abf e2e6 a83d
00000180: 7e6d 7c3d 6f53 fdbd 07cd 07be d974 1bbf
00000190: 2770 b83d c9e9 c13e dcb3 b0be 3165 4dbe
000001a0: 78bf 443c 72cb bd3d 2502 003e 8d42 923d
000001b0: 1496 a3bd 49f8 593c 4831 88bd ae5c ab3d
000001c0: eef3 073e db12 c33e 5ab0 3e3e 637f c0be
000001d0: 1953 393d 8935 ec3a 6625 a7be 64de b6bc
000001e0: c9a9 583b f6c8 153e b635 7f3d f568 463f
000001f0: 6e93 d4be e822 d53d 47d8 403d 5515 f9bc
