checkpoint/LunarLander_2500.pth (torch_old, 8217 bytes, 5 tensors)

input_layer.weight f4 [128, 8]
0	0x3da5484e	0.08070432
1	0xbf1a1d5e	-0.6020106
2	0xbe313e4c	-0.1730892
3	0x3e458a4c	0.19291037
4	0xbd6ebb85	-0.0582843
5	0x3cdf5da5	0.027266333
6	0xbe833db8	-0.25633025
7	0x3e4e9588	0.20174229
8	0x3c14fa0e	0.009092821
9	0xbd27ac23	-0.040935647
10	0xbe915db4	-0.28391802
11	0x3cc12d9c	0.023581319
12	0xbd21e0ef	-0.039521154
13	0x3d8d8d98	0.069117725
14	0xbe97f951	-0.296824
15	0xbe7daab3	-0.24772148
16	0x3e8d9a1f	0.27656648
17	0xbed5bba8	-0.41744733
18	0x3c7f1826	0.015569722
19	0x3e826632	0.25468594
20	0xbe3fa587	-0.18715487
21	0x3d9ee9d7	0.07759445
22	0xbe912b82	-0.28353506
23	0xbded9684	-0.11600974
24	0x3de71915	0.11284081
25	0x3deb2b75	0.11482898
26	0x3e7ff316	0.24995074
27	0xbfa7c616	-1.3107326
28	0xc032c45e	-2.7932353
29	0x3d3ccbc2	0.046092756
30	0xbf82cd16	-1.0218837
31	0xbfa3a16e	-1.278364
32	0x3ed2eafe	0.4119491
33	0xbf10b5e7	-0.5652756
34	0x3dc27a56	0.0949599
35	0x3ec84228	0.39112973
36	0x3da42720	0.08015275
37	0xbdb07b67	-0.08617287
38	0xbee1e3dd	-0.44119158
39	0x3d8bcc89	0.06826121
40	0xbda6b773	-0.08140459
41	0xbdcc94f5	-0.09989349
42	0xbdf38f48	-0.11892563
43	0x3cf045b0	0.029330105
44	0xbea7923a	-0.3272875
45	0x3dcb65bf	0.09931516
46	0xbe88738d	-0.26650658
47	0xbdfa04f1	-0.12207974
48	0x3e35ca89	0.17753042
49	0xbadcac90	-0.0016836096
50	0x3e0f74af	0.14009355
51	0x3d79d0a2	0.060989983
52	0xbe8b667c	-0.27226627
53	0x3ebab285	0.36464325
54	0xbf2a129f	-0.66434664
55	0xbea35521	-0.31900886
56	0x3dd71de8	0.10503751
57	0xbfedf1ba	-1.8589394
58	0x40386394	2.8810778
59	0x4055d84b	3.3413265
60	0xc028f20b	-2.6397731
61	0x3d8120d5	0.0630509
62	0x3e23d1db	0.15998022
63	0x3e459643	0.19295602
64	0x3e944a47	0.2896292
65	0xbedebbf9	-0.43502787
66	0xbe6ecbff	-0.23320006
67	0x3ef43355	0.47695413
68	0xbd992905	-0.07478527
69	0xbe94e400	-0.290802
70	0xbe68ff06	-0.22753534
71	0xbe939266	-0.2882263
72	0x3e694bd3	0.22782831
73	0xbe239b55	-0.15977223
74	0x3eafc269	0.3432801
75	0x3e52c997	0.20584713
76	0xbeedc27a	-0.46437436
77	0x3e4822df	0.19544552
78	0xbe894fad	-0.268186
79	0xbde47ded	-0.11156831
80	0x3fc04ee9	1.5024081
81	0xbf450ffc	-0.76977515
82	0x3ecb946e	0.3976168
83	0x3f9b9259	1.2154037
84	0xbf339b49	-0.7015882
85	0xbe089bd5	-0.13340695
86	0x3f81df13	1.0146202
87	0xc024c30d	-2.574405
88	0x3de465fb	0.11152264
89	0xbdf15bc5	-0.11785082
90	0xbf1c78f6	-0.6112207
91	0xbe066420	-0.13124132
92	0x3e678a70	0.22611403
93	0x3e40e15f	0.18835972
94	0xbf5033d4	-0.81329083
95	0x3dff3cf0	0.12462795
96	0x3d83da8d	0.0643817
97	0xbf0c2a78	-0.547523
98	0x3b0d55c2	0.0021566008
99	0x3ea37328	0.31923795
100	0xbe12d0b4	-0.14337426
101	0xbdc2cc86	-0.09511666
102	0xbd68b723	-0.056815278
103	0x3e63adf0	0.2223432
104	0xbe3ee678	-0.18642604
105	0xbf11181a	-0.566774
106	0x3e99d7c4	0.3004743
107	0x3dd4ef71	0.10397232
108	0x3d46cad0	0.04853326
109	0xbe8f04a8	-0.2793324
110	0x3dea3335	0.11435548
111	0xbebb836b	-0.366237
112	0xbd041dcc	-0.03225498
113	0xbecce2b3	-0.40016708
114	0x3dcb08d2	0.09913792
115	0x3e7c5557	0.2464193
116	0x3c0a59d3	0.008444267
117	0xbe53b7a3	-0.2067552
118	0xbf2dd3a3	-0.67901057
119	0xbd9cb39d	-0.07651446
120	0xbf5a2389	-0.8521047
121	0xc008a42b	-2.13502
122	0x3fbd7d34	1.4803834
123	0xc014b56d	-2.3235734
124	0x3f145bf3	0.57952803
125	0xbf4fc74d	-0.81163484
126	0xbf91187e	-1.13356
127	0xbf3b1311	-0.7307597
128	0x3ea89490	0.32925844
129	0xbe9fc832	-0.31207424
130	0xbe5e8407	-0.21730052
131	0x3f5338f3	0.8250877
132	0xbddafc23	-0.106926225
133	0x3ee581e7	0.4482567
134	0xbfcaee93	-1.5854057
135	0x3ea3931c	0.31948173
136	0x3e014c9a	0.12626877
137	0xbed94043	-0.4243184
138	0xbdd55477	-0.10416501
139	0x3e97e721	0.29668525
140	0xbdaf6391	-0.08563913
141	0x3e5faf25	0.21844156
142	0xbeca3fd9	-0.39501837
143	0xbee97440	-0.45596504
144	0x3e5e0b91	0.216841
145	0x3d2230c5	0.03959729
146	0x3eb63865	0.355899
147	0x3e0c3859	0.1369337
148	0xbdd3e07f	-0.103455536
149	0xbdf05ae0	-0.11736083
150	0x3e96a885	0.29425445
151	0xbefb2dd5	-0.49058405
152	0x3e03418a	0.1281797
153	0xbd2d0ede	-0.042250507
154	0x3eec3759	0.46135977
155	0x3e915c31	0.2839065
156	0xbea6137d	-0.32436743
157	0x3d617182	0.05503989
158	0xbf35985e	-0.7093562
159	0x3e16157a	0.1465663
160	0xbded4aa9	-0.11586506
161	0xbf185f78	-0.59520674
162	0x3e27234a	0.16322055
163	0x3f030ae6	0.51188505
164	0x3d9c1d66	0.07622795
165	0xbebb17fb	-0.36541733
166	0x3d9053f8	0.07047266
167	0xbe2f2ea3	-0.17107634
168	0x3d187ae2	0.037226565
169	0xbd051118	-0.032487005
170	0xbe32c203	-0.17456822
171	0x3e934795	0.2876555
172	0xbd8cf0af	-0.06881844
173	0xbddd5f36	-0.10809176
174	0xbf0b14ee	-0.5432881
175	0x3d974032	0.07385291
176	0x3da11f55	0.07867304
177	0xbe51ae6b	-0.20476691
178	0xbe548d7d	-0.20757098
179	0xbd28a97b	-0.041177254
180	0xbdc976d2	-0.09837116
181	0xbe72d681	-0.23714639
182	0xbef328e8	-0.47492146
183	0xbce8ea18	-0.028431937
184	0x3d8c2d98	0.06844634
185	0x3d854e9f	0.065091364
186	0x3e9e8bba	0.30965978
187	0xbe2afea5	-0.16698702
188	0xbe5d035c	-0.21583313
189	0x3dd698a1	0.104783304
190	0xbe9eb3fb	-0.3099669
191	0xbeba6d5c	-0.3641156
192	0x3e2d4c0f	0.16923545
193	0xbeb7244c	-0.3576988
194	0xbd01ff7b	-0.031737786
195	0x3eb9f427	0.36319086
196	0xbe57a1bc	-0.2105779
197	0x3dfebcb3	0.12438335
198	0xbe1eb970	-0.15500426
199	0xbd35b4c0	-0.04436183
200	0x3dc052f4	0.09390822
201	0x3db69f43	0.089170955
202	0x3cec5c77	0.028852684
203	0xbe84afc0	-0.25915337
204	0xbe0e7218	-0.13910711
205	0xbe4463f6	-0.19178757
206	0xbef6bcae	-0.48190826
207	0xbef4349d	-0.4769639
208	0x39eda6c6	0.00045328418
209	0xbea24aa1	-0.31697562
210	0xbe1ba4fe	-0.15199658
211	0x3e3338c1	0.17502119
212	0xbeab44e0	-0.33450985
213	0x3d3ff92b	0.046868484
214	0xbe90d927	-0.28290674
215	0xbe9f24d2	-0.3108278
216	0xbca48e07	-0.020087255
217	0xbf08f9fe	-0.5350646
218	0x3e07ec76	0.13273796
219	0x3f0b04a3	0.5430395
220	0xbddd1f73	-0.10797014
221	0x3e08deaf	0.13366197
222	0x3cd1855e	0.02557629
223	0xbdc7df70	-0.09759414
224	0xbdc10c47	-0.0942617
225	0xbd170399	-0.036868665
226	0x3db982be	0.0905814
227	0x3eebfe15	0.46092287
228	0x3e2d8e6d	0.16948862
229	0x3ee85b95	0.45382372
230	0xbf98db59	-1.194194
231	0x3f3ba81f	0.7330341
232	0xbe7fcca5	-0.2498041
233	0xbcea6b8d	-0.028615737
234	0xbf7160f7	-0.9428858
235	0x3e9d90c2	0.30774504
236	0x3ebbdeff	0.3669357
237	0x3ed338ad	0.41254178
238	0xbf6d33b3	-0.9265701
239	0xbd8a7610	-0.067608
240	0x3e85404c	0.26025617
241	0xbf8f41f9	-1.1192008
242	0x3eb986df	0.3623571
243	0x3dd86fd4	0.105682045
244	0xbeb2001e	-0.34765714
245	0xbdcf81fd	-0.10132215
246	0xbe18cd8d	-0.14922161
247	0xbf3fd03a	-0.74927104
248	0xbda8d661	-0.082440145
249	0xbec77d19	-0.3896263
250	0xbd41707d	-0.047226418
251	0x3e6a3fca	0.22875896
252	0xbe75d770	-0.24007964
253	0x3e94bb3d	0.290491
254	0x3e061345	0.13093288
255	0xbc8a8965	-0.016911218

input_layer.bias f4 [128]
0	0xbf2a1244	-0.6643412
1	0xbf4ba11a	-0.79542696
2	0xbee9485d	-0.4556302
3	0xbe4ae9ec	-0.19815797
4	0xbf2dc83e	-0.6788367
5	0xbf3bff56	-0.73436487
6	0xbf21037a	-0.6289593
7	0xbf260552	-0.6485187
8	0xbf3f2abd	-0.7467459
9	0xbf2332cd	-0.6374939
10	0xbf4671b7	-0.77517265
11	0xbf0072be	-0.5017508
12	0xbf0e289d	-0.5553072
13	0xbf1ba614	-0.6080029
14	0xbeed7261	-0.46376327
15	0x3d228f14	0.03968723
16	0xbf1edf20	-0.6205921
17	0xbf3687d6	-0.7130102
18	0xbf3b4f0f	-0.7316751
19	0xbf2affd9	-0.6679664
20	0xbf3eab35	-0.7447999
21	0xbe8fd109	-0.2808917
22	0xbf0801d8	-0.53127813
23	0xbf36bb9c	-0.7138002
24	0xbeb7e68f	-0.3591809
25	0xbf0745db	-0.52840966
26	0xbf1b5c14	-0.60687375
27	0xbf3f6b30	-0.7477293
28	0xbf8077b8	-1.0036535
29	0xbf7f6284	-0.997597
30	0xbf4c9815	-0.7991956
31	0xbf2c025a	-0.6719109
32	0xbf0ccbca	-0.5499846
33	0xbf1e1a19	-0.6175857
34	0xbf085891	-0.5326014
35	0xbefcda3b	-0.49385247
36	0xbf67c6ad	-0.9053753
37	0xbf2bd113	-0.67115897
38	0x3e82a23d	0.25514403
39	0xbf388b93	-0.72087973
40	0xbf6ca480	-0.9243851
41	0xbf0f9e45	-0.56100875
42	0xbf4f5e31	-0.810031
43	0xbf40e463	-0.7534849
44	0xbfca50fd	-1.5805966
45	0xbf408e5d	-0.7521723
46	0xbe237871	-0.15963914
47	0xbf6a4abb	-0.9152028
48	0xbea206ad	-0.31645718
49	0xbf812a78	-1.0091085
50	0xbf6c423b	-0.9228856
51	0xbf1ff833	-0.62488097
52	0xbf297775	-0.661979
53	0xbf9ff74e	-1.2497346
54	0xbefae7c0	-0.49004936
55	0xbe9503b9	-0.29104403
56	0xbf4acf22	-0.7922231
57	0xbe73330b	-0.2374994
58	0xbe89eebc	-0.26939952
59	0xbf9de25a	-1.2334702
60	0xbf10d187	-0.56569713
61	0xbf186d6b	-0.5954196
62	0x3d8b2b45	0.067953624
63	0x3e722390	0.23646379
64	0xbfa5cfe5	-1.2954069
65	0xbe70cda8	-0.23515952
66	0xbf344c72	-0.70429146
67	0xbef1c806	-0.47222918
68	0xbf6d2695	-0.92636997
69	0xbf24fa48	-0.644444
70	0xbeecf564	-0.46280968
71	0xbf4fee6a	-0.81223166
72	0xbf615c04	-0.8803103
73	0xbe85ad4a	-0.26108772
74	0xbf22d4af	-0.6360578
75	0xbee6352a	-0.44962436
76	0xbf987e05	-1.1913458
77	0xbe0f98d7	-0.14023148
78	0xbf8324a3	-1.0245556
79	0xbecab94e	-0.395945
80	0xbeecd281	-0.46254352
81	0xbf08841f	-0.533266
82	0xbee82334	-0.45339358
83	0xbebe2549	-0.3713782
84	0xbf4236a4	-0.75864625
85	0xbf754f1f	-0.95823854
86	0xbf1f1be8	-0.62151957
87	0xbe695783	-0.2278729
88	0xbf6bc783	-0.92101306
89	0xbf8a28f4	-1.0793748
90	0xbeee638b	-0.4656032
91	0xbf3055f7	-0.6888117
92	0xbf2eede1	-0.68331724
93	0xbf37cb7c	-0.7179487
94	0x3e684b0e	0.22684881
95	0xbf53d83c	-0.8275182
96	0xbf5b3a34	-0.85635686
97	0xbf62ce07	-0.8859562
98	0xbf23113b	-0.63698167
99	0xbf24e2f2	-0.6440879
100	0xbeaf1b37	-0.3420045
101	0x3f12d459	0.57355267
102	0xbf04dcb1	-0.5189925
103	0xbe8e5508	-0.2779925
104	0xbf0d0e72	-0.55100167
105	0xbdafff26	-0.085935876
106	0xbf2b3ce7	-0.66889805
107	0xbf846bfc	-1.0345454
108	0xbf222d94	-0.63350797
109	0xbf4b871b	-0.7950303
110	0xbf30a727	-0.69005054
111	0xbf3b1abc	-0.7308767
112	0xbf2b7435	-0.6697419
113	0xbf853d18	-1.0409269
114	0xbe0f3979	-0.13986768
115	0x3e092b47	0.13395415
116	0xbee71b6c	-0.4513811
117	0xbf2e08c1	-0.6798211
118	0xbe38701b	-0.18011515
119	0xbf4c10cc	-0.7971313
120	0xbf4ac754	-0.792104
121	0xbf998804	-1.1994634
122	0xbefd1214	-0.49427855
123	0xbe82d23d	-0.25551024
124	0xbf048cf2	-0.51777565
125	0xbf435a28	-0.7630944
126	0xbee92fb2	-0.455442
127	0xbf8fb502	-1.1227114

action_layer.weight f4 [4, 128]
0	0xbdd0981f	-0.10185265
1	0xbe396e49	-0.18108477
2	0x3dd79bd0	0.10527766
3	0xbfabc007	-1.3417977
4	0xbe130aa5	-0.1435953
5	0x3d3741b5	0.044740397
6	0xbe71bca2	-0.23607114
7	0xbeb098a7	-0.34491464
8	0x3dcde4e2	0.100534216
9	0xbdc7240b	-0.097236715
10	0xbf695f3a	-0.9116093
11	0x3e230a0f	0.15921806
12	0xbeaa4ecf	-0.3326325
13	0xbe955f94	-0.29174483
14	0xbe64d73d	-0.22347732
15	0xbf9a0f4d	-1.203592
16	0x3d2ac0d0	0.041687787
17	0xbe972319	-0.29518965
18	0x3b7b1543	0.0038312234
19	0xbdbaa816	-0.09114091
20	0xbe133626	-0.14376125
21	0x3ef0c452	0.4702478
22	0xbe27bab0	-0.1637981
23	0xbe64f097	-0.22357403
24	0x3e10559d	0.14095159
25	0xbdd5285b	-0.10408088
26	0xbe7cb201	-0.24677278
27	0xbebb5314	-0.3658682
28	0x3e9df17c	0.308483
29	0x3d782e54	0.060591057
30	0xbebd7e63	-0.37010488
31	0xbe1bd110	-0.1521647
32	0xbe8f8516	-0.28031224
33	0xbf978d52	-1.1840003
34	0x3ef2143e	0.4728107
35	0xbeaab1fd	-0.3333892
36	0x3f3f2020	0.74658394
37	0xbc7ddd29	-0.015494623
38	0x400a7ac4	2.163743
39	0x3dbc4f93	0.09194865
40	0xbf893d17	-1.0721768
41	0xbec1cac8	-0.37850022
42	0xbf152a82	-0.58267987
43	0xbe59b159	-0.21259059
44	0x3e33b31e	0.17548797
45	0xbd9a9faa	-0.07549985
46	0xbf9ac68c	-1.2091842
47	0xbf071997	-0.5277342
48	0x3e1e774b	0.15475194
49	0x3e9a18c3	0.30097017
50	0x3f024fe0	0.5090313
51	0xbe18193f	-0.1485338
52	0xbd10411b	-0.03521834
53	0x3d3e2d6a	0.04643003
54	0xbe3b3d55	-0.18285115
55	0xbfe80e13	-1.8129295
56	0xbef2806d	-0.47363606
57	0xbe255d67	-0.16148911
58	0xbedc28a5	-0.4299976
59	0x3f286462	0.6577817
60	0x3ba5739b	0.0050491816
61	0x3e9a8352	0.30178314
62	0x3e17d4ff	0.14827345
63	0x40057025	2.0849698
64	0xbebd76f1	-0.37004808
65	0x3f72c973	0.9483864
66	0x3cb441c6	0.02200402
67	0xbe0e2003	-0.13879399
68	0x3ec3cd5b	0.3824261
69	0xbe1b5f6a	-0.15173116
70	0xbe60c73e	-0.21951005
71	0x3ea8dc80	0.32980728
72	0xbf266190	-0.6499262
73	0xbd9f85f1	-0.07789219
74	0xbe298d8b	-0.165579
75	0xbe80aa4f	-0.25129935
76	0x3f6bc35d	0.92094976
77	0xbfd116ff	-1.6335143
78	0x3f2ec270	0.6826544
79	0xbd45e078	-0.048309773
80	0xbe89ba35	-0.26899877
81	0x3e5359fe	0.20639798
82	0xbecbae36	-0.3978135
83	0xbe0ed344	-0.13947779
84	0x3da82b8c	0.08211431
85	0x3e92c091	0.28662542
86	0xbeaeb9b7	-0.34126064
87	0xbeb8f906	-0.3612749
88	0xbed429a9	-0.41438034
89	0xbf7df4bd	-0.99201566
90	0xbf032f31	-0.51243883
91	0xbd7a2acd	-0.061075974
92	0xbe83d6ba	-0.2574976
93	0xbf675acd	-0.90372926
94	0xbf89bf0d	-1.0761429
95	0xbe984cf3	-0.29746208
96	0xbee68a92	-0.45027596
97	0xbf053fae	-0.5205029
98	0x3d7f0b0a	0.062266387
99	0xbe1777a4	-0.14791733
100	0x3cd1cd70	0.025610656
101	0xbf304417	-0.68853897
102	0xbec68d77	-0.38779804
103	0x3f685c12	0.9076549
104	0xbeaabcc7	-0.3334715
105	0xbea70d74	-0.3262745
106	0x3eca6ab7	0.39534542
107	0x3ea12112	0.31470543
108	0xbea29704	-0.3175584
109	0x3d2c3d1a	0.04205046
110	0xbe50841a	-0.20362893
111	0xbde8e06c	-0.1137093
112	0xbd937783	-0.072005294
113	0xbe8ceeaf	-0.2752585
114	0xbee1e7d9	-0.44122198
115	0xbf408f86	-0.75219
116	0x3da0c973	0.078509234
117	0x3ec9b309	0.39394405
118	0xbf88a1b4	-1.0674348
119	0xbdd876dd	-0.10569546
120	0xbd3639c9	-0.044488702
121	0x3f17eb41	0.59343344
122	0xbcbe1a49	-0.023205893
123	0x3f346f79	0.70482594
124	0x3eaa3177	0.33240864
125	0xbf25b5e6	-0.6473068
126	0xbe2b9d46	-0.16759214
127	0x3f630f83	0.88695544
128	0x3d3f63ff	0.046726223
129	0x3e0f5626	0.13997707
130	0xbcb8d7e8	-0.02256389
131	0x3fdefa63	1.7420162
132	0xbd8e807d	-0.06958101
133	0x3eb1e39d	0.34743968
134	0xbebb55e5	-0.3658897
135	0x404a3417	3.1594293
136	0x3e8a32d8	0.26991916
137	0x3d072266	0.03299179
138	0x401e84cc	2.4768553
139	0xbf228c5e	-0.63495433
140	0xbe6864a0	-0.22694635
141	0x3eeeb608	0.46623254
142	0x3f0d43c3	0.5518152
143	0xbf87ef3a	-1.0619881
144	0x3edb9664	0.42888176
145	0xbd951349	-0.07279069
146	0xbe2f3dd8	-0.17113435
147	0xbe8b82bc	-0.2724818
148	0x3ed7b5ca	0.42130882
149	0x3ed18c21	0.40927222
150	0xbc28f8cc	-0.010313224
151	0x3cc18979	0.023625122
152	0xbc80501c	-0.0156632
153	0x3e91797a	0.28412992
154	0x3bfa39e4	0.0076362956
155	0x3f04296c	0.51625705
156	0xbf57097c	-0.83998847
157	0x3cd190c5	0.025581727
158	0x3ee3d25a	0.44496423
159	0x3e1cc725	0.15310343
160	0xbe2179eb	-0.15769164
161	0xbf9594e3	-1.1686062
162	0xbf43f0fc	-0.7653959
163	0xbd97151d	-0.07377074
164	0x3d5c0c78	0.05372283
165	0xbd623193	-0.05522306
166	0x3ed64f0e	0.4185719
167	0xbe8963fb	-0.26834092
168	0xbe81286f	-0.2522616
169	0xbe4f2bba	-0.20231524
170	0x3fdfd206	1.7485969
171	0x3fd95118	1.6977873
172	0xbca5c71d	-0.020236546
173	0x3f043c8b	0.5165488
174	0x402c60d1	2.6934092
175	0x3e5cc45e	0.21559283
176	0x3c521e41	0.012824596
177	0x3ee90bce	0.4551682
178	0x3f22fcc3	0.63666934
179	0x3da9eb83	0.082968734
180	0x3d4ae16d	0.04953139
181	0xbf7034f0	-0.93830776
182	0x3e7f3deb	0.24925964
183	0x3fb3403e	1.400398
184	0xbe927d49	-0.2861121
185	0x3baf1c3a	0.005343941
186	0x3f234b30	0.637866
187	0xbf644f72	-0.89183724
188	0x3dd2fb77	0.10301869
189	0xbe84f2cc	-0.2596649
190	0xbec6bad3	-0.3881441
191	0x4024b78c	2.5737028
192	0xbec53349	-0.3851569
193	0x3e905eca	0.28197318
194	0xbf1f74fd	-0.62287885
195	0x3da63edd	0.08117459
196	0xbf1aa823	-0.60412806
197	0x3e38263a	0.17983332
198	0x3e50f60e	0.20406362
199	0x3f085435	0.5325349
200	0x3f204048	0.62598085
201	0x3ebe36a9	0.37151077
202	0xbd7d34a2	-0.061817773
203	0x3e1b1382	0.1514416
204	0xbe8c2866	-0.27374572
205	0xbe30636a	-0.17225423
206	0xbb2d0e28	-0.0026406143
207	0xbd8f1838	-0.06987041
208	0xbe138ad8	-0.14408433
209	0xbcf99457	-0.030466242
210	0xbf310419	-0.6914688
211	0x3e12d2cf	0.1433823
212	0xbea665b3	-0.32499465
213	0x3f0fa624	0.56112885
214	0xbf983423	-1.1890911
215	0xbff67872	-1.9255507
216	0xbf287488	-0.6580281
217	0x3f778700	0.9669037
218	0x405425e2	3.3148122
219	0x3e949bad	0.2902502
220	0xbe8226e2	-0.2542029
221	0xbeb68e14	-0.35655272
222	0xbeec869f	-0.46196458
223	0x3eea1ae3	0.45723638
224	0x3f2d27f2	0.67639077
225	0x3f28f3e3	0.6599714
226	0xbf3524cd	-0.7075928
227	0xbd638fce	-0.055557065
228	0xbd749ccc	-0.059719846
229	0x3ee21689	0.44157818
230	0x3e44777b	0.19186203
231	0xbee0b2a0	-0.4388628
232	0x3e29c6a0	0.16579676
233	0x3d9d7216	0.07687776
234	0x3ecf4681	0.40483478
235	0x3efd68cf	0.49494025
236	0x409b2fe2	4.849595
237	0x3f14bf37	0.5810427
238	0x3eadfeaa	0.33983356
239	0x3ebe43c2	0.3716107
240	0x3d295ea4	0.041350022
241	0x3db00693	0.08595004
242	0xbecb345f	-0.39688393
243	0x3f66b35c	0.9011743
244	0x3ebd07e6	0.3692009
245	0x3ea1a6cd	0.3157257
246	0xbe66a422	-0.22523549
247	0x3ce63759	0.028102564
248	0xbe8256a8	-0.25456738
249	0x3dc069f5	0.0939521
250	0x3e8dece9	0.2771981
251	0xbf352cd2	-0.70771515
252	0xc01817ad	-2.376445
253	0x3e3633d2	0.17793205
254	0xbb28c73c	-0.0025753519
255	0xbf461c51	-0.7738696

action_layer.bias f4 [4]
0	0x3e3c5261	0.183908
1	0x3e87982d	0.26483288
2	0xbf0e0b32	-0.5548583
3	0x3f80f53e	1.0074842

value_layer.weight f4 [1, 128]
0	0x3ca21a68	0.019787982
1	0x3da4bccf	0.08043825
2	0xbca85361	-0.02054757
3	0x3eca22ff	0.39479825
4	0xbc1505dc	-0.009095635
5	0x3d34fb80	0.04418516
6	0x3d747ab2	0.059687324
7	0xbc0329c4	-0.008005563
8	0x3dc013db	0.09378787
9	0x3e5101bb	0.20410816
10	0x3e016ac6	0.12638387
11	0x3d09ad01	0.033612255
12	0x3d343887	0.04399922
13	0xbd6f1b75	-0.058375794
14	0x3e149a21	0.1451192
15	0x3ec9a742	0.3938542
16	0xbd1c2965	-0.038125414
17	0xbda31732	-0.079634085
18	0x3da5e4b5	0.08100263
19	0x3df0564a	0.11735208
20	0x3e0d7cf5	0.13817199
21	0x3a206967	0.0006119222
22	0xbb0eb8fc	-0.002177774
23	0x3dec42a4	0.11536148
24	0x3cecbc23	0.028898304
25	0xbcad248d	-0.021135593
26	0xbd18010b	-0.03711037
27	0x3e555b8a	0.208357
28	0xbe061f68	-0.13097918
29	0x3eb20d45	0.3477575
30	0x3dfbc984	0.122942954
31	0xbcc31c2b	-0.023817142
32	0x3d086758	0.03330168
33	0x3e50c5a5	0.20387895
34	0x3e70a72b	0.2350127
35	0xbd4b2cd9	-0.049603317
36	0xbe1ca9a9	-0.15299095
37	0x3e04b2b3	0.12958793
38	0x3d984bf8	0.07436365
39	0xbd15af12	-0.036543913
40	0xbca1d0fd	-0.019752974
41	0xbd0d8570	-0.034551084
42	0xbd3002d9	-0.042971466
43	0xbba41e66	-0.0050085066
44	0x3f10c25e	0.5654658
45	0xbd95958f	-0.07303917
46	0xbed7ed51	-0.42173246
47	0x3a0fb309	0.00054816954
48	0x3e407e01	0.18798067
49	0x3de7d071	0.11319054
50	0xbdae4940	-0.08510065
51	0xbd2cd968	-0.042199522
52	0xbe3142e8	-0.17310679
53	0x3cac4f9a	0.02103405
54	0x3d1809f6	0.037118874
55	0x3eaef308	0.34169793
56	0x3baddec3	0.0053060963
57	0xbc74e665	-0.014947508
58	0xbc115d66	-0.008872366
59	0xbdcc2667	-0.09968262
60	0xbd2c2c2e	-0.04203432
61	0xbe6d8d79	-0.23198499
62	0x3eca3482	0.39493185
63	0x3ea2f39e	0.3182649
64	0x3e015db4	0.12633401
65	0xbd3a03db	-0.045413833
66	0x3c447a6a	0.011992076
67	0x3d453579	0.0481467
68	0x3e63d4e1	0.22249176
69	0x3df02a23	0.11726787
70	0x3d1483bd	0.036258448
71	0xbe0402b5	-0.12891658
72	0x3e471659	0.19442119
73	0x3df3ef86	0.1191092
74	0x3da83d57	0.08214825
75	0x3d632214	0.05545242
76	0x3e2baa64	0.16764218
77	0xbe0c62d1	-0.1370957
78	0x3f5d5ff0	0.86474514
79	0xbc97e953	-0.018543875
80	0xbcccb9b5	-0.024990896
81	0xbd8ea59e	-0.06965183
82	0xbd805372	-0.06265916
83	0x3dcac000	0.09899902
84	0xbd2c0d40	-0.042004824
85	0xbe0b59b1	-0.13608433
86	0xbe8b9eed	-0.27269688
87	0x3d8969ea	0.06709655
88	0x3da1ebf2	0.07906331
89	0x3d8dc0f9	0.06921572
90	0xbd8704b0	-0.06592691
91	0x3dc5a9b7	0.09651511
92	0x3e1a0b3c	0.15043348
93	0x3ee43616	0.44572514
94	0xbefdb9f0	-0.49555922
95	0x3e1039aa	0.14084497
96	0xbd5e7071	-0.05430645
97	0xbe06b71f	-0.13155793
98	0xbe2366e5	-0.1595722
99	0x3dc548d9	0.09633035
100	0xbd41e9e7	-0.047342207
101	0x3e3f83ba	0.18702593
102	0xbeb0b3dc	-0.34512222
103	0x3e090f4c	0.13384742
104	0xbbb257a7	-0.005442578
105	0x3e016122	0.1263471
106	0x3df0e901	0.11763192
107	0xbd46fe72	-0.0485825
108	0x3d95c5a4	0.073130876
109	0x3c59f849	0.013303825
110	0xbd883148	-0.06650025
111	0x3daa212c	0.08307108
112	0x3e07f3ee	0.13276646
113	0x3ec33aca	0.3813079
114	0x3e68ddc9	0.22740854
115	0xbddfecf8	-0.1093387
116	0x3d395319	0.045245264
117	0x3aec3589	0.0018021326
118	0xbef562c2	-0.4792691
119	0xbcdc7bca	-0.026914496
120	0x3bfe0628	0.0077521987
121	0x3e16755c	0.14693207
122	0x3d7f35b6	0.062307082
123	0x3f198c07	0.5997929
124	0x3db28f55	0.08718745
125	0x3dd53c6d	0.10411916
126	0x3d40d847	0.04708126
127	0xbcfa1c02	-0.030530933
