checkpoint/LunarLander_1250.pth (torch_old, 8217 bytes, 5 tensors)

input_layer.weight f4 [128, 8]
00000000: 4e48 a53d 5e1d 1abf 4c3e 31be 4c8a 453e
00000010: 85bb 6ebd a55d df3c b83d 83be 8895 4e3e
00000020: c37d 143c a7aa 27bd 6163 91be 1d26 c13c
00000030: 8fdf 21bd 2f81 8d3d 51f9 97be b3aa 7dbe
00000040: 1f9a 8d3e a8bb d5be 2618 7f3c 3266 823e
00000050: 87a5 3fbe d7e9 9e3d 822b 91be 8496 edbd
00000060: 9bf5 163f ff15 e73d 7f9e 823e b7fb 79bf
00000070: 0f01 d6bf 5f48 08bf af60 22bf 7411 8fbf
00000080: feea d23e e7b5 10bf 567a c23d 2842 c83e
00000090: 2027 a43d 677b b0bd dde3 e1be 89cc 8b3d
000000a0: 73b7 a6bd f594 ccbd 488f f3bd b045 f03c
000000b0: 3a92 a7be bf65 cb3d 8d73 88be f104 fabd
000000c0: e981 473e 407c a3ba d4ff 123e a055 673d
000000d0: 93a8 84be 92c2 ee3e 9f12 2abf b409 8bbe
000000e0: 8110 f4be b268 ddbf 905b 1f40 ae8a 1b40
000000f0: d928 bebf 696b 80be 8b93 033f a669 5a3f
00000100: 474a 943e f9bb debe ffcb 6ebe 5533 f43e
00000110: 0529 99bd 00e4 94be 06ff 68be 6692 93be
00000120: d34b 693e 559b 23be 69c2 af3e 97c9 523e
00000130: 7ac2 edbe df22 483e ad4f 89be ed7d e4bd
00000140: 61d9 c73e 8b22 3ebe dcae 053f d8db e73e
00000150: c24e 39bf ce42 b2be b632 2c3f 0dc3 24c0
00000160: b06e b7bd acc9 1ebd fe9b 3ebf 7eee 87be
00000170: 929b 603e 3cf7 103e 33a9 50bf 8286 bb3e
00000180: 8dda 833d 782a 0cbf c255 0d3b 2873 a33e
00000190: b4d0 12be 86cc c2bd 23b7 68bd f0ad 633e
000001a0: 680a 3fbe da17 11bf b7ee 993e 4334 d53d
000001b0: 40b6 463d 12d6 8ebe e747 e93d 6b83 bbbe
000001c0: 3900 02bd 54e2 ccbe 4caa c93d dcc5 7b3e
000001d0: a84a 0b3c 61d4 54be a3d3 2dbf 9db3 9cbd
000001e0: 9934 41bf 5201 8abf 3e15 8ebe 9e91 b1bf
000001f0: 33f1 14be db4a 22bf e503 9bbf a56c aebf
00000200: 96bf 0c3e 5d34 3ebf 5681 893d ec71 3b3f
00000210: be2d f5be 2f64 8b3e 93ee cabf 9602 543f
00000220: 9a4c 013e 4340 d9be 7754 d5bd 21e7 973e
00000230: 9163 afbd 25af 5f3e d93f cabe 4074 e9be
00000240: c1d5 603e 0057 223d 5fb1 b63e f801 0c3e
00000250: cc6d d4bd 8cbb fcbd 7e90 a23e d52d fbbe
00000260: 7096 0c3e 8598 2ebd 8449 ee3e ae8a 903e
00000270: f78e a9be f3a2 4b3d 5e98 35bf 0fc7 9d3e
00000280: 35e8 eabd 8160 18bf f379 253e 77b4 023f
00000290: 2253 9c3d 1f5d bcbe 162e 9a3d a32e 2fbe
000002a0: 9229 0a3d 8357 04bd 8c7c 36be e233 933e
000002b0: d42c 8dbd 7f13 e0bd ee14 0bbf 7d41 963d
000002c0: 7bda 983d 5ab1 51be b81b 5bbe 1e99 2dbd
000002d0: 3e7d c8bd 0f87 73be e828 f3be d03b bdbc
000002e0: 982d 8c3d 9f4e 853d ba8b 9e3e a5fe 2abe
000002f0: 5c03 5dbe a198 d63d fbb3 9ebe 5c6d babe
00000300: 9929 5c3e d103 b5be e634 a5bc 52d2 b93e
00000310: c72f 56be bba9 053e 70b9 1ebe c0b4 35bd
00000320: a73b c03d 419f b63d 88af ec3c a2ad 84be
00000330: 2b75 0ebe 072f 44be aebc f6be 9d34 f4be
00000340: c6a6 ed39 a14a a2be fea4 1bbe c138 333e
00000350: e044 abbe 2bf9 3f3d 27d9 90be d224 9fbe
00000360: 078e a4bc fef9 08bf 76ec 073e a304 0b3f
00000370: 731f ddbd afde 083e 5e85 d13c 70df c7bd
00000380: 3166 c4be 4686 35be 5cb0 bd3e d5e5 c23e
00000390: afe2 d2be 19b6 353e 59db 98bf 0f61 6c3f
000003a0: f76f 62bd 5a3f d9bc a5cc 39bf 6c9f aa3e
000003b0: 21ce ac3e a618 113f 58c4 87bf 616b 95be
000003c0: 4c40 853e f941 8fbf df86 b93e d46f d83d
000003d0: 1e00 b2be fd81 cfbd 8dcd 18be 3ad0 3fbf
000003e0: 2afb bebd 0092 c7be 46c5 6abd 1989 6a3e
000003f0: a89e 74be 6da9 993e e644 053e 6b30 9a3d
0.08070432 -0.6020106 -0.1730892 0.19291037 -0.0582843 0.027266333 -0.25633025 0.20174229
0.009063187 -0.04093423 -0.28396133 0.023577744 -0.039519843 0.069094054 -0.296824 -0.24772148
0.27656648 -0.41744733 0.015569722 0.25468594 -0.18715487 0.07759445 -0.28353506 -0.11600974
0.58968514 0.11283492 0.25511548 -0.9764971 -1.6719073 -0.5323543 -0.6342878 -1.1177201
0.4119491 -0.5652756 0.0949599 0.39112973 0.08015275 -0.08617287 -0.44119158 0.06826121
-0.08140459 -0.09989349 -0.11892563 0.029330105 -0.3272875 0.09931516 -0.26650658 -0.12207974
0.1948315 -0.0012472942 0.14355403 0.056478143 -0.25909862 0.4663282 -0.66434664 -0.2715584
-0.4766884 -1.7297575 2.4899635 2.4303393 -1.4856216 -0.25081947 0.5139701 0.85317457
0.2896292 -0.43502787 -0.23320006 0.47695413 -0.07478527 -0.290802 -0.22753534 -0.2882263
0.22782831 -0.15977223 0.3432801 0.20584713 -0.46437436 0.19544552 -0.268186 -0.11156831
0.39033034 -0.18567865 0.5221994 0.45284915 -0.723858 -0.34816593 0.6726488 -2.574405
-0.08956659 -0.038766548 -0.74456775 -0.26549143 0.21934345 0.14156812 -0.8150818 0.3662606
0.0643817 -0.547523 0.0021566008 0.31923795 -0.14337426 -0.09511666 -0.056815278 0.2223432
-0.18656313 -0.5667702 0.30064937 0.10410359 0.04851365 -0.27897698 0.113906674 -0.366237
-0.031738494 -0.40016425 0.09846935 0.24587196 0.008501686 -0.20784141 -0.67901057 -0.07651446
-0.7547088 -1.0781653 -0.27750582 -1.3872564 -0.14545135 -0.6339547 -1.2110564 -1.3626906
0.13744959 -0.7429865 0.06714122 0.73220706 -0.4788646 0.27224872 -1.5854057 0.82816446
0.12626877 -0.4243184 -0.10416501 0.29668525 -0.08563913 0.21844156 -0.39501837 -0.45596504
0.2195654 0.03963375 0.35682198 0.13672626 -0.103725046 -0.12340459 0.31750864 -0.49058405
0.13729262 -0.042625923 0.46540463 0.28230804 -0.33116886 0.049715947 -0.7093562 0.30815932
-0.11470071 -0.59522253 0.16159801 0.5105662 0.07633044 -0.36789796 0.075283214 -0.17107634
0.03373105 -0.03231002 -0.17820948 0.2875052 -0.06893316 -0.109412186 -0.5432881 0.0733671
0.07463547 -0.2047781 -0.21397293 -0.042382352 -0.09789513 -0.2378199 -0.47492146 -0.02309981
0.06844634 0.065091364 0.30965978 -0.16698702 -0.21583313 0.104783304 -0.3099669 -0.3641156
0.21500243 -0.35354474 -0.020166826 0.36293274 -0.20916663 0.13053028 -0.15500426 -0.04436183
0.09386378 0.08917094 0.028892294 -0.2591372 -0.13911884 -0.19158565 -0.48190826 -0.4769639
0.00045328418 -0.31697562 -0.15199658 0.17502119 -0.33450985 0.046868484 -0.28290674 -0.3108278
-0.020087255 -0.5350646 0.13273796 0.5430395 -0.10797014 0.13366197 0.02557629 -0.09759414
-0.38359216 -0.17727003 0.37048614 0.38065973 -0.4118857 0.17745246 -1.194194 0.923356
-0.05528256 -0.026519466 -0.7257789 0.33324754 0.33751014 0.56678236 -1.0606794 -0.29183486
0.26025617 -1.1192008 0.3623571 0.105682045 -0.34765714 -0.10132215 -0.14922161 -0.74927104
-0.093252495 -0.38978577 -0.05731704 0.22903861 -0.23888648 0.30012074 0.13014564 0.07528766

input_layer.bias f4 [128]
00000000: 4412 2abf d79e 4bbf 5d48 e9be 3238 78be
00000010: 3ec8 2dbf 56ff 3bbf afdc 18bf 6dd4 55be
00000020: bd2a 3fbf cd32 23bf b256 19bf 8a37 acbe
00000030: 9d28 0ebf 0ab5 1bbf 23fb ecbe 72a3 393d
00000040: e112 69be d687 36bf 65db 3abf 1637 28bf
00000050: 0c1b 3ebf 05dc 8ebe 966d 07bf 9cbb 36bf
00000060: 3a5f acbe 5b49 07bf 145c 1bbf 306b 3fbf
00000070: c0fa d6be 1492 88bf 1598 4cbf b5f9 29bf
00000080: 37dd 0cbf b253 cbbe 9158 08bf b81f f7be
00000090: 2987 35be 8b6b 2bbf 5b40 963e 3d73 34bf
000000a0: d259 f3be 3437 f7be ac85 06bf 0807 fdbe
000000b0: 89a5 48bf 5d8e 40bf 4d51 ae3c 65b2 15bf
000000c0: ad06 a2be 3170 5abf 1b78 41bf c337 e9be
000000d0: 7577 29bf c3c4 39bf d0c3 fabe f73b 83be
000000e0: da12 2fbf 0b33 73be bcee 89be f330 0fbf
000000f0: 87d1 10bf 6b6d 18bf a356 593e 46d8 343d
00000100: 269a a2bf fea9 123d 0d52 2cbf a545 f0be
00000110: 34e6 62bf 48fa 24bf 1924 ecbe 666c 2ebf
00000120: 94d3 5cbf 4aad 85be 7a6c 31bf 72ea e5be
00000130: 835b 2dbf c41e 6bbc 37a7 4bbf 4eb9 cabe
00000140: 4c44 cfbe 5b69 08bf e679 e0be 8b00 bebe
00000150: a436 42bf 9192 54bf 142d 68be f6c1 9abe
00000160: 1b9f 4dbf db62 67bf ccdf 10be 73bc 34bf
00000170: 8bb7 2ebf 9aed 18bf 2dce 2b3f 0449 52bf
00000180: dde1 49bf 6b0b 2ebf 61a9 28bf 6683 24bf
00000190: 1472 abbe 09c1 8abd c6c9 04bf 821e 53be
000001a0: 61ad 0bbf f04b c4bd 5253 2cbf 8edd 56bf
000001b0: 38c1 1abf 1b87 4bbf ec89 18bf bc1a 3bbf
000001c0: 3574 2bbf 8692 2fbf 682b b43e e9c4 02be
000001d0: 6c1b e7be c108 2ebf c478 04be 42f1 30bf
000001e0: c4d1 dabe c4fd 90bf 9d59 01bf a999 6cbe
000001f0: 6c09 a7be 4452 3bbf 9f39 e9be c497 36bf
-0.6643412 -0.79539245 -0.4556302 -0.24240187 -0.6788367 -0.73436487 -0.59711736 -0.20881815
-0.7467459 -0.6374939 -0.5989791 -0.33636123 -0.5553072 -0.6082312 -0.46285352 0.04532189
-0.22761108 -0.7130102 -0.7299102 -0.65709054 -0.7426002 -0.27902237 -0.5290159 -0.7138002
-0.33666402 -0.52846307 -0.60687375 -0.7477293 -0.41988182 -1.066958 -0.7991956 -0.6639665
-0.5502505 -0.39712292 -0.5326014 -0.48266387 -0.17727341 -0.6696097 0.29345974 -0.7048834
-0.47529465 -0.48284304 -0.5254772 -0.49419427 -0.78377587 -0.7521723 0.021279002 -0.58475333
-0.31645718 -0.8532744 -0.7557389 -0.45550355 -0.661979 -0.7256586 -0.48977518 -0.25631687
-0.6838814 -0.2374994 -0.26939952 -0.55934066 -0.56569713 -0.5954196 0.21224456 0.044151567
-1.2703292 0.03580665 -0.673127 -0.46928135 -0.8863251 -0.644444 -0.4612129 -0.6813415
-0.8626034 -0.26108772 -0.6930615 -0.4490543 -0.6771776 -0.014350597 -0.79552025 -0.395945
-0.40481794 -0.5328576 -0.43843 -0.3710979 -0.75864625 -0.8303614 -0.22673446 -0.30226105
-0.803209 -0.90385216 -0.14147872 -0.7060005 -0.68248814 -0.5973755 0.67111474 -0.82142663
-0.78860265 -0.6798617 -0.6588345 -0.64263 -0.33485472 -0.067751 -0.5187038 -0.20617107
-0.5456143 -0.095847964 -0.67314637 -0.83931816 -0.6045108 -0.7950303 -0.5958545 -0.7308767
-0.6697419 -0.6858295 0.35189366 -0.12770428 -0.4513811 -0.6798211 -0.12936693 -0.6911813
-0.42738163 -1.1327443 -0.50527364 -0.23105492 -0.32624376 -0.731724 -0.45551774 -0.71325326

action_layer.weight f4 [4, 128]
00000000: 1f98 d0bd 496e 39be d09b d73d 6051 aebe
00000010: a50a 13be b541 373d f5bc 71be 4c43 bfbd
00000020: e2e4 cd3d 0b24 c7bd c4e2 23bf d995 123e
00000030: cf4e aabe 945f 95be 3dd7 64be 0f74 59bf
00000040: e324 6cbd 1923 97be 4315 7b3b 16a8 babd
00000050: 2636 13be 21db f03e afba 27be 97f0 64be
00000060: 96b5 183e 5b28 d5bd 01b2 7cbe 1453 bbbe
00000070: 6c1d c23e 802c 783d 637e bdbe fed0 1bbe
00000080: 1685 8fbe fa1a d1bf 3e14 f23e 7add acbe
00000090: 635f 323f 29dd 7dbc 2804 903f 5881 b33d
000000a0: bdb5 8abf 23c3 a9be 5e23 0bbf 8020 853d
000000b0: 0c04 9ebe aa9f 9abd 9bf2 c5be a0dc 0cbf
000000c0: 4b77 1e3e bd9e e53e b15b e33e 2325 18be
000000d0: 1b41 10bd db18 95be 553d 3bbe 3aea 15bf
000000e0: 65f6 cebe 675d 25be a528 dcbe c3a3 adbe
000000f0: 9b73 a53b 5283 9a3e e8d0 b1be 2fee ad3f
00000100: 877c bdbe 4519 533f b001 b33c 0320 0ebe
00000110: b573 c73e 6a5f 1bbe 3ec7 60be bc03 f93e
00000120: 4060 26bf f185 9fbd 9090 29be 57aa 80be
00000130: 8d64 a23e d9bd 30bf 4b32 0e3f 78e0 45bd
00000140: d0ed 8abe f558 533e 59bd c9be 76d3 0ebe
00000150: 8c2b a83d aa4b f93e 1155 2fbf 2c61 e9bd
00000160: 7480 dbbe 33f8 4dbf 418d 66be a728 7abd
00000170: bad6 83be 2681 9abf 876a 54bf 4a50 98be
00000180: 9e6e e6be e21a 05bf b763 753d a477 17be
00000190: df2f 343d 8359 87be bc8f c6be 09c1 553f
000001a0: c6be aabe ad5f b2be b76a ca3e c629 a13e
000001b0: e425 1bbf 1a3d 2c3d aae1 50be 6ce0 e8bd
000001c0: 8377 93bd ec56 babe 1b52 2fbf de8c 46bf
000001d0: 73c9 a03d 09b3 c93e ea02 12bf 0f6f 07be
000001e0: 3d2e 3bbd 81ce 133f 361a bebc d664 dbbe
000001f0: 5271 b63d d5b8 25bf 469d 2bbe 0d96 bd3e
00000200: ff63 3f3d da55 0f3e e8d7 b8bc 0652 cd3f
00000210: 7d80 8ebd 9de3 b13e d155 bbbe 2b7d 0d40
00000220: d832 8a3e 6622 073d 4ef3 0440 e913 24bf
00000230: a064 68be 08b6 ee3e c343 0d3f 523e 38bf
00000240: 6984 ad3e 4913 95bd d83d 2fbe bc82 8bbe
00000250: cab5 d73e a695 d13e b3ad 28bc 7989 c13c
00000260: 3038 92bd 7a79 913e e439 fa3b 6c29 043f
00000270: 33de a5bf ed8d d13c 5ad2 e33e 13c9 1c3e
00000280: eb79 21be 41a3 acbe fcf0 43bf f9d5 72bd
00000290: 261c a1be 9331 62bd 60a0 a53e 2e54 69be
000002a0: 93fd 8cbe f840 6ebe f0a1 e73f 7011 b73f
000002b0: 018f 2ebd 8b3c 043f 6600 f93f 8e2c 7c3e
000002c0: 411e 523c 89bc af3e bae3 283f 70f5 b83d
000002d0: 6de1 4a3d d825 08be eb3d 7f3e 5ad2 a13f
000002e0: 9f47 86be 3a1c af3b 304b 233f b598 ef3e
000002f0: 77fb d23d ccf2 84be 271c c7bd c5ee a93f
00000300: f9f1 c2be f928 163e d184 1fbf 0553 a63d
00000310: a0a2 1abf 3a26 383e 24fe 503e f07b 033e
00000320: 41f4 1f3f a936 be3e 46ca 7bbd 5d14 1b3e
00000330: 324c 42be 13b5 32be 400b 6a3e 3818 8fbd
00000340: c279 23be 3353 fabc 8225 4bbf d0d3 123e
00000350: b365 a6be f690 273e 5a0c a1be 8381 d0bf
00000360: e5ef 18bf 7065 a23f 8468 2d40 492d 933e
00000370: e226 82be e934 a93f 1aac 10bd 502c ea3e
00000380: f58e 2d3f 9e01 083f c20c 35bf ce8f 63bd
00000390: 3c46 f13b 662c 9fbe 3757 443e 1d60 9bbe
000003a0: 6226 2e3e d745 cb3d 8146 cf3e 3316 043f
000003b0: 2e9c 3040 37bf 143f d930 963e c243 be3e
000003c0: a45e 293d be9c b5be 4420 873e 2fff c03f
000003d0: e607 bd3e cda6 a13e 6b81 0f3f eaa3 f63c
000003e0: b5bb 8abe 69ba 7d3d e9ec 8d3e b4b1 d93d
000003f0: 5b72 a6bf 11da 343e 3cc7 28bb 5076 b93e
-0.10185265 -0.18108477 0.10527766 -0.3404646 -0.1435953 0.044740397 -0.23607238 -0.09339008
0.100534216 -0.097236715 -0.6401789 0.14314975 -0.3326325 -0.29174483 -0.22347732 -0.84942716
-0.057652365 -0.29518965 0.0038312234 -0.09114091 -0.14376125 0.47042182 -0.16379808 -0.22357403
0.1491302 -0.10408088 -0.24677278 -0.3658682 0.37913072 0.060589314 -0.37010488 -0.15216443
-0.28031224 -1.6336358 0.4728107 -0.33762723 0.696768 -0.015494623 1.1251268 0.08764905
-1.0836712 -0.3315669 -0.5435084 0.065003395 -0.30862463 -0.07549985 -0.38661656 -0.5502415
0.15475194 0.4484767 0.44405892 -0.14857917 -0.03521834 -0.29120526 -0.18285115 -0.58560526
-0.4042236 -0.16148911 -0.4299976 -0.33914003 0.0050491816 0.30178314 -0.34729695 1.3588313
-0.3700907 0.82460433 0.02185139 -0.13879399 0.38955465 -0.15173116 -0.21951005 0.48635662
-0.64990616 -0.07789219 -0.16559052 -0.2512996 0.3171734 -0.69039685 0.5554549 -0.048309773
-0.27134562 0.20639403 -0.39402273 -0.13947853 0.08211431 0.4869054 -0.68489176 -0.11395487
-0.4287144 -0.80456847 -0.22514822 -0.061073925 -0.2574976 -1.2070663 -0.8297505 -0.29748756
-0.4500627 -0.51994145 0.05990955 -0.14791733 0.043990966 -0.2643548 -0.38781536 0.83497673
-0.33348674 -0.3483862 0.39534542 0.31477183 -0.6060469 0.04205046 -0.20398584 -0.1137093
-0.072005294 -0.3639444 -0.6848466 -0.77558696 0.078509234 0.39394405 -0.57035697 -0.13225959
-0.045698393 0.57736975 -0.023205858 -0.4285037 0.08908333 -0.64735156 -0.16759214 0.37028542
0.046726223 0.13997594 -0.02256389 1.6040657 -0.06958101 0.34743968 -0.3658891 2.2107646
0.26991916 0.03299179 2.0773501 -0.6409288 -0.22694635 0.46623254 0.5518152 -0.71970093
0.33890083 -0.07279069 -0.17113435 -0.2724818 0.42130882 0.40934485 -0.010295319 0.023625122
-0.07139623 0.28412992 0.0076362956 0.51625705 -1.2958435 0.02558037 0.44496423 0.15311079
-0.15769164 -0.33718303 -0.7653959 -0.05928609 -0.31466788 -0.05522306 0.3234892 -0.22786018
-0.27537212 -0.23266971 1.8096294 1.4302197 -0.042616848 0.5165488 1.9453247 0.24626371
0.012824596 0.34323528 0.65972483 0.090311885 0.04953139 -0.13295686 0.24925964 1.2642319
-0.26226518 0.005343941 0.637866 0.46796194 0.10301869 -0.2596649 -0.097221665 1.3275992
-0.38075235 0.14664067 -0.62312037 0.081213035 -0.60404396 0.17983332 0.20409447 0.12840247
0.62482077 0.37151077 -0.0614722 0.15144487 -0.18974379 -0.17451887 0.22855854 -0.06987041
-0.15964416 -0.03055725 -0.7935411 0.14338613 -0.32499465 0.16363892 -0.31454736 -1.6289524
-0.5974105 1.2687206 2.7095041 0.28745487 -0.2542029 1.3219272 -0.03532038 0.45736933
0.6779626 0.5312747 -0.7072259 -0.055557065 0.007363109 -0.3108856 0.19173895 -0.30346766
0.1700683 0.0992543 0.40483478 0.51596373 2.7595325 0.5810427 0.29334143 0.3716107
0.041350022 -0.35471147 0.26391804 1.5077876 0.3692009 0.3157257 0.5605685 0.030107457
-0.27096334 0.061945353 0.2771981 0.10629597 -1.3003649 0.1766131 -0.0025753519 0.36223078

action_layer.bias f4 [4]
00000000: 00c6 acbe 036b 053f 65db fa3d 2856 3c3e
-0.33744812 0.5211641 0.122488774 0.18392241

value_layer.weight f4 [1, 128]
00000000: 681a a23c bac0 a43d 6153 a8bc 1d9a 313e
00000010: dc05 15bc 80fb 343d f5df 823d 631a d23e
00000020: db13 c03d bb01 513e 3527 5fbb 4dce 953c
00000030: 8738 343d 50f9 6ebd 959c 143e e876 ccbe
00000040: df95 873e 3217 a3bd 930d a63d 59d6 f03d
00000050: 4aa6 0d3e 98b1 1aba 8e76 b7bb a442 ec3d
00000060: 3498 173d 9503 adbc 0b01 18bd 8a5b 553e
00000070: aef6 923e aa32 8a3e 84c9 fb3d edc2 0abd
00000080: a666 083d da2a 623e 2ba7 703e 75ef 63bd
00000090: 8199 b43d 61ba 043e 148e aebd b1b8 79bd
000000a0: 6e4f 563e f563 17bd 8384 ac3d b3e5 c83c
000000b0: 0466 b5bd 8f95 95bd 5d95 6cbe f37d 9b3d
000000c0: 017e 403e 4f93 323d 0b2f 8cbd cfe3 60bd
000000d0: e842 31be 4189 82be 0aed 183d 9bba a13e
000000e0: 5fd7 36bd 65e6 74bc 665d 11bc 3deb 60be
000000f0: 2e2c 2cbd 798d 6dbe 9bcd e23e b275 9a3e
00000100: 9915 043e 9614 e5bc a315 083d 274b 453d
00000110: 083c 6e3e 232a f03d 08b1 0e3d 53a0 81bd
00000120: e774 473e 86ef f33d 3161 9d3d 0349 633d
00000130: bf4f 493e b462 7fbe a80d bc3e 53e9 97bc
00000140: 0e82 383c 5aa1 8ebd b1e6 3a3a 01c7 ca3d
00000150: 400d 2cbd 66b6 0cbd 6756 503d 3b45 26be
00000160: 745a b43c 3069 803d 32bf c03d 6c01 c43d
00000170: f60d 1a3e 2912 823e 2532 ffbe 2853 113e
00000180: 9f68 5bbd 5f35 14be 7709 1fbe 9f42 c63d
00000190: 038b 8dbd ff4f 3e3e 18cf b0be be80 d53d
000001a0: 77da a0bb afb0 7a3c 6811 f03d 5bf1 c1bc
000001b0: a17e f13e 49f8 593c 1f6d cd3c 2c21 aa3d
000001c0: eef3 073e 4178 b6bc 31f4 643e 81e0 1abe
000001d0: 1953 393d 8935 ec3a da06 4ebe 0fdb 09bd
000001e0: a107 883d 686b 2b3e 7c57 7e3d 0d11 5c3e
000001f0: 04cc 543e 2167 db3d dcce 403d fdcd ab3d
0.019787982 0.08044572 -0.02054757 0.17343946 -0.009095635 0.04418516 0.06390373 0.41035756
0.09378787 0.20410816 -0.0034050469 0.018286848 0.04399922 -0.05834323 0.14512856 -0.39934468
0.2648153 -0.079634085 0.08108058 0.117596336 0.13832965 -0.00059010973 -0.0055988496 0.11536148
0.037010387 -0.021119872 -0.03711037 0.208357 0.28703827 0.2699178 0.122942954 -0.033877302
0.03330102 0.22086659 0.2350127 -0.055648286 0.08818341 0.12961723 -0.08523193 -0.06096715
0.20928738 -0.03696056 0.08423712 0.024523592 -0.088573486 -0.07303917 -0.23103853 0.07592382
0.18798067 0.043597516 -0.0684491 -0.054904755 -0.17310679 -0.2549534 0.037335433 0.3158768
-0.044638988 -0.014947508 -0.008872366 -0.21964736 -0.04203432 -0.23198499 0.4429749 0.3016792
0.12898864 -0.027963918 0.03322376 0.048167374 0.23265088 0.11726787 0.0348368 -0.063294075
0.19478188 0.1191092 0.076845534 0.05548955 0.19659327 -0.24939996 0.3672917 -0.018543875
0.011261476 -0.06964369 0.00071297126 0.09901238 -0.042004824 -0.034353636 0.05086365 -0.16237347
0.022015788 0.06270063 0.094114676 0.09570584 0.15044388 0.2540448 -0.49842945 0.14191878
-0.05356657 -0.14473484 -0.15530954 0.09680676 -0.0691128 0.18585204 -0.34533 0.10424946
-0.0049088555 0.015300914 0.1172207 -0.023674658 0.47166923 0.013303825 0.025076447 0.08307108
0.13276646 -0.022274138 0.22358777 -0.15124704 0.045245264 0.0018021326 -0.20119801 -0.033656176
0.0664208 0.16740191 0.06209515 0.2149088 0.20780951 0.1071303 0.047072276 0.083888985
