checkpoint/LunarLander_0010.pth (torch_old, 8217 bytes, 5 tensors)

input_layer.weight f4 [128, 8]
0	0x3d1a85cc	0.037725255
1	0xbe93234d	-0.2873787
2	0xbe25c266	-0.16187438
3	0xbd8bbe28	-0.06823379
4	0x3a8d9600	0.001080215
5	0xbb8a4c1e	-0.0042204997
6	0xbe5d22c6	-0.21595296
7	0x3e636d57	0.22209679
8	0x3e3033e9	0.17207302
9	0x3e695670	0.2278688
10	0xbe9ec2ee	-0.31008095
11	0x3dc16553	0.09443154
12	0x3d0bc758	0.034125656
13	0xbe20d244	-0.1570521
14	0xbdbe8a0f	-0.09303676
15	0x3de33ed6	0.110959694
16	0x3dfbc8b8	0.122941434
17	0xbe81f562	-0.25382525
18	0xbe063e65	-0.13109739
19	0x3dc9dc0c	0.09856424
20	0xbd394518	-0.04523191
21	0x3e59adaa	0.21257654
22	0xbe912b82	-0.28353506
23	0xbe982b45	-0.29720512
24	0x3e99bcb5	0.30026785
25	0x3e17a083	0.14807324
26	0x3e9ecf80	0.31017685
27	0xbd772117	-0.06033429
28	0xbe24d5ea	-0.16097227
29	0x3e07c6f2	0.13259485
30	0xbe58a366	-0.21156082
31	0x3e1c3c8f	0.15257476
32	0x3e467bf1	0.19383217
33	0xbeb4b96a	-0.3529771
34	0x3d8b9661	0.06815792
35	0x3dab47f8	0.08363336
36	0xbd5c5b49	-0.053797994
37	0xbcfd089a	-0.03088789
38	0xbe795298	-0.24347913
39	0x3e7e22cf	0.24817966
40	0xbebf07f6	-0.3731076
41	0x3e3ab9cf	0.18234943
42	0xbe8922ef	-0.26784465
43	0x3e2acd4e	0.1667988
44	0xbe7105a7	-0.23537312
45	0x3e4318c9	0.19052424
46	0xbe88738d	-0.26650658
47	0x3eb34c54	0.3501917
48	0x3e6c530a	0.23078552
49	0x3decb23a	0.115574315
50	0x3e6ed6f4	0.23324186
51	0xbe4aeeb5	-0.19817622
52	0xbe97ee29	-0.2967389
53	0x3e30ea70	0.17276931
54	0xbe6d5a7a	-0.23179045
55	0xbe675990	-0.22592759
56	0x3ec436bb	0.38323006
57	0xbebe2889	-0.371403
58	0x3e3cfb40	0.1845522
59	0xbe43f480	-0.19136238
60	0x3e60e8bf	0.21963786
61	0x3e3dfdf0	0.185539
62	0x3cf003fc	0.029298775
63	0x3cfd4872	0.030918334
64	0x3e600618	0.21877325
65	0xbe0c8dbd	-0.13725944
66	0xbc99078b	-0.018680355
67	0x3e2d4b87	0.16923343
68	0xbb262748	-0.0025353003
69	0xbe68c120	-0.22729921
70	0x3cf27b34	0.029599763
71	0x3dfb5f43	0.12274029
72	0x3e6cabdd	0.23112436
73	0x3caf8e26	0.021430086
74	0x3eb5ffb6	0.35546654
75	0x3e26eef0	0.16302085
76	0xbed5fe92	-0.41795784
77	0x3d8deed0	0.069303155
78	0x3d2900c8	0.04126051
79	0x3e694bf5	0.22782882
80	0x3ca89fd2	0.02058402
81	0x3e870f7c	0.26379
82	0xbe5a6829	-0.21328796
83	0x3e3a765c	0.18209213
84	0x3e90186c	0.28143632
85	0x3e26b2da	0.16279164
86	0xbdf8f974	-0.121569544
87	0x3e3289e6	0.17435417
88	0xbe81b71e	-0.2533502
89	0x3eb108a5	0.34576908
90	0xbe16b9d4	-0.14719325
91	0xbea00bb5	-0.31258932
92	0x3e08da62	0.13364556
93	0x3e369cc5	0.1783324
94	0xbe3226ba	-0.17397586
95	0x3dd5a1b1	0.10431231
96	0xbc8a4e55	-0.016883055
97	0xbe530dda	-0.20610753
98	0xbdc4d03c	-0.0961003
99	0x3e8363d9	0.25662115
100	0xbd9d315d	-0.07675431
101	0xbe828ea8	-0.25499463
102	0xbd3dab00	-0.046305656
103	0x3e8f9723	0.28044996
104	0xbec259fe	-0.37959284
105	0xbe810038	-0.2519548
106	0x3e560573	0.20900516
107	0xbe909391	-0.28237584
108	0x3d8e0bc4	0.06935838
109	0xbcef77b8	-0.029231891
110	0x3eccffac	0.40038812
111	0x3eabd8e4	0.33563912
112	0xbe1aabbc	-0.15104574
113	0xbd8ec952	-0.069719926
114	0xbc85affe	-0.016319271
115	0x3e481a02	0.19541171
116	0x3e36a93b	0.17837994
117	0xbe3fec5f	-0.18742512
118	0xbeafa635	-0.34306493
119	0x3e936375	0.28786817
120	0xbcc31c50	-0.023817211
121	0x3dc5650a	0.09638412
122	0xbe28285e	-0.16421649
123	0xbda71106	-0.08157544
124	0x3ce93c80	0.028471231
125	0x3cd26a9f	0.025685607
126	0xbe2c770b	-0.16842286
127	0x3e95084a	0.29107887
128	0x3eae1bcd	0.34005585
129	0xbe1f1055	-0.15533574
130	0x3ea8a069	0.32934883
131	0x3ebc3e25	0.36766163
132	0xba0954f0	-0.0005238792
133	0xbe40ef6c	-0.18841332
134	0xbe03afd0	-0.12860036
135	0xbe6a4fb1	-0.22881962
136	0x3e41bcbd	0.18919654
137	0xbe542719	-0.2071804
138	0xbd81363e	-0.06309174
139	0xbe12ca98	-0.14335096
140	0xbe00d1a5	-0.12579973
141	0x3e8b3594	0.27189314
142	0x3e654510	0.22389627
143	0x3d047c2f	0.032344993
144	0xbd33bb42	-0.043879755
145	0x3e556e0f	0.20842765
146	0x3ea9dfe1	0.3317862
147	0x3e020f86	0.12701234
148	0xbde478e0	-0.111558676
149	0xbe850ba9	-0.25985458
150	0x3dd393f8	0.10330957
151	0xbde51409	-0.11185462
152	0xbe866b53	-0.26253757
153	0x3cafd5f7	0.021464331
154	0x3e9e5f29	0.30931976
155	0x3dcf7578	0.10129827
156	0xbea875fd	-0.32902518
157	0xbea5d283	-0.3238717
158	0xbe26ca3c	-0.16288084
159	0x3e54d093	0.2078269
160	0x3dbccf1a	0.09219189
161	0xbebb1656	-0.36540478
162	0x3e8f31ca	0.27967674
163	0x3e856c9e	0.2605943
164	0x3e748cd4	0.23881847
165	0xbe9f01fa	-0.31056195
166	0x3e4e9abd	0.20176215
167	0x3e1e4092	0.15454319
168	0xbc5fe75c	-0.013666
169	0xbd75fe42	-0.060056932
170	0xbebb2557	-0.36551926
171	0x3e949e4b	0.29027018
172	0x3d54a8bc	0.05191873
173	0x3e9b4b95	0.30331102
174	0xbe9bdbc5	-0.30441108
175	0x3d3b5a90	0.045740664
176	0x3ee6d4f4	0.45084345
177	0x3e7ca986	0.24674043
178	0xbe84ff0b	-0.25975832
179	0xbdc83e9e	-0.09777568
180	0xbdc0f7c8	-0.094222605
181	0xbeaf3229	-0.34217957
182	0x3e809958	0.25116992
183	0xbea52038	-0.32251143
184	0xbe797e48	-0.24364579
185	0x3da9396f	0.08262908
186	0x3e991f8d	0.29906884
187	0xbea792d6	-0.32729214
188	0xbda0ca83	-0.07851126
189	0x3e0ee9f8	0.1395644
190	0xbe836a07	-0.2566683
191	0xbe80a03a	-0.25122243
192	0x3e3327e9	0.17495693
193	0xbdabb4d0	-0.083840966
194	0xbd9e07f4	-0.07716361
195	0x3e86283d	0.26202574
196	0xbc059d47	-0.008155174
197	0x3e89392e	0.26801437
198	0xbe1eb970	-0.15500426
199	0x3e27a1ea	0.16370359
200	0x3cde9626	0.027171206
201	0x3e8637fe	0.26214594
202	0xbb6ca546	-0.0036109253
203	0xbe509145	-0.20367916
204	0x3e42cdbd	0.19023795
205	0x3e8d7642	0.27629286
206	0xbe53ed14	-0.20695907
207	0xbe91bae5	-0.28462902
208	0xbe54267a	-0.20717803
209	0x3e14f43b	0.14546292
210	0xbe9bc826	-0.3042614
211	0xb91af110	-0.00014776387
212	0xbea7a9e6	-0.3274681
213	0x3d278ddf	0.040906783
214	0x3e092054	0.13391238
215	0xbe83fc0c	-0.25778234
216	0xbe4c5d07	-0.19957362
217	0xbe8984c2	-0.268591
218	0x3e3a38a6	0.18185672
219	0x3e85dc87	0.26144812
220	0x3dd0bfbc	0.101928204
221	0x3e66a156	0.22522482
222	0x3dde162c	0.10844073
223	0xbe8eb932	-0.27875668
224	0xbe2d1f8e	-0.16906568
225	0xbd34fe87	-0.04418805
226	0x3e833e94	0.2563368
227	0x3e8f1c1b	0.2795113
228	0xbeb17723	-0.34661207
229	0x3e904114	0.2817465
230	0x3cdead26	0.027182173
231	0x3dd808db	0.10548564
232	0x3e943c80	0.28952408
233	0x3e0e2d50	0.13884473
234	0xbecc6168	-0.39918065
235	0x3e69b44f	0.22822689
236	0xbe9d2ecf	-0.30699775
237	0x3d59c005	0.05316164
238	0xbca556d0	-0.020182997
239	0xbe77b0a6	-0.2418848
240	0x3dfefc81	0.12450505
241	0xbed81f1e	-0.4221124
242	0x3e5261af	0.20545076
243	0xbd0fb20f	-0.03508192
244	0xbe67e1de	-0.22644755
245	0x3cf2468b	0.029574653
246	0xbe93529e	-0.2877397
247	0x3d62392e	0.055230312
248	0x3c984412	0.018587146
249	0x3d17fa96	0.03710421
250	0xbe07e75d	-0.13271852
251	0x3e0c947d	0.13728519
252	0xbe3b3ebb	-0.18285649
253	0x3e9ed181	0.31019214
254	0x3e9bc021	0.3042002
255	0x3e2cb751	0.16866805

input_layer.bias f4 [128]
0	0xbea480a3	-0.32129392
1	0xbe270876	-0.16311821
2	0xbea0e131	-0.31421807
3	0x3e0340dd	0.12817712
4	0xbec94771	-0.39312318
5	0xbea5b26e	-0.32362694
6	0x3cad44bb	0.021150937
7	0x3e93bd0b	0.28855166
8	0xbcb752a7	-0.022378279
9	0xbd0b582f	-0.034019645
10	0xbea1c1ba	-0.31593114
11	0x3ec60819	0.38678053
12	0xbe7a864a	-0.2446529
13	0x3e020888	0.12698567
14	0xbd0ec41c	-0.034854993
15	0x3ce85e61	0.028365316
16	0x3e9b12e8	0.30287862
17	0x3dd45d67	0.103693776
18	0xbe7471ca	-0.23871532
19	0xbe70f2e8	-0.23530161
20	0xbe89599c	-0.2682618
21	0xbe5f1698	-0.21785963
22	0x3e92dfcb	0.28686365
23	0xbe80cc43	-0.2515584
24	0x3e093418	0.13398778
25	0xbe00e0c0	-0.12585735
26	0x3e1b08c3	0.15140061
27	0xbeb3d14b	-0.35120615
28	0x3de3266f	0.11091315
29	0xbe583d65	-0.2111717
30	0xbebcc600	-0.36869812
31	0xbea3101e	-0.31848234
32	0xbc86d3c8	-0.016458407
33	0x3e87d923	0.2653285
34	0x3b19abe0	0.0023448393
35	0x3e8327e8	0.25616384
36	0x3ec291b0	0.38001776
37	0xbecb279d	-0.3967866
38	0x3ea33a9f	0.31880662
39	0x3d511438	0.051044673
40	0x3e9d7349	0.30752018
41	0xbe8791ff	-0.26478574
42	0xbdb21af9	-0.08696551
43	0x3e11b716	0.14229998
44	0xbeb8216a	-0.35962993
45	0xbd772740	-0.060340166
46	0x3e3459cd	0.17612381
47	0xbe8ff165	-0.28113857
48	0xbd9c1c62	-0.07622601
49	0x3daa3eab	0.08312734
50	0xbdd12029	-0.10211212
51	0xbe65962c	-0.22420567
52	0xbec4a048	-0.38403535
53	0xbe543a9f	-0.20725487
54	0x3c6938ec	0.014234763
55	0x3d5ede9e	0.054411523
56	0xbe7d0906	-0.24710473
57	0x3e16afd0	0.14715505
58	0x3e9766ae	0.29570526
59	0x3d9355e0	0.07194114
60	0xbe888875	-0.26666608
61	0x3da296e5	0.07938937
62	0x3e3eb4d0	0.18623662
63	0xbd7523c0	-0.059848547
64	0x3df95b48	0.12175614
65	0x3eb90474	0.3613621
66	0x3dca005a	0.09863348
67	0x3e72e5cf	0.23720478
68	0x3e69ea9a	0.228434
69	0xbe202918	-0.15640676
70	0xbe804aae	-0.25056976
71	0xbd992de2	-0.074794546
72	0x3d293902	0.041314133
73	0x3e492d45	0.19646175
74	0x3e26a13f	0.16272448
75	0x3e97da33	0.2965866
76	0x3e865fe1	0.26245025
77	0x3d126e95	0.03574999
78	0xbe5b4e3f	-0.21416567
79	0xbe7f115f	-0.2490897
80	0x3dd2a3c1	0.1028514
81	0x3e16b7b7	0.14718519
82	0x3e5a7864	0.21334988
83	0x3e4f524a	0.20246235
84	0xbdf59731	-0.11991728
85	0x3e2b4d73	0.16728763
86	0x3d38d90a	0.04512886
87	0xbe890ee0	-0.2676916
88	0xbecce248	-0.4001639
89	0x3ea8c025	0.32959095
90	0x3df626d0	0.12019122
91	0xbddf7a80	-0.10912037
92	0xbe90b97c	-0.28266513
93	0x3e7385a1	0.23781444
94	0xbe62e916	-0.22159228
95	0x3dab0d63	0.08352163
96	0x3d9ad88a	0.07560833
97	0xbebee7be	-0.3728618
98	0x3d14b4fe	0.03630542
99	0xbea55536	-0.32291573
100	0x3e2572ea	0.16157117
101	0x3e8563d2	0.2605272
102	0x3db2f2c8	0.08737713
103	0x3eb23c0b	0.34811434
104	0xbe0e454c	-0.13893622
105	0x3ebd0690	0.3691907
106	0xbe9cb7f1	-0.30609086
107	0xbea5c68f	-0.3237805
108	0x3d97cde3	0.07412317
109	0xbeffe401	-0.4997864
110	0x3e0592ce	0.13044283
111	0xbe42a186	-0.19006929
112	0xbdb10469	-0.08643419
113	0xbe247532	-0.16060331
114	0x3d9a0fa5	0.07522515
115	0x3e0bdb98	0.13657987
116	0xbe0e5202	-0.13898471
117	0x3d5a4d27	0.053296234
118	0x3ea44a7a	0.3208807
119	0xbd9686eb	-0.07349952
120	0x3eb68727	0.35649988
121	0xbd94074c	-0.07227954
122	0xbd870c10	-0.065940976
123	0x3e66066a	0.22463384
124	0xbc220417	-0.00988867
125	0xbd870ae2	-0.065938726
126	0xbdcce319	-0.10004253
127	0xbebf9472	-0.37417942

action_layer.weight f4 [4, 128]
0	0xbd8ea64f	-0.069653146
1	0xbd2d8647	-0.042364385
2	0x3db32a1d	0.08748267
3	0x3d970122	0.07373263
4	0xbd800c6d	-0.0625237
5	0x3da1c82c	0.07899508
6	0xbd36b5b3	-0.044606876
7	0xbdd07b37	-0.10179751
8	0x3dae9038	0.08523601
9	0xbc477ad1	-0.012175278
10	0xbd4ec215	-0.05047806
11	0xbe08f786	-0.13375673
12	0x3c357846	0.011076039
13	0xbe070bf2	-0.1318815
14	0x3c8822e3	0.016618198
15	0xbe27820b	-0.16358201
16	0x3d8431ac	0.06454787
17	0xbe328f3e	-0.17437455
18	0x3d554336	0.05206605
19	0x3ce8d89a	0.028423596
20	0x3c103cfb	0.008803601
21	0xbd929226	-0.07156782
22	0xbdd2dcdf	-0.10296034
23	0xbe15c51a	-0.1462597
24	0x3e06b39b	0.13154452
25	0xbd1ed938	-0.038781375
26	0xbe287e06	-0.16454324
27	0xbd3abf9f	-0.0455929
28	0x3c4135e1	0.011792631
29	0xbd99728f	-0.074925534
30	0x3c074a07	0.008257396
31	0xbd2bef76	-0.041976415
32	0xbd02925b	-0.031877857
33	0xbe1180f5	-0.1420935
34	0x3d053877	0.032524552
35	0xbd6e64d7	-0.058201637
36	0xbdab4ec8	-0.08364636
37	0xbd50fcba	-0.05102227
38	0x3d146429	0.036228333
39	0xbc4cb366	-0.012493944
40	0x3b7f7dec	0.0038984967
41	0x3e27c909	0.16385283
42	0xbb39499c	-0.0028272634
43	0xbdf7db00	-0.12102318
44	0xbda92b11	-0.082601674
45	0xbaca0992	-0.0015414229
46	0x3cfc64c9	0.030809777
47	0x3c0d636a	0.008629659
48	0x3ddfb153	0.10922494
49	0xbdde1985	-0.10844711
50	0xbde7a266	-0.11310272
51	0x3d9d9509	0.07694442
52	0x3b0364b0	0.0020049028
53	0x3d60a4f8	0.054844826
54	0xbda459a4	-0.0802491
55	0xbd87dccf	-0.06633913
56	0x3c9dde19	0.019270943
57	0x3bf8e3ee	0.0075955307
58	0xbd93c0d9	-0.07214517
59	0xbb271bda	-0.0025498779
60	0x3d26fcbe	0.040768377
61	0x3db2b185	0.087252654
62	0x3ddc3709	0.107526846
63	0xbb441104	-0.0029917369
64	0xbd7fce40	-0.062452555
65	0xbda807f0	-0.08204639
66	0xb9744f40	-0.00023299176
67	0xbe1374ce	-0.14400026
68	0xbded4e65	-0.11587218
69	0xbdf0e21a	-0.117618755
70	0xbe029091	-0.1275046
71	0xbd08d2ca	-0.03340415
72	0xbe2ba6cd	-0.16762848
73	0xbd8227ea	-0.06355269
74	0xbc7ea59d	-0.015542415
75	0xbda9b5f9	-0.08286662
76	0x3d7ab583	0.06120826
77	0xbe09898f	-0.1343138
78	0x3e149b07	0.14512263
79	0x3d9283c4	0.071540385
80	0xbe270bcb	-0.16313092
81	0x3caebf32	0.021331403
82	0xbdaee397	-0.08539503
83	0x3c1e87a0	0.00967589
84	0x3e00a3ec	0.12562531
85	0xbd6e7a61	-0.05822218
86	0x3b8de03d	0.00432971
87	0xbe0486b6	-0.12942013
88	0xbd8f9fe5	-0.07012919
89	0xbdffb145	-0.12484983
90	0xbd4364f5	-0.047703702
91	0xbe1d291b	-0.15347712
92	0xbdcbbb97	-0.09947889
93	0x3d8f9d90	0.070124745
94	0x3b975d00	0.0046192408
95	0xbe3cc172	-0.18433169
96	0xbd9a5067	-0.07534867
97	0xbd49d1a3	-0.04927219
98	0x3e0eaf20	0.13933992
99	0xbc9d5aae	-0.019208279
100	0xbde3e313	-0.11127295
101	0xbdc1a442	-0.09455158
102	0xbde713e6	-0.11283092
103	0xbddba30e	-0.107244596
104	0xbe1bb5cc	-0.15206069
105	0xbe476d07	-0.19475184
106	0xbda5f662	-0.081036344
107	0x3d9c534f	0.07633077
108	0xbc7be15e	-0.015373556
109	0x3df2b8fb	0.118516885
110	0xbd229fdb	-0.03970323
111	0x3d3bef97	0.045882788
112	0xbc39976c	-0.011327606
113	0xbe0a0076	-0.13476738
114	0xbe723fa2	-0.23657086
115	0xbe342522	-0.1759229
116	0x3d6764a8	0.056492478
117	0x3b8dac53	0.004323521
118	0xbe60b5f8	-0.21944416
119	0xbcd7734a	-0.026300091
120	0xbdffa008	-0.124816954
121	0x3d3e010e	0.046387725
122	0xbd6962d0	-0.056979
123	0xbdd0c077	-0.1019296
124	0xbd51f8da	-0.051262714
125	0xbe149e36	-0.14513478
126	0xbd4818bc	-0.048851714
127	0x3c8d986c	0.017284594
128	0xbc9765bc	-0.018481128
129	0xbdf3dfb4	-0.11907902
130	0xbad970c0	-0.0016589388
131	0xbdad9dfa	-0.08477397
132	0x3b9f6010	0.0048637465
133	0xbd218f5b	-0.039443355
134	0xbda85b65	-0.08220557
135	0xbdede197	-0.116152935
136	0xbdad1ac5	-0.084523715
137	0xbd848640	-0.06470919
138	0x3bed3f82	0.0072402367
139	0xbd533cc7	-0.051571634
140	0xbb98acfa	-0.0046592923
141	0xbdb5e04d	-0.088806726
142	0xbc864bee	-0.016393628
143	0xbdcdc6cc	-0.10047683
144	0xbe1dcef3	-0.15410976
145	0xbd90d9a8	-0.07072765
146	0xbe2ee624	-0.17079979
147	0xbdefd006	-0.11709599
148	0x3d08c74f	0.0333932
149	0x3dbb2d73	0.09139528
150	0xbdb0a694	-0.08625522
151	0xbd25cfd9	-0.040481422
152	0xbe187d9b	-0.14891665
153	0x3bf89def	0.0075871865
154	0x3c81db1e	0.015851554
155	0x3c0ca570	0.008584365
156	0xbdde391c	-0.108507365
157	0xbb137418	-0.0022499617
158	0xbc97c284	-0.01852537
159	0x3d03d952	0.032189675
160	0xbe44ef1a	-0.19231835
161	0xbd2e9ecd	-0.042631913
162	0xbdda5504	-0.10660747
163	0xbd35ae11	-0.044355456
164	0xbd86fe71	-0.065914996
165	0xbd0f355f	-0.034963008
166	0xbd5d3ccd	-0.054013062
167	0x3d2509e8	0.04029265
168	0x3dcd533c	0.10025641
169	0xbd8f15ff	-0.06986617
170	0x3d48a680	0.04898691
171	0xbdfd3e8c	-0.123654455
172	0xbe0d5a17	-0.13803898
173	0xbcd7df4d	-0.026351595
174	0xbe1b3599	-0.15157165
175	0xbdc049f7	-0.09389108
176	0x3b55e286	0.003263624
177	0xbde9bb8a	-0.11412723
178	0xbca964b4	-0.020677902
179	0xba58b980	-0.0008267388
180	0xbddf2030	-0.10894811
181	0xbd88a58a	-0.06672199
182	0xbd97b461	-0.074074514
183	0xbe4a9fec	-0.19787568
184	0xbd4c5d8a	-0.049893893
185	0xbd316b44	-0.043315187
186	0xbd95dd80	-0.073176384
187	0xbcc4c0f2	-0.024017785
188	0x3dc462cf	0.09589159
189	0xbc1c72b6	-0.009548834
190	0xbc414f51	-0.011798696
191	0x3d8a9f1e	0.067686304
192	0xbe139456	-0.14412054
193	0xbd852c45	-0.06502584
194	0xbdb71260	-0.08939052
195	0xbe03116a	-0.12799612
196	0xbdbd3cfb	-0.09240147
197	0x3d012685	0.031530876
198	0xbdb31bff	-0.08745574
199	0xbe234b79	-0.1594676
200	0x3dabb29c	0.083836764
201	0xbdcffe73	-0.10155954
202	0xbe024a30	-0.12723613
203	0xbd895a91	-0.06706727
204	0xbc8f8cc7	-0.017523183
205	0xbe0997c4	-0.134368
206	0xbc744101	-0.014908076
207	0xbdfbfa74	-0.123036295
208	0xbdedcb81	-0.11611081
209	0xbe06005d	-0.13086076
210	0xbe11b1d6	-0.14227995
211	0xbd56c540	-0.052434206
212	0xbe537b91	-0.20652606
213	0xbde3b448	-0.1111837
214	0xbe18a026	-0.14904842
215	0xbdab1043	-0.08352711
216	0xbc94e0b4	-0.018173553
217	0x3dfb2223	0.122623704
218	0x3df9544d	0.12174282
219	0xbcf372ba	-0.029717792
220	0xbdf2669e	-0.11835979
221	0xbda74890	-0.08168137
222	0x3c375030	0.011188552
223	0x3d9e5ca1	0.07732511
224	0xbe3e9cb0	-0.18614459
225	0x3d91b235	0.071140684
226	0xbdd2dcf4	-0.1029605
227	0xbd3d83e8	-0.046268374
228	0xbb6c46de	-0.0036052982
229	0xbdfee1ed	-0.12445436
230	0xbd6baa06	-0.057535194
231	0xbdad52f8	-0.08463091
232	0xbd684f46	-0.056716226
233	0xbda404ad	-0.08008704
234	0xbcbd19c8	-0.023083583
235	0xbd5d2e01	-0.05399895
236	0xbe105982	-0.14096645
237	0x3cedaf83	0.029014355
238	0xbd9d038a	-0.07666691
239	0xbc8b1f46	-0.016982686
240	0xbcc88d1f	-0.024481354
241	0xbe4aacce	-0.19792482
242	0xbd52368f	-0.051321562
243	0xbd3a4e16	-0.045484625
244	0xbdef891f	-0.11696076
245	0x3d46f739	0.048575614
246	0xbdb8c2ea	-0.09021552
247	0xbe1a672e	-0.15078422
248	0xbe1c08d6	-0.15237746
249	0xbc893c8c	-0.016752504
250	0x3c954b14	0.018224277
251	0xbda21e27	-0.07915907
252	0xbe18bbe8	-0.1491543
253	0x3d0cf644	0.034414545
254	0xbd9400bf	-0.07226705
255	0x3de411da	0.111362174

action_layer.bias f4 [4]
0	0xbd8a8839	-0.06764264
1	0xbc0b31c2	-0.00849575
2	0x3d5210de	0.051285617
3	0x3dfadb32	0.122488394

value_layer.weight f4 [1, 128]
0	0xbc14bda9	-0.009078422
1	0x3dbdf592	0.092753544
2	0x3d8576cb	0.065167986
3	0x3e0d661b	0.13808481
4	0x3c14a7fe	0.009073256
5	0x3ceb0111	0.028687032
6	0x3d39baca	0.04534415
7	0xbd1277a1	-0.03575862
8	0xbc9d0007	-0.019165052
9	0x3df31eee	0.11871134
10	0x3d3d264b	0.046179097
11	0xbd9ab77e	-0.075545296
12	0x3c070947	0.008241958
13	0xbd22c562	-0.03973902
14	0xbca559ff	-0.020184515
15	0xbd8a6154	-0.06756845
16	0xbce5ddf2	-0.028059933
17	0x3b625ec4	0.0034541348
18	0xbc166ede	-0.009181706
19	0x3d63d5a4	0.055623665
20	0xbd044f56	-0.032302223
21	0x3da1030c	0.07861909
22	0xbbbc84c6	-0.0057531325
23	0x3dab14f6	0.08353607
24	0x3c2d5c6e	0.010581119
25	0x3d3f8c73	0.046764802
26	0x3d361e8d	0.04446273
27	0x3c57b4c8	0.01316566
28	0x3dc4033a	0.09570928
29	0x3decaeba	0.11556764
30	0x3d66109a	0.056168176
31	0xbde956ba	-0.11393495
32	0x3d77c0fc	0.06048678
33	0xbda559b8	-0.08073753
34	0x3d681b57	0.0566667
35	0xbca520c0	-0.020157218
36	0xbd7b96b5	-0.061423022
37	0xbd15e813	-0.036598276
38	0xbdc75c98	-0.09734458
39	0x3c1bf76a	0.009519437
40	0xbd8fca25	-0.07020978
41	0xbe0bf604	-0.13668066
42	0x3d4f68d8	0.050637096
43	0xbd88091a	-0.06642361
44	0x3d98c02c	0.07458529
45	0x3b15d892	0.0022864682
46	0xbd31aebf	-0.04337954
47	0x3d345da6	0.044034623
48	0xbc15ab95	-0.009135147
49	0x3d1bdcf9	0.038052533
50	0x3d27830d	0.040896464
51	0x3d74d056	0.059768997
52	0x3d132173	0.03592057
53	0xbd1e97c0	-0.03871894
54	0xbd1195c6	-0.035543226
55	0x3e0493f1	0.1294706
56	0x3d70f339	0.058825705
57	0x3db25266	0.087071225
58	0xbcba5d59	-0.02274959
59	0x3da8cbfe	0.082420334
60	0x3bcb2ff5	0.0062007853
61	0x3cbfe2ca	0.023423571
62	0xbd8c86da	-0.068616584
63	0xbc20e091	-0.009819166
64	0x3d827f70	0.06371963
65	0xbdc3afaf	-0.09554993
66	0xbc819cdb	-0.015821865
67	0x3db33968	0.08751184
68	0x3d68a3cd	0.056796838
69	0xbd4c48ea	-0.049874224
70	0x3debe191	0.11517633
71	0x3d654495	0.055973608
72	0x3e2324dc	0.1593203
73	0x3cd93cf3	0.02651832
74	0xbd021d3a	-0.031766154
75	0x3d02c215	0.031923372
76	0x3c74b748	0.014936276
77	0xbd93be18	-0.07213992
78	0xbd8ff115	-0.070284046
79	0xbd9d87cb	-0.07691916
80	0x3bfe2868	0.0077562816
81	0x3d2087f6	0.039192162
82	0x3bcd2d32	0.006261491
83	0xbd8dc50b	-0.069223486
84	0x3daf685e	0.08564828
85	0x3d04059a	0.032231905
86	0x3d25ee5c	0.04051052
87	0xbd7ebf99	-0.06219444
88	0xba83d97e	-0.0010059325
89	0x3dab9339	0.0837769
90	0x3dd43e65	0.10363463
91	0x3bd49136	0.006487037
92	0x3d94abc9	0.07259328
93	0x3d6c3fbb	0.057677966
94	0xbd9d44ba	-0.07679124
95	0xbd750fd4	-0.059829548
96	0xbca16428	-0.019701079
97	0xbcdec8f0	-0.027195424
98	0xbd9835de	-0.07432149
99	0xbc3d7f03	-0.0115659265
100	0xbd6bc4f1	-0.057560865
101	0xbbba5aac	-0.0056870785
102	0xbd780dc6	-0.06056001
103	0xbd3c5152	-0.04597599
104	0xbd7a89e4	-0.06116666
105	0xbd130340	-0.03589177
106	0xbdb0bb23	-0.086294435
107	0xbb25fe40	-0.0025328547
108	0x3d4c2102	0.049836166
109	0xbd1313dd	-0.035907615
110	0xbd974158	-0.0738551
111	0x3e2883cc	0.16456527
112	0xbcca1b0f	-0.024671106
113	0x3cd70de4	0.02625174
114	0x3cf4914c	0.02985444
115	0x3cc51cda	0.024061609
116	0x3d3a3ecf	0.045470055
117	0xbba0124c	-0.0048849937
118	0xbd7495b9	-0.0597131
119	0x3d002bc5	0.031291742
120	0xbd185403	-0.037189495
121	0x3c9bbf28	0.019012049
122	0x3d8d0bf4	0.068870455
123	0x3d5e1c7c	0.054226384
124	0x3e78dba4	0.24302536
125	0x3af25dbc	0.001849107
126	0xbcf9e894	-0.03050641
127	0xbc8a06f0	-0.016849011
