checkpoint/LunarLander_3500.pth (torch_old, 8217 bytes, 5 tensors)

input_layer.weight f4 [128, 8]
000000 4e 48 a5 3d 5e 1d 1a bf 4c 3e 31 be 4c 8a 45 3e
       0.08070432 -0.6020106 -0.1730892 0.19291037
000010 85 bb 6e bd a5 5d df 3c b8 3d 83 be 88 95 4e 3e
       -0.0582843 0.027266333 -0.25633025 0.20174229
000020 0e fa 14 3c 23 ac 27 bd b4 5d 91 be 9c 2d c1 3c
       0.009092821 -0.040935647 -0.28391802 0.023581319
000030 ef e0 21 bd 98 8d 8d 3d 51 f9 97 be b3 aa 7d be
       -0.039521154 0.069117725 -0.296824 -0.24772148
000040 1f 9a 8d 3e a8 bb d5 be 26 18 7f 3c 32 66 82 3e
       0.27656648 -0.41744733 0.015569722 0.25468594
000050 87 a5 3f be d7 e9 9e 3d 82 2b 91 be 84 96 ed bd
       -0.18715487 0.07759445 -0.28353506 -0.11600974
000060 29 05 8c 3f 82 3f ca be 14 db 0b 3f 5c 46 9a bf
       1.0939075 -0.39501578 0.5463116 -1.2052722
000070 59 7d fa bf 84 0a 98 bf 84 5a 8e bf ac a6 a3 bf
       -1.9569503 -1.1878209 -1.1121373 -1.2785239
000080 fe ea d2 3e e7 b5 10 bf 56 7a c2 3d 28 42 c8 3e
       0.4119491 -0.5652756 0.0949599 0.39112973
000090 20 27 a4 3d 67 7b b0 bd dd e3 e1 be 89 cc 8b 3d
       0.08015275 -0.08617287 -0.44119158 0.06826121
0000a0 73 b7 a6 bd f5 94 cc bd 48 8f f3 bd b0 45 f0 3c
       -0.08140459 -0.09989349 -0.11892563 0.029330105
0000b0 3a 92 a7 be bf 65 cb 3d 8d 73 88 be f1 04 fa bd
       -0.3272875 0.09931516 -0.26650658 -0.12207974
0000c0 66 e8 3b 3e 15 83 00 bb 82 a2 08 3e c3 cd 87 3d
       0.18350372 -0.001960938 0.13343242 0.06631043
0000d0 fc f6 89 be bf 89 94 3e 9f 12 2a bf 21 55 a3 be
       -0.26946247 0.29011342 -0.66434664 -0.31900886
0000e0 4f 8a 78 3e d7 18 05 c0 47 85 21 40 f0 e7 7f 40
       0.2427151 -2.079641 2.5237596 3.9985313
0000f0 b0 eb 01 c0 1e d9 88 3f b7 aa 00 3e c5 79 fb 3c
       -2.0300102 1.0691259 0.12565123 0.030697713
000100 47 4a 94 3e f9 bb de be ff cb 6e be 55 33 f4 3e
       0.2896292 -0.43502787 -0.23320006 0.47695413
000110 05 29 99 bd 00 e4 94 be 06 ff 68 be 66 92 93 be
       -0.07478527 -0.290802 -0.22753534 -0.2882263
000120 23 bf a5 3e 48 1a 21 be 90 ce b4 3e 0b 21 60 3e
       0.32372388 -0.15732682 0.35313845 0.21887605
000130 bd bd 8f be d5 b4 a5 3e ad 4f 89 be ed 7d e4 bd
       -0.28074446 0.32364526 -0.268186 -0.11156831
000140 2e 43 89 3f 2e 12 46 bf 7c 93 22 3f 6f ca 97 3f
       1.0723627 -0.7737149 0.63506293 1.1858653
000150 bc 36 3f bf 11 c9 45 3f 44 d4 43 3f 0d c3 24 c0
       -0.74692893 0.7725993 0.76495767 -2.574405
000160 d5 6f e1 3d a1 ce f1 bd 97 11 1c bf a3 15 05 be
       0.110076584 -0.118069895 -0.6096434 -0.12996535
000170 f6 45 67 3e 5d 78 3e 3e d4 33 50 bf 15 34 fe 3d
       0.22585282 0.18600602 -0.81329083 0.124122776
000180 8d da 83 3d 78 2a 0c bf c2 55 0d 3b 28 73 a3 3e
       0.0643817 -0.547523 0.0021566008 0.31923795
000190 b4 d0 12 be 86 cc c2 bd 23 b7 68 bd f0 ad 63 3e
       -0.14337426 -0.09511666 -0.056815278 0.2223432
0001a0 f8 73 a4 bd 55 43 0d bf 65 fb 9a 3e a3 c7 10 3e
       -0.08029932 -0.55180866 0.30269924 0.14138655
0001b0 f5 b2 9b 3d 48 d4 20 be f5 d0 fa bc 6b 83 bb be
       0.07602493 -0.15705979 -0.030617217 -0.366237
0001c0 dc b2 95 bd cc 60 ce be 30 52 b5 3d 64 e4 6b 3e
       -0.07309505 -0.40308225 0.08853567 0.23036343
0001d0 cb ba 2b 3b e5 b8 80 be a3 d3 2d bf 9d b3 9c bd
       0.0026203867 -0.25141063 -0.67901057 -0.07651446
0001e0 63 f1 05 be 19 d9 37 c0 cf c6 01 40 19 c9 10 c0
       -0.13080363 -2.8726256 2.0277593 -2.262274
0001f0 28 d3 b1 3f d5 43 63 3e fb 5e 28 c0 7a 82 74 be
       1.3892565 0.22193845 -2.6307971 -0.23877898
000200 8e 71 a6 3e a7 00 9d be b4 08 62 be 25 36 4f 3f
       0.3250851 -0.3066456 -0.22073632 0.80941993
000210 19 83 de bd 38 23 e4 3e 93 ee ca bf d6 6a 96 3e
       -0.10864849 0.4455812 -1.5854057 0.29378384
000220 9a 4c 01 3e 43 40 d9 be 77 54 d5 bd 21 e7 97 3e
       0.12626877 -0.4243184 -0.10416501 0.29668525
000230 91 63 af bd 25 af 5f 3e d9 3f ca be 40 74 e9 be
       -0.08563913 0.21844156 -0.39501837 -0.45596504
000240 a8 e9 66 3e 52 67 22 3d 6e 97 b3 3e 0a b7 0d 3e
       0.2255007 0.039649315 0.3507647 0.13839355
000250 e8 fe b6 bd de f7 41 bd b5 1e 48 3e d5 2d fb be
       -0.08935338 -0.047355525 0.19542964 -0.49058405
000260 8a 41 03 3e de 0e 2d bd 59 37 ec 3e 31 5c 91 3e
       0.1281797 -0.042250507 0.46135977 0.2839065
000270 7d 13 a6 be 82 71 61 3d 5e 98 35 bf 7a 15 16 3e
       -0.32436743 0.05503989 -0.7093562 0.1465663
000280 a6 d1 99 3e a9 6a 8a bf e6 5e 50 3e cf 3a 8e 3f
       0.30042762 -1.08138 0.20348701 1.1111697
000290 7f de c6 3e 78 9a c7 be 95 3c 51 be a3 2e 2f be
       0.38841626 -0.38985038 -0.20433266 -0.17107634
0002a0 c7 63 18 3d 85 11 05 bd 0f c3 32 be f9 46 93 3e
       0.03720453 -0.03248741 -0.17457221 0.28765085
0002b0 35 f4 8c bd 0b 76 dd bd ee 14 0b bf 32 40 97 3d
       -0.06882516 -0.108135305 -0.5432881 0.07385291
0002c0 ef 78 99 3d ef 8d 51 be 5c 08 54 be db 68 29 bd
       0.074937694 -0.204643 -0.20706314 -0.041359764
0002d0 6a 15 cb bd 6e 1e 73 be e8 28 f3 be 32 f3 04 bd
       -0.09916194 -0.23742077 -0.47492146 -0.03245849
0002e0 98 2d 8c 3d 9f 4e 85 3d ba 8b 9e 3e a5 fe 2a be
       0.06844634 0.065091364 0.30965978 -0.16698702
0002f0 5c 03 5d be a1 98 d6 3d fb b3 9e be 5c 6d ba be
       -0.21583313 0.104783304 -0.3099669 -0.3641156
000300 0f 4c 2d 3e 4c 24 b7 be 7b ff 01 bd 27 f4 b9 3e
       0.16923545 -0.3576988 -0.031737786 0.36319086
000310 bc a1 57 be b3 bc fe 3d 70 b9 1e be c0 b4 35 bd
       -0.2105779 0.12438335 -0.15500426 -0.04436183
000320 3d 6f f5 3d fa d8 b6 3d 2a 3d fd 3c 19 e4 82 be
       0.11984108 0.08928104 0.030912954 -0.2556465
000330 2b 16 05 be 8b aa 19 be ae bc f6 be 9d 34 f4 be
       -0.12996738 -0.15006463 -0.48190826 -0.4769639
000340 b4 d6 dc bc 50 21 a3 be 22 d5 1b be 02 be 27 3e
       -0.026957847 -0.31861353 -0.15218022 0.16381076
000350 4d a0 c3 be b9 0e 27 3c 27 d9 90 be d2 24 9f be
       -0.38208237 0.010196381 -0.28290674 -0.3108278
000360 07 8e a4 bc fe f9 08 bf 76 ec 07 3e a3 04 0b 3f
       -0.020087255 -0.5350646 0.13273796 0.5430395
000370 73 1f dd bd af de 08 3e 5e 85 d1 3c 70 df c7 bd
       -0.10797014 0.13366197 0.02557629 -0.09759414
000380 3d b8 a6 bd cf 98 1b bd 46 49 67 3e 22 dd d4 3e
       -0.081406094 -0.037987527 0.22586545 0.4157496
000390 32 da 7b 3e 95 78 52 3f 2a 4c 99 bf 71 b8 47 3f
       0.24594954 0.82215244 -1.1976368 0.7801581
0003a0 a5 cc 7f be 8d 6b ea bc f7 60 71 bf c2 90 9d 3e
       -0.2498041 -0.028615737 -0.9428858 0.30774504
0003b0 ff de bb 3e ad 38 d3 3e b3 33 6d bf 10 76 8a bd
       0.3669357 0.41254178 -0.9265701 -0.067608
0003c0 dd ba 84 3e 84 86 8f bf 08 88 be 3e 65 68 c5 3d
       0.25923815 -1.1212926 0.3721316 0.09639052
0003d0 1c 19 ae be e3 9b 40 be 07 18 15 be 3a d0 3f bf
       -0.34003532 -0.18809466 -0.14559947 -0.74927104
0003e0 66 07 98 be 93 e6 b5 be 3a 8f 14 bd 6d 8e 61 3e
       -0.29693145 -0.35527477 -0.036269404 0.22026987
0003f0 56 b4 5b be f9 9f 9c 3e 83 5e ba be 6b 72 a2 be
       -0.21455511 0.305908 -0.36400232 -0.3172792

input_layer.bias f4 [128]
000000 44 12 2a bf 1a a1 4b bf 5d 48 e9 be 44 07 34 bf
       -0.6643412 -0.79542696 -0.4556302 -0.70323586
000010 3e c8 2d bf 56 ff 3b bf 3a d1 26 bf 18 27 52 bf
       -0.6788367 -0.73436487 -0.65163004 -0.820909
000020 bd 2a 3f bf 3f d9 3c bf 80 0c 83 bf fa ea 00 bf
       -0.7467459 -0.7376899 -1.023819 -0.50358546
000030 9d 28 0e bf fa 6f 33 bf f2 e8 d7 be 88 84 53 3c
       -0.5553072 -0.7009274 -0.4216991 0.012910016
000040 0d 4f 20 bf d6 87 36 bf f5 40 3d bf d9 ff 2a bf
       -0.6262062 -0.7130102 -0.7392724 -0.6679664
000050 99 f9 9e bf 94 ce 8f be 16 df 07 bf 9c bb 36 bf
       -1.2419921 -0.28087294 -0.5307478 -0.7138002
000060 8f e6 b7 be c9 78 0b bf eb 85 14 bf 30 6b 3f bf
       -0.3591809 -0.5448118 -0.5801684 -0.7477293
000070 20 61 79 bf 84 62 7f bf 79 87 4c bf 0c f7 74 bf
       -0.97413826 -0.997597 -0.79894215 -0.95689464
000080 ca cb 0c bf 47 ac e0 be 91 58 08 bf ce d2 0d bf
       -0.5499846 -0.43881437 -0.5326014 -0.5539979
000090 ad c6 67 bf 13 d1 2b bf 80 95 03 3f 06 31 39 bf
       -0.9053753 -0.67115897 0.51399994 -0.7234043
0000a0 0b 5d 6c bf 3b 5f 0d bf ee 3f 7e bf 1e be 45 bf
       -0.9232947 -0.55223435 -0.993163 -0.7724322
0000b0 fd 50 ca bf 5d 8e 40 bf b6 4e 12 bd bb 4a 6a bf
       -1.5805966 -0.7521723 -0.035719596 -0.9152028
0000c0 ad 06 a2 be 30 7c 8b bf a8 84 6a bf 33 f8 1f bf
       -0.31645718 -1.0897274 -0.9160867 -0.62488097
0000d0 66 98 63 bf 66 28 b0 bf 83 cf 5f bf 22 25 08 bf
       -0.88904417 -1.3762329 -0.8742601 -0.5318166
0000e0 38 02 4c bf 0b 33 73 be 7f 18 f3 be 36 9d bb bf
       -0.79690886 -0.2374994 -0.47479627 -1.4657352
0000f0 87 d1 10 bf 6b 6d 18 bf 76 46 15 be 9d ba 86 bd
       -0.56569713 -0.5954196 -0.1457766 -0.065785624
000100 f0 df a5 bf 48 3c c1 be e6 95 3a bf 68 59 f5 be
       -1.2958965 -0.37741303 -0.72884977 -0.47919774
000110 8b 61 73 bf 48 fa 24 bf a6 4a 95 bf 8a 3d 53 bf
       -0.95070714 -0.644444 -1.1663406 -0.82515776
000120 04 5c 61 bf 4a ad 85 be 5a 29 5f bf ef de 86 bf
       -0.8803103 -0.26108772 -0.8717247 -1.0536784
000130 e4 f6 94 bf 89 98 72 be 2c 22 8d bf 61 aa ce be
       -1.1637845 -0.23691 -1.1026053 -0.40364364
000140 81 d2 ec be 1f 84 08 bf c5 ca 56 bf 4e c8 b7 be
       -0.46254352 -0.533266 -0.8390315 -0.35895008
000150 a4 36 42 bf b6 e6 6a bf e8 1b 1f bf 00 cd 28 bf
       -0.75864625 -0.91758287 -0.62151957 -0.65937805
000160 42 22 65 bf 78 76 88 bf 09 81 37 bf 9d 40 7c bf
       -0.895054 -1.0661154 -0.7168127 -0.9853609
000170 e1 ed 2e bf 66 da 04 bf 56 58 6e 3d 9b c4 74 bf
       -0.68331724 -0.5189575 0.058189712 -0.95612496
000180 cf d2 8c bf e9 5d 76 bf 31 c2 32 bf 26 56 aa bf
       -1.1001834 -0.96237046 -0.6982756 -1.330754
000190 94 12 f0 be 50 97 cf bd b1 dc 04 bf 8f eb 34 bf
       -0.46889174 -0.101362824 -0.5189925 -0.70671934
0001a0 a4 c8 0e bf 7c d2 09 bf 8f 0c 20 bf 54 0f 91 bf
       -0.55774903 -0.538368 -0.6251916 -1.1332803
0001b0 24 47 80 bf 1b 87 4b bf 27 a7 30 bf 1b af 39 bf
       -1.002171 -0.7950303 -0.69005054 -0.72532815
0001c0 35 74 2b bf 5a d5 86 bf 26 f6 1b 3e d7 15 84 be
       -0.6697419 -1.053386 0.15230617 -0.25797912
0001d0 6c 1b e7 be c1 08 2e bf 32 aa 81 be b2 99 50 bf
       -0.4513811 -0.6798211 -0.2532516 -0.8148452
0001e0 54 c7 4a bf bd 97 9a bf 14 12 fd be 06 06 40 bf
       -0.792104 -1.2077557 -0.49427855 -0.7500919
0001f0 ca 6c 12 bf 2f 31 44 bf b2 2f e9 be ad c1 8f bf
       -0.5719725 -0.7663755 -0.455442 -1.123098

action_layer.weight f4 [4, 128]
000000 1f 98 d0 bd 49 6e 39 be d0 9b d7 3d e2 b1 98 bf
       -0.10185265 -0.18108477 0.10527766 -1.1929286
000010 a5 0a 13 be b5 41 37 3d a2 bc 71 be a9 d4 9b be
       -0.1435953 0.044740397 -0.23607114 -0.30435684
000020 e2 e4 cd 3d 0b 24 c7 bd 66 57 68 bf 23 0a 23 3e
       0.100534216 -0.097236715 -0.9075836 0.15921836
000030 cf 4e aa be 94 5f 95 be 3d d7 64 be df b7 9c bf
       -0.3326325 -0.29174483 -0.22347732 -1.2243613
000040 d5 b3 2b 3d 19 23 97 be 43 15 7b 3b 16 a8 ba bd
       0.041919548 -0.29518965 0.0038312234 -0.09114091
000050 44 f8 d7 bd 52 c4 f0 3e b0 ba 27 be 97 f0 64 be
       -0.105454 0.4702478 -0.1637981 -0.22357403
000060 9d 55 10 3e 5b 28 d5 bd 01 b2 7c be 14 53 bb be
       0.14095159 -0.10408088 -0.24677278 -0.3658682
000070 05 f4 9c 3e 54 2e 78 3d 63 7e bd be df d2 1b be
       0.30654922 0.060591057 -0.37010488 -0.1521716
000080 16 85 8f be 15 61 65 bf 3e 14 f2 3e fd b1 aa be
       -0.28031224 -0.8960126 0.4728107 -0.3333892
000090 20 20 3f 3f 29 dd 7d bc c4 b4 22 40 93 4f bc 3d
       0.74658394 -0.015494623 2.542283 0.09194865
0000a0 17 3d 89 bf c8 ca c1 be 26 21 dc be f1 98 59 be
       -1.0721768 -0.37850022 -0.4299404 -0.21249749
0000b0 1e b3 33 3e aa 9f 9a bd 3f bf d8 bf 97 19 07 bf
       0.17548797 -0.07549985 -1.6933364 -0.5277342
0000c0 4b 77 1e 3e a2 20 9a 3e 71 b2 02 3f 3f 19 18 be
       0.15475194 0.30103022 0.5105353 -0.1485338
0000d0 1b 41 10 bd 59 55 30 be 15 8b 3a be c3 43 d7 bf
       -0.03521834 -0.17220058 -0.18217118 -1.6817554
0000e0 67 80 f2 be 67 5d 25 be a5 28 dc be 00 60 4f 3f
       -0.47363588 -0.16148911 -0.4299976 0.8100586
0000f0 9b 73 a5 3b 52 83 9a 3e 18 55 9a 3e 54 ee d0 3f
       0.0050491816 0.30178314 0.30143046 1.6322732
000100 f1 76 bd be ef fc 88 3f c6 41 b4 3c 03 20 0e be
       -0.37004808 1.0702189 0.02200402 -0.13879399
000110 5d cd c3 3e 6a 5f 1b be 58 d8 0b be 74 0b a8 3e
       0.38242617 -0.15173116 -0.13656747 0.32821238
000120 90 61 26 bf f1 85 9f bd 00 b4 fe bd 9a 13 7d be
       -0.6499262 -0.07789219 -0.12436676 -0.24714509
000130 74 5f 75 3f 17 44 e9 bf 46 de 77 3f 78 e0 45 bd
       0.95848775 -1.8223904 0.9682354 -0.048309773
000140 35 ba 89 be fe 59 53 3e a8 bd e2 be 44 d3 0e be
       -0.26899877 0.20639798 -0.4428532 -0.13947779
000150 8c 2b a8 3d 23 de 92 3e b7 b9 ae be fb 0b 90 bd
       0.08211431 0.28685102 -0.34126064 -0.07033535
000160 61 55 d5 be 3e 5a 7d bf 32 ef c7 bf 9f ed ab 3d
       -0.416667 -0.98965824 -1.5619872 0.08394932
000170 ba d6 83 be 57 24 b8 bf 78 13 ed bf f3 4c 98 be
       -0.2574976 -1.438609 -1.8521566 -0.29746208
000180 92 8a e6 be ae 3f 05 bf 0a 0b 7f 3d a3 58 d2 bd
       -0.45027596 -0.5205029 0.062266387 -0.10270812
000190 d1 21 1d 3e 79 e7 4e bf 77 8d c6 be 67 6d 28 3e
       0.15344931 -0.8082195 -0.38779804 0.16447984
0001a0 c7 bc aa be 95 0b fc be 96 7f a8 3e 12 21 a1 3e
       -0.3334715 -0.49227586 0.3290984 0.31470543
0001b0 fe 3a ef be 1a 3d 2c 3d 1a 84 50 be 6c e0 e8 bd
       -0.46724695 0.04205046 -0.20362893 -0.1137093
0001c0 83 77 93 bd e6 df 8c be 19 c4 56 bf 30 b4 0a bf
       -0.072005294 -0.2751457 -0.8389297 -0.54181194
0001d0 73 c9 a0 3d 09 b3 c9 3e ab 4f 81 bf dd 76 d8 bd
       0.078509234 0.39394405 -1.0102438 -0.10569546
0001e0 c9 39 36 bd 41 eb 17 3f 49 1a be bc ff eb 4d 3f
       -0.044488702 0.59343344 -0.023205893 0.80438226
0001f0 c2 9a c2 bc e6 b5 25 bf 46 9d 2b be b9 0f 63 3f
       -0.023755435 -0.6473068 -0.16759214 0.88695866
000200 ff 63 3f 3d 26 56 0f 3e e8 d7 b8 bc 02 95 b6 3f
       0.046726223 0.13997707 -0.02256389 1.4264224
000210 7d 80 8e bd 9d e3 b1 3e e5 55 bb be 8c 7c 42 40
       -0.06958101 0.34743968 -0.3658897 3.0388517
000220 d8 32 8a 3e 66 22 07 3d 72 49 28 40 5e 8c 22 bf
       0.26991916 0.03299179 2.6294827 -0.63495433
000230 a0 64 68 be 08 b6 ee 3e c3 43 0d 3f eb fb c7 bf
       -0.22694635 0.46623254 0.5518152 -1.5623754
000240 39 2f c5 3e 49 13 95 bd d8 3d 2f be bc 82 8b be
       0.3851259 -0.07279069 -0.17113435 -0.2724818
000250 56 33 5f 3f 21 8c d1 3e cc f8 28 bc 79 89 c1 3c
       0.8718771 0.40927222 -0.010313224 0.023625122
000260 1c 50 80 bc 7a 79 91 3e e4 39 fa 3b 6c 29 04 3f
       -0.0156632 0.28412992 0.0076362956 0.51625705
000270 bc ab 56 bf c5 90 d1 3c 5a d2 e3 3e ab 1f 21 3e
       -0.83855796 0.025581727 0.44496423 0.15734737
000280 eb 79 21 be 9a 36 9b bf fc f0 43 bf 1d 15 97 bd
       -0.15769164 -1.2126038 -0.7653959 -0.07377074
000290 78 0c 5c 3d 93 31 62 bd d4 28 19 3f fb 63 89 be
       0.05372283 -0.05522306 0.59827924 -0.26834092
0002a0 6f 28 81 be ba 2b 4f be d3 76 dc 3f 36 bf d8 3f
       -0.2522616 -0.20231524 1.7223762 1.6933353
0002b0 1d c7 a5 bc 8b 3c 04 3f 11 a9 6e 40 5e c4 5c 3e
       -0.020236546 0.5165488 3.729069 0.21559283
0002c0 41 1e 52 3c d8 cd dd 3e c9 1c 23 3f 83 eb a9 3d
       0.012824596 0.4332111 0.637158 0.082968734
0002d0 6d e1 4a 3d ab 67 97 bf 96 91 8a 3e d0 be a0 3f
       0.04953139 -1.1828512 0.27064198 1.2558231
0002e0 ba d9 91 be 3a 1c af 3b 30 4b 23 3f aa 6b c2 bf
       -0.28486425 0.005343941 0.637866 -1.5189106
0002f0 77 fb d2 3d cc f2 84 be 50 38 fa be 7e 25 34 40
       0.10301869 -0.2596649 -0.48871088 2.8147883
000300 af 2f c5 be 48 d8 be 3e 9c 43 1f bf dd 3e a6 3d
       -0.38512942 0.37274384 -0.6221254 0.08117459
000310 17 7e 1a bf 3a 26 38 3e f0 71 45 3f ae 4e 0e 3f
       -0.6034865 0.17983332 0.7712698 0.55588806
000320 48 40 20 3f a9 36 be 3e 94 e8 8b bd 56 46 7e 3e
       0.62598085 0.37151077 -0.0683147 0.24831519
000330 b0 10 ba be 0f 76 11 bf d8 42 3e be 38 18 8f bd
       -0.36340857 -0.5682077 -0.18580186 -0.06987041
000340 d8 8a 13 be 57 94 f9 bc c4 af 15 bf cf d2 12 3e
       -0.14408433 -0.030466242 -0.5847132 0.1433823
000350 b3 65 a6 be af 3c 13 3f 23 34 98 bf d7 49 08 c0
       -0.32499465 0.5751447 -1.1890911 -2.1295068
000360 8b 74 28 bf 34 c1 77 3f 4c bc 77 40 eb 64 a3 3e
       -0.6580283 0.9677918 3.8708677 0.31912932
000370 e2 26 82 be 4b 2c cb be ed b2 92 be e3 1a ea 3e
       -0.2542029 -0.3968223 -0.28652135 0.45723638
000380 f2 27 2d 3f e3 f3 28 3f cd 24 35 bf d6 8e 9a 3e
       0.67639077 0.6599714 -0.7075928 0.301871
000390 7a 63 23 be 3b 81 83 be 7b 77 44 3e 73 1d a7 3d
       -0.15955916 -0.25684533 0.19186203 0.08159914
0003a0 a0 c6 29 3e bc a3 e5 be 16 0f cf 3e cf 68 fd 3e
       0.16579676 -0.44851482 0.40441197 0.49494025
0003b0 f7 0c b0 40 37 bf 14 3f aa fe ad 3e c2 43 be 3e
       5.5015826 0.5810427 0.33983356 0.3716107
0003c0 a4 5e 29 3d 0e 55 b1 3d 89 72 b8 bf f4 57 7f 3f
       0.041350022 0.08658801 -1.4409953 0.9974358
0003d0 e6 07 bd 3e cd a6 a1 3e 87 c5 2c bf 59 37 e6 3c
       0.3692009 0.3157257 -0.674889 0.028102564
0003e0 a8 56 82 be a5 6b c0 3d e9 ec 8d 3e 1e da 28 bf
       -0.25456738 0.093955316 0.2771981 -0.6595782
0003f0 07 22 31 c0 d2 33 36 3e 3c c7 28 bb 91 1c 46 bf
       -2.7677019 0.17793205 -0.0025753519 -0.7738734

action_layer.bias f4 [4]
000000 fb 6b 55 3f 45 f0 0e 3f 61 d7 5a bf 0a 48 19 3f
       0.8336789 0.5583537 -0.8548489 0.5987555

value_layer.weight f4 [1, 128]
000000 68 1a a2 3c cf bc a4 3d 61 53 a8 bc 76 d6 b0 be
       0.019787982 0.08043825 -0.02054757 -0.3453862
000010 dc 05 15 bc 80 fb 34 3d ab f8 6a 3d 40 eb 18 3e
       -0.009095635 0.04418516 0.057366055 0.14933491
000020 db 13 c0 3d 98 cd 3f 3e 5c 79 c1 3b 8b 3b 07 3d
       0.09378787 0.18730772 0.0059043597 0.03301577
000030 87 38 34 3d bf 21 e1 bc cd fb 14 3e 4e 86 14 3f
       0.04399922 -0.027481912 0.1454918 0.5801743
000040 88 03 1e bd 32 17 a3 bd 15 d7 a3 3d 4a 56 f0 3d
       -0.038577586 -0.079634085 0.08000008 0.11735208
000050 c3 99 ec be bb cc 20 3a 39 6b b1 3b a4 42 ec 3d
       -0.4621106 0.0006134023 0.0054143933 0.11536148
000060 23 bc ec 3c 5b 1b 90 bc 3a f0 1c bd 8a 5b 55 3e
       0.028898304 -0.01759117 -0.038315035 0.208357
000070 f5 f1 3c be 45 0d b2 3e 1b 5c 02 3e e2 d0 34 3c
       -0.18451674 0.3477575 0.12730448 0.01103613
000080 58 67 08 3d 76 ad 55 3e 2b a7 70 3e fc 36 a2 3c
       0.03330168 0.20866951 0.2350127 0.01980161
000090 a9 a9 1c be b3 b2 04 3e 50 d7 1d 3e f0 8f 10 bd
       -0.15299095 0.12958793 0.15414166 -0.03529352
0000a0 d0 1b bf bc 9a af 0f bd 86 1f a3 bd 17 3c d5 3c
       -0.023328692 -0.035079576 -0.07964997 0.02602963
0000b0 5e c2 10 3f 8f 95 95 bd d1 42 13 bf 09 b3 0f 3a
       0.5654658 -0.07303917 -0.5752383 0.00054816954
0000c0 01 7e 40 3e 58 a4 e3 3d a7 56 ae bd 68 d9 2c bd
       0.18798067 0.111153305 -0.085126214 -0.042199522
0000d0 eb ca 5e 3d 34 df 49 3e 75 8e 83 bd 3a 47 c1 3d
       0.054392736 0.19714051 -0.06423656 0.094374135
0000e0 aa 34 ab b8 65 e6 74 bc 2d 41 31 3d 90 ff 1d 3e
       -8.163725e-05 -0.014947508 0.043275047 0.1542952
0000f0 2e 2c 2c bd 79 8d 6d be 7c 07 ba 3e 7c da 92 3e
       -0.04203432 -0.23198499 0.36333835 0.28682315
000100 4b 5f 01 3e 8f 76 ca bd 26 96 3d ba 4f 37 44 3d
       0.12634008 -0.098858945 -0.00072321517 0.04790431
000110 5c ec 62 3e 23 2a f0 3d a0 e6 05 bf ba 25 05 be
       0.22160476 0.11726787 -0.5230503 -0.13002673
000120 59 16 47 3e 86 ef f3 3d 73 d4 97 3d bb 0f 32 be
       0.19442119 0.1191092 0.07413568 -0.17388813
000130 25 c6 10 3e b8 ef 4f 3a d2 c2 50 3f 12 66 89 bc
       0.14138086 0.0007932144 0.8154727 -0.016772304
000140 b5 b9 cc bc 9e a5 8e bd cb a1 b3 bd f3 10 cb 3d
       -0.024990896 -0.06965183 -0.08771094 0.09915342
000150 40 0d 2c bd 99 68 0e be ed 9e 8b be c3 9c cc 3e
       -0.042004824 -0.13907088 -0.27269688 0.3996335
000160 f4 b0 a4 3d ed c2 8c 3d 9d 9b bf bd 1e dd 6b be
       0.08041564 0.06873117 -0.09355853 -0.23033568
000170 3c 0b 1a 3e 1f 24 11 3f 07 de 1f bf e2 e6 a8 3d
       0.15043348 0.5669574 -0.6244816 0.082471624
000180 7e 6d 7c 3d 6f 53 fd bd 07 cd 07 be d9 74 1b bf
       0.061627857 -0.12369429 -0.13261805 -0.6072517
000190 e1 90 70 3d a7 75 0e 3d dc b3 b0 be fd 15 07 be
       0.058731917 0.03478017 -0.34512222 -0.13191982
0001a0 78 bf 44 3c 72 cb bd 3d 79 99 05 3e 8d 42 92 3d
       0.01200854 0.0926732 0.13046826 0.071416
0001b0 8a 1b 5c 3e 49 f8 59 3c 48 31 88 bd ae 5c ab 3d
       0.2149488 0.013303825 -0.06650025 0.083672866
0001c0 ee f3 07 3e db 12 c3 3e 10 39 b5 3d 4e a9 73 be
       0.13276646 0.38100323 0.088487744 -0.23795053
0001d0 19 53 39 3d 89 35 ec 3a cb 2f 0f bf 7c 13 ba bc
       0.045245264 0.0018021326 -0.559323 -0.022714369
0001e0 28 06 fe 3b f6 c8 15 3e b6 35 7f 3d af fe 4d 3f
       0.0077521987 0.14627442 0.062307082 0.8046674
0001f0 21 31 3c be e8 22 d5 3d 47 d8 40 3d 55 15 f9 bc
       -0.18378116 0.104070485 0.04708126 -0.03040568
