checkpoint/LunarLander_4000.pth (torch_old, 8217 bytes, 5 tensors)

input_layer.weight f4 [128, 8]
0	0x3da5484e	0.08070432
1	0xbf1a1d5e	-0.6020106
2	0xbe313e4c	-0.1730892
3	0x3e458a4c	0.19291037
4	0xbd6ebb85	-0.0582843
5	0x3cdf5da5	0.027266333
6	0xbe833db8	-0.25633025
7	0x3e4e9588	0.20174229
8	0x3c14fa0e	0.009092821
9	0xbd27ac23	-0.040935647
10	0xbe915db4	-0.28391802
11	0x3cc12d9c	0.023581319
12	0xbd21e0ef	-0.039521154
13	0x3d8d8d98	0.069117725
14	0xbe97f951	-0.296824
15	0xbe7daab3	-0.24772148
16	0x3e8d9a1f	0.27656648
17	0xbed5bba8	-0.41744733
18	0x3c7f1826	0.015569722
19	0x3e826632	0.25468594
20	0xbe3fa587	-0.18715487
21	0x3d9ee9d7	0.07759445
22	0xbe912b82	-0.28353506
23	0xbded9684	-0.11600974
24	0x3f9853fe	1.1900632
25	0xbf23dea9	-0.6401163
26	0x3ec7376d	0.38909474
27	0xbf9100ae	-1.1328332
28	0xbfd69cda	-1.6766617
29	0xbfc408c9	-1.5315181
30	0xbf86fcde	-1.0545919
31	0xbe510476	-0.20411858
32	0x3ed2eafe	0.4119491
33	0xbf10b5e7	-0.5652756
34	0x3dc27a56	0.0949599
35	0x3ec84228	0.39112973
36	0x3da42720	0.08015275
37	0xbdb07b67	-0.08617287
38	0xbee1e3dd	-0.44119158
39	0x3d8bcc89	0.06826121
40	0xbda6b773	-0.08140459
41	0xbdcc94f5	-0.09989349
42	0xbdf38f48	-0.11892563
43	0x3cf045b0	0.029330105
44	0xbea7923a	-0.3272875
45	0x3dcb65bf	0.09931516
46	0xbe88738d	-0.26650658
47	0xbdfa04f1	-0.12207974
48	0x3e3be866	0.18350372
49	0xbb008315	-0.001960938
50	0x3e08a282	0.13343242
51	0x3d87cdc3	0.06631043
52	0xbe89f6fc	-0.26946247
53	0x3e9489bf	0.29011342
54	0xbf2a129f	-0.66434664
55	0xbea35521	-0.31900886
56	0x3dcf3fdb	0.10119601
57	0xc000c0c5	-2.0117657
58	0x40243509	2.565737
59	0x40803874	4.0068913
60	0xc009f58f	-2.1556127
61	0x3f72c38b	0.94829625
62	0x3daae4f1	0.08344448
63	0x3cc54a99	0.024083422
64	0x3e944a47	0.2896292
65	0xbedebbf9	-0.43502787
66	0xbe6ecbff	-0.23320006
67	0x3ef43355	0.47695413
68	0xbd992905	-0.07478527
69	0xbe94e400	-0.290802
70	0xbe68ff06	-0.22753534
71	0xbe939266	-0.2882263
72	0x3ebc466d	0.3677248
73	0xbe22924d	-0.15876122
74	0x3ebd7d5f	0.37009713
75	0x3e577ed2	0.21044472
76	0xbe8f8134	-0.28028262
77	0x3ed003a9	0.40627792
78	0xbe894fad	-0.268186
79	0x3eabbea3	0.33543882
80	0x3f85df0e	1.0458696
81	0xbf453311	-0.77031046
82	0x3f280488	0.65631914
83	0x3f9d281b	1.2277864
84	0xbf11aee6	-0.569075
85	0x3f34d459	0.70636517
86	0x3f4399eb	0.76406735
87	0xc024c30d	-2.574405
88	0x3de10fb7	0.109893255
89	0xbdf1aa89	-0.11800105
90	0xbf1bfb4b	-0.6093032
91	0xbe043fce	-0.12914965
92	0x3e674733	0.22585754
93	0x3e3cfb6a	0.18455282
94	0xbf5033d4	-0.81329083
95	0x3dec2707	0.115308814
96	0x3d83da8d	0.0643817
97	0xbf0c2a78	-0.547523
98	0x3b0d55c2	0.0021566008
99	0x3ea37328	0.31923795
100	0xbe12d0b4	-0.14337426
101	0xbdc2cc86	-0.09511666
102	0xbd68b723	-0.056815278
103	0x3e63adf0	0.2223432
104	0xbda473f8	-0.08029932
105	0xbf0d4355	-0.55180866
106	0x3e9afb65	0.30269924
107	0x3e10c7a3	0.14138655
108	0x3d9bb2f5	0.07602493
109	0xbe20d448	-0.15705979
110	0xbcfad0f5	-0.030617217
111	0xbebb836b	-0.366237
112	0xbd95b2dc	-0.07309505
113	0xbece60cc	-0.40308225
114	0x3db55230	0.08853567
115	0x3e6be464	0.23036343
116	0x3b2bbacb	0.0026203867
117	0xbe80b8e5	-0.25141063
118	0xbf2dd3a3	-0.67901057
119	0xbd9cb39d	-0.07651446
120	0xbe0d0aff	-0.13773726
121	0xc05ded88	-3.4676228
122	0x3fdb8ed2	1.715296
123	0xc0113593	-2.268895
124	0x3f2999c3	0.66250247
125	0x3dd67f2f	0.10473477
126	0xc0285efb	-2.6307971
127	0xbe165378	-0.14680278
128	0x3ea6a5a2	0.32548243
129	0xbe9ccdbe	-0.3062572
130	0xbe7543aa	-0.23951593
131	0x3f4bd611	0.79623514
132	0xbde1603f	-0.110046856
133	0x3f000c26	0.5001854
134	0xbfcaee93	-1.5854057
135	0x3e9cc204	0.30616772
136	0x3e014c9a	0.12626877
137	0xbed94043	-0.4243184
138	0xbdd55477	-0.10416501
139	0x3e97e721	0.29668525
140	0xbdaf6391	-0.08563913
141	0x3e5faf25	0.21844156
142	0xbeca3fd9	-0.39501837
143	0xbee97440	-0.45596504
144	0x3e66e9a8	0.2255007
145	0x3d226752	0.039649315
146	0x3eb3976e	0.3507647
147	0x3e0db70a	0.13839355
148	0xbdb6fee8	-0.08935338
149	0xbd41f7de	-0.047355525
150	0x3e481eb5	0.19542964
151	0xbefb2dd5	-0.49058405
152	0x3e03418a	0.1281797
153	0xbd2d0ede	-0.042250507
154	0x3eec3759	0.46135977
155	0x3e915c31	0.2839065
156	0xbea6137d	-0.32436743
157	0x3d617182	0.05503989
158	0xbf35985e	-0.7093562
159	0x3e16157a	0.1465663
160	0x3e99d1a6	0.30042762
161	0xbf8a6aa9	-1.08138
162	0x3e505ee6	0.20348701
163	0x3f8e3acf	1.1111697
164	0x3ec6de7f	0.38841626
165	0xbec79a78	-0.38985038
166	0xbe513c95	-0.20433266
167	0xbe2f2ea3	-0.17107634
168	0x3d1863c7	0.03720453
169	0xbd051185	-0.03248741
170	0xbe32c30f	-0.17457221
171	0x3e9346f9	0.28765085
172	0xbd8cf435	-0.06882516
173	0xbddd760b	-0.108135305
174	0xbf0b14ee	-0.5432881
175	0x3d974032	0.07385291
176	0x3d9977e1	0.07493568
177	0xbe518def	-0.204643
178	0xbe5407d6	-0.20706114
179	0xbd2966f8	-0.041357964
180	0xbdcb1569	-0.09916193
181	0xbe731cff	-0.2374153
182	0xbef328e8	-0.47492146
183	0xbd04fcdc	-0.032467708
184	0x3d8c2d98	0.06844634
185	0x3d854e9f	0.065091364
186	0x3e9e8bba	0.30965978
187	0xbe2afea5	-0.16698702
188	0xbe5d035c	-0.21583313
189	0x3dd698a1	0.104783304
190	0xbe9eb3fb	-0.3099669
191	0xbeba6d5c	-0.3641156
192	0x3e2d4c0f	0.16923545
193	0xbeb7244c	-0.3576988
194	0xbd01ff7b	-0.031737786
195	0x3eb9f427	0.36319086
196	0xbe57a1bc	-0.2105779
197	0x3dfebcb3	0.12438335
198	0xbe1eb970	-0.15500426
199	0xbd35b4c0	-0.04436183
200	0x3df56f3d	0.11984108
201	0x3db6d8fa	0.08928104
202	0x3cfd3d2a	0.030912954
203	0xbe82e419	-0.2556465
204	0xbe05162b	-0.12996738
205	0xbe19aa8b	-0.15006463
206	0xbef6bcae	-0.48190826
207	0xbef4349d	-0.4769639
208	0xbcdcd6b4	-0.026957847
209	0xbea32150	-0.31861353
210	0xbe1bd522	-0.15218022
211	0x3e27be02	0.16381076
212	0xbec3a04d	-0.38208237
213	0x3c270eb9	0.010196381
214	0xbe90d927	-0.28290674
215	0xbe9f24d2	-0.3108278
216	0xbca48e07	-0.020087255
217	0xbf08f9fe	-0.5350646
218	0x3e07ec76	0.13273796
219	0x3f0b04a3	0.5430395
220	0xbddd1f73	-0.10797014
221	0x3e08deaf	0.13366197
222	0x3cd1855e	0.02557629
223	0xbdc7df70	-0.09759414
224	0xbd92f91c	-0.0717642
225	0xbd28c1f3	-0.04120059
226	0x3e16b81f	0.14718674
227	0x3ecc1c8c	0.3986553
228	0x3e962f3d	0.29332915
229	0x3f49bdf7	0.7880549
230	0xbf94a455	-1.161265
231	0x3f2b54e9	0.6692644
232	0xbe7fcca5	-0.2498041
233	0xbcea6b8d	-0.028615737
234	0xbf7160f7	-0.9428858
235	0x3e9d90c2	0.30774504
236	0x3ebbdeff	0.3669357
237	0x3ed338ad	0.41254178
238	0xbf6d33b3	-0.9265701
239	0xbd8a7610	-0.067608
240	0x3e84badd	0.25923815
241	0xbf8f8684	-1.1212926
242	0x3ebe8808	0.3721316
243	0x3dc56865	0.09639052
244	0xbeae191c	-0.34003532
245	0xbe409be3	-0.18809466
246	0xbe151807	-0.14559947
247	0xbf3fd03a	-0.74927104
248	0xbe980766	-0.29693145
249	0xbeb5e693	-0.35527477
250	0xbd148f3a	-0.036269404
251	0x3e618e6d	0.22026987
252	0xbe5bb456	-0.21455511
253	0x3e9c9ff9	0.305908
254	0xbeba5e83	-0.36400232
255	0xbea2726b	-0.3172792

input_layer.bias f4 [128]
0	0xbf2a1244	-0.6643412
1	0xbf4ba11a	-0.79542696
2	0xbee9485d	-0.4556302
3	0xbf645238	-0.89187956
4	0xbf2dc83e	-0.6788367
5	0xbf3bff56	-0.73436487
6	0xbf26d13a	-0.65163004
7	0xbf4e3d0b	-0.80561894
8	0xbf3f2abd	-0.7467459
9	0xbf361680	-0.7112808
10	0xbf84e47b	-1.0382227
11	0xbf0142d0	-0.5049257
12	0xbf0e289d	-0.5553072
13	0xbf336ffa	-0.7009274
14	0xbed7e8f2	-0.4216991
15	0x3da69a45	0.08134893
16	0xbf1f9da6	-0.6234993
17	0xbf3687d6	-0.7130102
18	0xbf3d40f5	-0.7392724
19	0xbf2affd9	-0.6679664
20	0xbf9ef999	-1.2419921
21	0xbe8fce94	-0.28087294
22	0xbf07df4f	-0.53075117
23	0xbf36bb9c	-0.7138002
24	0xbeb7e68f	-0.3591809
25	0xbf0b78c9	-0.5448118
26	0xbf1485eb	-0.5801684
27	0xbf3f6b30	-0.7477293
28	0xbf85102e	-1.0395563
29	0xbf7f6284	-0.997597
30	0xbf4c8779	-0.79894215
31	0xbf74f70c	-0.95689464
32	0xbf0ccbca	-0.5499846
33	0xbe86fadf	-0.26363274
34	0xbf0531a7	-0.5202889
35	0xbf0dd2ce	-0.5539979
36	0xbf67c6ad	-0.9053753
37	0xbf2bd113	-0.67115897
38	0x3eb6437f	0.3559837
39	0xbf393106	-0.7234043
40	0xbf6c7140	-0.92360306
41	0xbf0e7e84	-0.556618
42	0xbf8552fd	-1.0415951
43	0xbf3efa2c	-0.7460048
44	0xbfca50fd	-1.5805966
45	0xbf408e5d	-0.7521723
46	0xbea89342	-0.3292485
47	0xbf6a4abb	-0.9152028
48	0xbea206ad	-0.31645718
49	0xbf8b7c30	-1.0897274
50	0xbf6a84a8	-0.9160867
51	0xbf1ff833	-0.62488097
52	0xbf639866	-0.88904417
53	0xbfac5e53	-1.3466285
54	0xbf5fcf83	-0.8742601
55	0xbdd7e983	-0.10542586
56	0xbf4c02a2	-0.7969152
57	0xbe73330b	-0.2374994
58	0xbef3187f	-0.47479627
59	0xbfc354e2	-1.5260279
60	0xbf10d187	-0.56569713
61	0xbf186d6b	-0.5954196
62	0xbe6a905a	-0.22906628
63	0xbe059868	-0.1304642
64	0xbfa4e5c3	-1.2882618
65	0xbed14a17	-0.4087684
66	0xbf3e7f05	-0.74412566
67	0xbef55968	-0.47919774
68	0xbf7361da	-0.95071185
69	0xbf24fa48	-0.644444
70	0xbf954aa6	-1.1663406
71	0xbf54feee	-0.8320149
72	0xbf615c04	-0.8803103
73	0xbe85ad4a	-0.26108772
74	0xbf5f295a	-0.8717247
75	0xbf86deef	-1.0536784
76	0xbf94f6e4	-1.1637845
77	0x3e3ef7fb	0.18649285
78	0xbf7d6db0	-0.98995495
79	0xbeceaa61	-0.40364364
80	0xbeecd281	-0.46254352
81	0xbf08841f	-0.533266
82	0xbf6fb091	-0.93628794
83	0xbeb7c84e	-0.35895008
84	0xbf4236a4	-0.75864625
85	0xbf6bb7fe	-0.92077625
86	0xbf1f1be8	-0.62151957
87	0xbf369b1e	-0.7133044
88	0xbf652242	-0.895054
89	0xbf885b07	-1.0652779
90	0xbf902829	-1.1262256
91	0xbf7c409d	-0.9853609
92	0xbf2eede1	-0.68331724
93	0xbee3cb70	-0.44491148
94	0x3dfdcf39	0.1239304
95	0xbf74c49b	-0.95612496
96	0xbf8cd2cf	-1.1001834
97	0xbf765de9	-0.96237046
98	0xbf32c231	-0.6982756
99	0xbfaa5626	-1.330754
100	0xbeef3866	-0.46722716
101	0xbdcb73a8	-0.09934169
102	0xbf04dcb1	-0.5189925
103	0xbf3654cb	-0.71223134
104	0xbf0ec8a4	-0.55774903
105	0xbf09d27c	-0.538368
106	0xbf200c8f	-0.6251916
107	0xbf910f54	-1.1332803
108	0xbf44b7f9	-0.7684322
109	0xbf4b871b	-0.7950303
110	0xbf30a727	-0.69005054
111	0xbf39af1b	-0.72532815
112	0xbf2b7435	-0.6697419
113	0xbf86d55a	-1.053386
114	0xbe04fead	-0.12987776
115	0xbec409e6	-0.38288802
116	0xbee71b6c	-0.4513811
117	0xbf2e08c1	-0.6798211
118	0xbed9fbdb	-0.42574963
119	0xbf4f1af4	-0.809005
120	0xbf4ac754	-0.792104
121	0xbf9a97bd	-1.2077557
122	0xbefd1214	-0.49427855
123	0xbf3eb23d	-0.7449072
124	0xbf017c47	-0.5058026
125	0xbf44312f	-0.7663755
126	0xbee92fb2	-0.455442
127	0xbf8fc1ad	-1.123098

action_layer.weight f4 [4, 128]
0	0xbdd0981f	-0.10185265
1	0xbe396e49	-0.18108477
2	0x3dd79bd0	0.10527766
3	0xbf984e4c	-1.1898894
4	0xbe130aa5	-0.1435953
5	0x3d3741b5	0.044740397
6	0xbe71bca2	-0.23607114
7	0xbeb0b917	-0.34516212
8	0x3dcde4e2	0.100534216
9	0xbdc7240b	-0.097236715
10	0xbf685cc3	-0.90766543
11	0x3e230a23	0.15921836
12	0xbeaa4ecf	-0.3326325
13	0xbe955f94	-0.29174483
14	0xbe64d73d	-0.22347732
15	0xbf7162c3	-0.94291323
16	0x3d2b79ff	0.04186439
17	0xbe972319	-0.29518965
18	0x3b7b1543	0.0038312234
19	0xbdbaa816	-0.09114091
20	0xbdd7f844	-0.105454
21	0x3ef0c452	0.4702478
22	0xbe27bab0	-0.1637981
23	0xbe64f097	-0.22357403
24	0x3e10559d	0.14095159
25	0xbdd5285b	-0.10408088
26	0xbe7cb201	-0.24677278
27	0xbebb5314	-0.3658682
28	0x3e94d10c	0.2906574
29	0x3d782e54	0.060591057
30	0xbebd7e63	-0.37010488
31	0xbe1bd2df	-0.1521716
32	0xbe8f8516	-0.28031224
33	0xbfd2df8a	-1.6474469
34	0x3ef2143e	0.4728107
35	0xbeaab1fd	-0.3333892
36	0x3f3f2020	0.74658394
37	0xbc7ddd29	-0.015494623
38	0x40288037	2.6328256
39	0x3dbc4f93	0.09194865
40	0xbf893d17	-1.0721768
41	0xbec1cac8	-0.37850022
42	0xbed2f993	-0.41206035
43	0xbe59c24b	-0.21265523
44	0x3e33b31e	0.17548797
45	0xbd9a9faa	-0.07549985
46	0xbf93b863	-1.1540645
47	0xbf071997	-0.5277342
48	0x3e1e774b	0.15475194
49	0x3e9a20a2	0.30103022
50	0x3f02b271	0.5105353
51	0xbe18193f	-0.1485338
52	0xbd10411b	-0.03521834
53	0xbe4733cf	-0.19453357
54	0xbe3a8b15	-0.18217118
55	0xc02ae6ca	-2.6703362
56	0xbef28067	-0.47363588
57	0xbe255d67	-0.16148911
58	0xbedc28a5	-0.4299976
59	0x3f55fcc7	0.8358883
60	0x3ba5739b	0.0050491816
61	0x3e9a8352	0.30178314
62	0x3e89bf89	0.26903942
63	0x3fe01dce	1.7509096
64	0xbebd76f1	-0.37004808
65	0x3f89243c	1.0714183
66	0x3cb441c6	0.02200402
67	0xbe0e2003	-0.13879399
68	0x3ec3cd5d	0.38242617
69	0xbe1b5f6a	-0.15173116
70	0xbe0bd858	-0.13656747
71	0x3ea80b74	0.32821238
72	0xbf266190	-0.6499262
73	0xbd9f85f1	-0.07789219
74	0xbdfeb400	-0.12436676
75	0xbe7d139a	-0.24714509
76	0x3f755f74	0.95848775
77	0xc012b886	-2.2925124
78	0x3ecf3aaa	0.40474445
79	0xbd45e078	-0.048309773
80	0xbe89ba35	-0.26899877
81	0x3e5359fe	0.20639798
82	0xbee2bf44	-0.4428655
83	0xbe0ed344	-0.13947779
84	0x3da82b8c	0.08211431
85	0x3e92de23	0.28685102
86	0xbeaeb9b7	-0.34126064
87	0xbf000fee	-0.50024307
88	0xbed55561	-0.416667
89	0xbf7cec4c	-0.9879806
90	0xbfd44ba8	-1.6585588
91	0x3dabed9f	0.08394932
92	0xbe83d6ba	-0.2574976
93	0xbf9dae4c	-1.2318816
94	0xc0038766	-2.055139
95	0xbe984cf3	-0.29746208
96	0xbee68a92	-0.45027596
97	0xbf053fae	-0.5205029
98	0x3d7f0b0a	0.062266387
99	0xbdd258a3	-0.10270812
100	0x3e1ab0fb	0.15106575
101	0xbf486375	-0.7827676
102	0xbec68d77	-0.38779804
103	0x3e286d67	0.16447984
104	0xbeaabcc7	-0.3334715
105	0xbefc0b95	-0.49227586
106	0x3ea87f96	0.3290984
107	0x3ea12112	0.31470543
108	0xbf79d55f	-0.97591203
109	0x3d2c3d1a	0.04205046
110	0xbe50841a	-0.20362893
111	0xbde8e06c	-0.1137093
112	0xbd937783	-0.072005294
113	0xbe8cdfe6	-0.2751457
114	0xbf6f4641	-0.93466574
115	0xbf1161fc	-0.5679014
116	0x3da0c973	0.078509234
117	0x3ec9b309	0.39394405
118	0xbf44bb65	-0.7684844
119	0xbdd876dd	-0.10569546
120	0xbd3639c9	-0.044488702
121	0x3f17eb41	0.59343344
122	0xbcbe1a49	-0.023205893
123	0x3f4debff	0.80438226
124	0xbeaf2e21	-0.3421488
125	0xbf25b5e6	-0.6473068
126	0xbe2b9d46	-0.16759214
127	0x3f630fb9	0.88695866
128	0x3d3f63ff	0.046726223
129	0x3e0f5626	0.13997707
130	0xbcb8d7e8	-0.02256389
131	0x3f91f287	1.1402138
132	0xbd8e807d	-0.06958101
133	0x3eb1e39d	0.34743968
134	0xbebb55e5	-0.3658897
135	0x4040d657	3.0130823
136	0x3e8a32d8	0.26991916
137	0x3d059c87	0.03261998
138	0x40213c5d	2.5193093
139	0xbf228c5e	-0.63495433
140	0xbe6864a0	-0.22694635
141	0x3eeeb608	0.46623254
142	0x3f0d43c3	0.5518152
143	0xbfaeea11	-1.3665181
144	0x3ec3b8ed	0.38227025
145	0xbd951349	-0.07279069
146	0xbe2f3dd8	-0.17113435
147	0xbe8b82bc	-0.2724818
148	0x3f5f3356	0.8718771
149	0x3ed18c21	0.40927222
150	0xbc28f8cc	-0.010313224
151	0x3cc18979	0.023625122
152	0xbc80501c	-0.0156632
153	0x3e91797a	0.28412992
154	0x3bfa39e4	0.0076362956
155	0x3f04296c	0.51625705
156	0xbf5780bb	-0.841808
157	0x3cd190c5	0.025581727
158	0x3ee3d25a	0.44496423
159	0x3e211fab	0.15734737
160	0xbe2179eb	-0.15769164
161	0xbfdd5302	-1.7290957
162	0xbf43f0fc	-0.7653959
163	0xbd97151d	-0.07377074
164	0x3d5c0c78	0.05372283
165	0xbd623193	-0.05522306
166	0x3e05dd37	0.13072668
167	0xbe8963fb	-0.26834092
168	0xbe812e63	-0.25230703
169	0xbe514b35	-0.20438845
170	0x3fdc2d91	1.7201406
171	0x3fd5df6d	1.6708809
172	0xbca5c71d	-0.020236546
173	0x3f043c8b	0.5165488
174	0x4055c7e0	3.3403244
175	0x3e5cc45e	0.21559283
176	0x3c521e41	0.012824596
177	0x3eddcdd8	0.4332111
178	0x3f231cc9	0.637158
179	0x3da9eb83	0.082968734
180	0x3d4ae16d	0.04953139
181	0xbf801dfd	-1.0009152
182	0x3e8a9196	0.27064198
183	0x3fab10a6	1.3364456
184	0xbe91d9ba	-0.28486425
185	0x3baf1c3a	0.005343941
186	0x3f234b30	0.637866
187	0xbfdec2b0	-1.7403164
188	0x3dd2fb77	0.10301869
189	0xbe84f2cc	-0.2596649
190	0xbeefc330	-0.46828604
191	0x4036b3af	2.854717
192	0xbec52faf	-0.38512942
193	0x3ebdb79b	0.37054142
194	0xbf1eba61	-0.6200314
195	0x3da63edd	0.08117459
196	0xbf1a7e17	-0.6034865
197	0x3e38263a	0.17983332
198	0x3f4571f0	0.7712698
199	0x3f0e39fb	0.5555722
200	0x3f204048	0.62598085
201	0x3ebe36a9	0.37151077
202	0xbd8be894	-0.0683147
203	0x3e7e4656	0.24831519
204	0xbeba10b0	-0.36340857
205	0xbf503bed	-0.8134144
206	0x3c57f9dd	0.013182131
207	0xbd8f1838	-0.06987041
208	0xbe138ad8	-0.14408433
209	0xbcf99457	-0.030466242
210	0xbf15e8c2	-0.58558285
211	0x3e12d2cf	0.1433823
212	0xbea665b3	-0.32499465
213	0x3f133a4a	0.5751082
214	0xbf983423	-1.1890911
215	0xc001336a	-2.018763
216	0xbf28748b	-0.6580283
217	0x3f77e6eb	0.9683673
218	0x40832877	4.0986896
219	0x3ea364eb	0.31912932
220	0xbe8226e2	-0.2542029
221	0xbf69ce15	-0.9133008
222	0xbeb0e3fa	-0.34548932
223	0x3eea1ae3	0.45723638
224	0x3f2d27f2	0.67639077
225	0x3f28f3e3	0.6599714
226	0xbf3524cd	-0.7075928
227	0x3e9a8ed6	0.301871
228	0xbe1802bd	-0.14844795
229	0xbe80aed0	-0.2513337
230	0x3e44777b	0.19186203
231	0x3da8bd82	0.08239271
232	0x3e29c6a0	0.16579676
233	0xbee5a3bc	-0.44851482
234	0x3ecf0f16	0.40441197
235	0x3efd68cf	0.49494025
236	0x40b92062	5.785203
237	0x3f14bf37	0.5810427
238	0x3eadfeaa	0.33983356
239	0x3ebe43c2	0.3716107
240	0x3d295ea4	0.041350022
241	0x3db1550e	0.08658801
242	0xbfe6068a	-1.7970746
243	0x3e1191cb	0.14215772
244	0x3ebd07e6	0.3692009
245	0x3ea1a6cd	0.3157257
246	0xbfdc4550	-1.7208652
247	0x3ceb34eb	0.028711757
248	0xbe8256a8	-0.25456738
249	0x3dc06ba5	0.093955316
250	0x3e8dece9	0.2771981
251	0xbf28dd69	-0.65962845
252	0xc049e531	-3.1546137
253	0x3e3633d2	0.17793205
254	0xbb28c73c	-0.0025753519
255	0xbf461c91	-0.7738734

action_layer.bias f4 [4]
0	0x3f02305e	0.5085505
1	0x3f072dbf	0.5280418
2	0xbf892266	-1.0713623
3	0x3f93c3cb	1.1544126

value_layer.weight f4 [1, 128]
0	0x3ca21a68	0.019787982
1	0x3da4bccf	0.08043825
2	0xbca85361	-0.02054757
3	0xbeae0bb9	-0.3399332
4	0xbc1505dc	-0.009095635
5	0x3d34fb80	0.04418516
6	0x3d6af8ab	0.057366055
7	0x3e3789bc	0.17923635
8	0x3dc013db	0.09378787
9	0x3e4232df	0.18964718
10	0xbc460da1	-0.01208821
11	0x3d084283	0.033266556
12	0x3d343887	0.04399922
13	0xbce121bf	-0.027481912
14	0x3e14fbcd	0.1454918
15	0x3f40de22	0.7533895
16	0xbd0f1c68	-0.0349392
17	0xbda31732	-0.079634085
18	0x3da3d715	0.08000008
19	0x3df0564a	0.11735208
20	0xbeec99c3	-0.4621106
21	0x3a20ccbb	0.0006134023
22	0x3bb15e41	0.0054128473
23	0x3dec42a4	0.11536148
24	0x3cecbc23	0.028898304
25	0xbc901b5b	-0.01759117
26	0xbd1cf03a	-0.038315035
27	0x3e555b8a	0.208357
28	0xbe298e75	-0.1655825
29	0x3eb20d45	0.3477575
30	0x3e025c1b	0.12730448
31	0x3c34d0e2	0.01103613
32	0x3d086758	0.03330168
33	0x3e99264c	0.2991203
34	0x3e71fafd	0.236309
35	0x3ca236fc	0.01980161
36	0xbe1ca9a9	-0.15299095
37	0x3e04b2b3	0.12958793
38	0xbe20aab0	-0.15690112
39	0xbd108ff0	-0.03529352
40	0xbcbc8ddf	-0.023016868
41	0xbd0b9481	-0.03407717
42	0xbdc3617c	-0.09540078
43	0x3d0da259	0.034578655
44	0x3f10c25e	0.5654658
45	0xbd95958f	-0.07303917
46	0xbefdcd00	-0.49570465
47	0x3a0fb309	0.00054816954
48	0x3e407e01	0.18798067
49	0x3de3a458	0.111153305
50	0xbdae56a7	-0.085126214
51	0xbd2cd968	-0.042199522
52	0x3d5ecaeb	0.054392736
53	0x3dbfcffc	0.09365842
54	0xbd838e75	-0.06423656
55	0x3eb556c1	0.3541775
56	0x3bc68b57	0.006059091
57	0xbc74e665	-0.014947508
58	0x3d31412d	0.043275047
59	0x3da6d076	0.081452295
60	0xbd2c2c2e	-0.04203432
61	0xbe6d8d79	-0.23198499
62	0x3eb3ae0b	0.35093722
63	0x3f2c7f43	0.67381686
64	0x3e01d017	0.12677036
65	0xbdbeab10	-0.09309971
66	0xbabfc23a	-0.0014630028
67	0x3d44374f	0.04790431
68	0x3e62ec53	0.22160463
69	0x3df02a23	0.11726787
70	0xbf05e6a0	-0.5230503
71	0xbe04815b	-0.1293997
72	0x3e471659	0.19442119
73	0x3df3ef86	0.1191092
74	0x3d97d473	0.07413568
75	0xbe320fbb	-0.17388813
76	0x3e10c625	0.14138086
77	0xbca6ec16	-0.020376246
78	0x3f6bddee	0.9213551
79	0xbc896612	-0.016772304
80	0xbcccb9b5	-0.024990896
81	0xbd8ea59e	-0.06965183
82	0xbdeb7f53	-0.114988945
83	0x3dcb10f3	0.09915342
84	0xbd2c0d40	-0.042004824
85	0xbe0e4e8a	-0.13897148
86	0xbe8b9eed	-0.27269688
87	0x3e97d9e2	0.2965842
88	0x3da4b0f4	0.08041564
89	0x3d8cc7e9	0.06874067
90	0xbea5484e	-0.32281727
91	0xbe6bdd1e	-0.23033568
92	0x3e1a0b3c	0.15043348
93	0x3f1dae13	0.6159374
94	0xbf15d8b9	-0.5853382
95	0x3da8e6e2	0.082471624
96	0x3d7c6d7e	0.061627857
97	0xbdfd536f	-0.12369429
98	0xbe07cd07	-0.13261805
99	0xbf1b74d9	-0.6072517
100	0x3db8a4c9	0.09015805
101	0x3e2416f6	0.16024384
102	0xbeb0b3dc	-0.34512222
103	0xbe08d382	-0.13361934
104	0x3c44bf78	0.01200854
105	0x3dbdcb72	0.0926732
106	0x3e059979	0.13046826
107	0x3d92428d	0.071416
108	0xbd7d59aa	-0.06185309
109	0x3c59f849	0.013303825
110	0xbd883148	-0.06650025
111	0x3dab5cae	0.083672866
112	0x3e07f3ee	0.13276646
113	0x3ec312db	0.38100323
114	0x3e8c3482	0.2738381
115	0xbdc32b92	-0.09529795
116	0x3d395319	0.045245264
117	0x3aec3589	0.0018021326
118	0xbf05a020	-0.52197456
119	0xbcb6de62	-0.022322837
120	0x3bfe0628	0.0077521987
121	0x3e15c8f6	0.14627442
122	0x3d7f35b6	0.062307082
123	0x3f4e2a61	0.80533415
124	0xbc294e3e	-0.010333596
125	0x3dd522e8	0.104070485
126	0x3d40d847	0.04708126
127	0xbcf91555	-0.03040568
