checkpoint/LunarLander_1500.pth (torch_old, 8217 bytes, 5 tensors)

input_layer.weight f4 [128, 8]
0	0x3da5484e	0.08070432
1	0xbf1a1d5e	-0.6020106
2	0xbe313e4c	-0.1730892
3	0x3e458a4c	0.19291037
4	0xbd6ebb85	-0.0582843
5	0x3cdf5da5	0.027266333
6	0xbe833db8	-0.25633025
7	0x3e4e9588	0.20174229
8	0x3c14fa0e	0.009092821
9	0xbd27ac23	-0.040935647
10	0xbe915db4	-0.28391802
11	0x3cc12d9c	0.023581319
12	0xbd21e0ef	-0.039521154
13	0x3d8d8d98	0.069117725
14	0xbe97f951	-0.296824
15	0xbe7daab3	-0.24772148
16	0x3e8d9a1f	0.27656648
17	0xbed5bba8	-0.41744733
18	0x3c7f1826	0.015569722
19	0x3e826632	0.25468594
20	0xbe3fa587	-0.18715487
21	0x3d9ee9d7	0.07759445
22	0xbe912b82	-0.28353506
23	0xbded9684	-0.11600974
24	0x3ea45bf6	0.3210141
25	0x3c6047b9	0.013688975
26	0xbbfd5b7c	-0.007731853
27	0xbf30178b	-0.68785924
28	0xc0098db2	-2.1492734
29	0xbe422101	-0.18957902
30	0xbf428656	-0.7598623
31	0xbf8fb9ab	-1.1228536
32	0x3ed2eafe	0.4119491
33	0xbf10b5e7	-0.5652756
34	0x3dc27a56	0.0949599
35	0x3ec84228	0.39112973
36	0x3da42720	0.08015275
37	0xbdb07b67	-0.08617287
38	0xbee1e3dd	-0.44119158
39	0x3d8bcc89	0.06826121
40	0xbda6b773	-0.08140459
41	0xbdcc94f5	-0.09989349
42	0xbdf38f48	-0.11892563
43	0x3cf045b0	0.029330105
44	0xbea7923a	-0.3272875
45	0x3dcb65bf	0.09931516
46	0xbe88738d	-0.26650658
47	0xbdfa04f1	-0.12207974
48	0x3e31c7ae	0.17361328
49	0xbadb0cfa	-0.0016712241
50	0x3e107235	0.14106067
51	0x3d768abb	0.060190897
52	0xbe8bf1f6	-0.2733304
53	0x3ec03a83	0.3754464
54	0xbf2a129f	-0.66434664
55	0xbea35521	-0.31900886
56	0xbd900fe8	-0.07034284
57	0xbfa2a436	-1.2706363
58	0x403d13cf	2.954334
59	0x402462b3	2.5685241
60	0xbfe8f724	-1.8200421
61	0x3ed09ebb	0.40746102
62	0xbdbeea1c	-0.093219966
63	0x3e9aea44	0.30256855
64	0x3e944a47	0.2896292
65	0xbedebbf9	-0.43502787
66	0xbe6ecbff	-0.23320006
67	0x3ef43355	0.47695413
68	0xbd992905	-0.07478527
69	0xbe94e400	-0.290802
70	0xbe68ff06	-0.22753534
71	0xbe939266	-0.2882263
72	0x3e694bd3	0.22782831
73	0xbe239b55	-0.15977223
74	0x3eafc269	0.3432801
75	0x3e52c997	0.20584713
76	0xbeedc27a	-0.46437436
77	0x3e4822df	0.19544552
78	0xbe894fad	-0.268186
79	0xbde47ded	-0.11156831
80	0x3f938f7a	1.152816
81	0xbf2dff50	-0.679677
82	0x3ea2dd36	0.31809396
83	0x3f908bb7	1.1292638
84	0xbf823b02	-1.0174258
85	0xbee5d813	-0.44891414
86	0x3f5872d1	0.84550196
87	0xc024c30d	-2.574405
88	0xbd457ba0	-0.0482136
89	0xbd491df4	-0.04910083
90	0xbf41c570	-0.7569189
91	0xbe71cec6	-0.23614034
92	0x3e65c6af	0.22439073
93	0x3e273a02	0.16330722
94	0xbf5033d4	-0.81329083
95	0x3ea841e9	0.32862785
96	0x3d83da8d	0.0643817
97	0xbf0c2a78	-0.547523
98	0x3b0d55c2	0.0021566008
99	0x3ea37328	0.31923795
100	0xbe12d0b4	-0.14337426
101	0xbdc2cc86	-0.09511666
102	0xbd68b723	-0.056815278
103	0x3e63adf0	0.2223432
104	0xbe3ee678	-0.18642604
105	0xbf11181a	-0.566774
106	0x3e99d7c4	0.3004743
107	0x3dd4ef71	0.10397232
108	0x3d46cad0	0.04853326
109	0xbe8f04a8	-0.2793324
110	0x3dea3335	0.11435548
111	0xbebb836b	-0.366237
112	0xbd041dcc	-0.03225498
113	0xbecce2b3	-0.40016708
114	0x3dcb08d2	0.09913792
115	0x3e7c5557	0.2464193
116	0x3c0a59d3	0.008444267
117	0xbe53b7a3	-0.2067552
118	0xbf2dd3a3	-0.67901057
119	0xbd9cb39d	-0.07651446
120	0xbf043f07	-0.5165867
121	0xbfab6bde	-1.3392293
122	0x3e3de48c	0.18544215
123	0xbfbc5d4d	-1.4715973
124	0xbd8f2943	-0.06990292
125	0xbe240d57	-0.16020714
126	0xbfa70ce2	-1.3050807
127	0xbfbbdf24	-1.4677472
128	0x3eb094c5	0.34488502
129	0xbea1e3de	-0.3161916
130	0xbe332bd3	-0.17497186
131	0x3f545b3e	0.82951725
132	0xbe2b85ed	-0.16750307
133	0x3ee364b5	0.4441277
134	0xbfcaee93	-1.5854057
135	0x3f058c5d	0.521673
136	0x3e014c9a	0.12626877
137	0xbed94043	-0.4243184
138	0xbdd55477	-0.10416501
139	0x3e97e721	0.29668525
140	0xbdaf6391	-0.08563913
141	0x3e5faf25	0.21844156
142	0xbeca3fd9	-0.39501837
143	0xbee97440	-0.45596504
144	0x3e60d5c1	0.2195654
145	0x3d225700	0.03963375
146	0x3eb6b15f	0.35682198
147	0x3e0c01f8	0.13672626
148	0xbdd46dcc	-0.103725046
149	0xbdfcbb8c	-0.12340459
150	0x3ea2907e	0.31750864
151	0xbefb2dd5	-0.49058405
152	0x3e0c9670	0.13729262
153	0xbd2e9885	-0.042625923
154	0x3eee4984	0.46540463
155	0x3e908aae	0.28230804
156	0xbea98ef7	-0.33116886
157	0x3d4ba2f3	0.049715947
158	0xbf35985e	-0.7093562
159	0x3e9dc70f	0.30815932
160	0xbded4aa9	-0.11586506
161	0xbf185f78	-0.59520674
162	0x3e27234a	0.16322055
163	0x3f030ae6	0.51188505
164	0x3d9c1d66	0.07622795
165	0xbebb17fb	-0.36541733
166	0x3d9053f8	0.07047266
167	0xbe2f2ea3	-0.17107634
168	0x3d187ae2	0.037226565
169	0xbd051118	-0.032487005
170	0xbe32c203	-0.17456822
171	0x3e934795	0.2876555
172	0xbd8cf0af	-0.06881844
173	0xbddd5f36	-0.10809176
174	0xbf0b14ee	-0.5432881
175	0x3d974032	0.07385291
176	0x3da11f55	0.07867304
177	0xbe51ae6b	-0.20476691
178	0xbe548d7d	-0.20757098
179	0xbd28a97b	-0.041177254
180	0xbdc976d2	-0.09837116
181	0xbe72d681	-0.23714639
182	0xbef328e8	-0.47492146
183	0xbce8ea18	-0.028431937
184	0x3d8c2d98	0.06844634
185	0x3d854e9f	0.065091364
186	0x3e9e8bba	0.30965978
187	0xbe2afea5	-0.16698702
188	0xbe5d035c	-0.21583313
189	0x3dd698a1	0.104783304
190	0xbe9eb3fb	-0.3099669
191	0xbeba6d5c	-0.3641156
192	0x3e2d4dee	0.16924259
193	0xbeb7244c	-0.3576988
194	0xbd01fe7c	-0.031736836
195	0x3eb9f427	0.36319086
196	0xbe57a1ce	-0.21057817
197	0x3dfebd0a	0.124384
198	0xbe1eb970	-0.15500426
199	0xbd35b4c0	-0.04436183
200	0x3dc052f4	0.09390822
201	0x3db69f43	0.089170955
202	0x3cec5c77	0.028852684
203	0xbe84afc0	-0.25915337
204	0xbe0e7218	-0.13910711
205	0xbe4463f6	-0.19178757
206	0xbef6bcae	-0.48190826
207	0xbef4349d	-0.4769639
208	0x39eda6c6	0.00045328418
209	0xbea24aa1	-0.31697562
210	0xbe1ba4fe	-0.15199658
211	0x3e3338c1	0.17502119
212	0xbeab44e0	-0.33450985
213	0x3d3ff92b	0.046868484
214	0xbe90d927	-0.28290674
215	0xbe9f24d2	-0.3108278
216	0xbca48e07	-0.020087255
217	0xbf08f9fe	-0.5350646
218	0x3e07ec76	0.13273796
219	0x3f0b04a3	0.5430395
220	0xbddd1f73	-0.10797014
221	0x3e08deaf	0.13366197
222	0x3cd1855e	0.02557629
223	0xbdc7df70	-0.09759414
224	0x3c4f27c0	0.0126437545
225	0xbbec88e6	-0.007218468
226	0x3d9fb6fe	0.07798575
227	0x3ed05266	0.40687865
228	0xbe09310d	-0.13397618
229	0x3e8c87a5	0.2744724
230	0xbf98db59	-1.194194
231	0x3f92ac32	1.14588
232	0xbea3b9d6	-0.3197772
233	0xbcfedf5d	-0.031112367
234	0xbf7598b3	-0.95936126
235	0x3e9b5a25	0.30342212
236	0x3ec631ad	0.38709775
237	0x3ed920c0	0.424078
238	0xbf6d33b3	-0.9265701
239	0xbd8a7610	-0.067608
240	0x3e85404c	0.26025617
241	0xbf8f41f9	-1.1192008
242	0x3eb986df	0.3623571
243	0x3dd86fd4	0.105682045
244	0xbeb2001e	-0.34765714
245	0xbdcf81fd	-0.10132215
246	0xbe18cd8d	-0.14922161
247	0xbf3fd03a	-0.74927104
248	0xbda8d661	-0.082440145
249	0xbec77d19	-0.3896263
250	0xbd41707d	-0.047226418
251	0x3e6a3fca	0.22875896
252	0xbe75d770	-0.24007964
253	0x3e94bb3d	0.290491
254	0x3e061345	0.13093288
255	0xbc8a8965	-0.016911218

input_layer.bias f4 [128]
0	0xbf2a1244	-0.6643412
1	0xbf4ba11a	-0.79542696
2	0xbee9485d	-0.4556302
3	0xbee53406	-0.44766253
4	0xbf2dc83e	-0.6788367
5	0xbf3bff56	-0.73436487
6	0xbf201a43	-0.6254007
7	0xbf267297	-0.650186
8	0xbf3f2abd	-0.7467459
9	0xbf2332cd	-0.6374939
10	0xbf45cc06	-0.7726444
11	0xbeb4ab5b	-0.35286984
12	0xbf0e289d	-0.5553072
13	0xbf1ba614	-0.6080029
14	0xbeed7261	-0.46376327
15	0xbec72bef	-0.38900706
16	0xbf139c74	-0.57660604
17	0xbf3687d6	-0.7130102
18	0xbf3adb65	-0.7299102
19	0xbf283716	-0.65709054
20	0xbf3eab35	-0.7447999
21	0xbe8fd109	-0.2808917
22	0xbf0801d8	-0.53127813
23	0xbf36bb9c	-0.7138002
24	0xbeb7e5e8	-0.35917592
25	0xbf0745db	-0.52840966
26	0xbf1b5c14	-0.60687375
27	0xbf3f6b30	-0.7477293
28	0xbf3bb8f6	-0.73329103
29	0xbf75306d	-0.95777017
30	0xbf4c9815	-0.7991956
31	0xbf2c025a	-0.6719109
32	0xbf0ccbca	-0.5499846
33	0xbed6bfb6	-0.4194314
34	0xbf085891	-0.5326014
35	0xbf02b240	-0.5105324
36	0xbf630a8a	-0.88687956
37	0xbf2bd113	-0.67115897
38	0x3e50e760	0.20400763
39	0xbf388b93	-0.72087973
40	0xbf6ca3b7	-0.9243731
41	0xbf0f9e45	-0.56100875
42	0xbf32b2b8	-0.69803953
43	0xbef013d9	-0.46890143
44	0xbf45798f	-0.7713861
45	0xbf408e5d	-0.7521723
46	0xbf097775	-0.536979
47	0xbf6a4abb	-0.9152028
48	0xbea206ad	-0.31645718
49	0xbf812a61	-1.0091058
50	0xbf6c3869	-0.92273575
51	0xbf1fa8f4	-0.62367177
52	0xbf297775	-0.661979
53	0xbf800e0e	-1.0004289
54	0xbefae7c0	-0.49004936
55	0xbe8df506	-0.27726
56	0xbf3a28ba	-0.72718394
57	0xbe73330b	-0.2374994
58	0xbe89eebc	-0.26939952
59	0xbfa6916e	-1.3013132
60	0xbf10d187	-0.56569713
61	0xbf186d6b	-0.5954196
62	0xbd181bfc	-0.037136063
63	0x3f065062	0.52466404
64	0xbfa5b524	-1.2945905
65	0xbe685639	-0.22689141
66	0xbf2d1c48	-0.6762128
67	0xbef045a5	-0.46928135
68	0xbf57aff6	-0.8425287
69	0xbf24fa48	-0.644444
70	0xbeecf564	-0.46280968
71	0xbf446976	-0.7672342
72	0xbf5bc61c	-0.85849166
73	0xbe85ad4a	-0.26108772
74	0xbf21b1ec	-0.6316211
75	0xbee6352a	-0.44962436
76	0xbf91a44c	-1.1378264
77	0xbe852574	-0.26005137
78	0xbf536cce	-0.825879
79	0xbecab94e	-0.395945
80	0xbeecd18e	-0.46253628
81	0xbf08841f	-0.533266
82	0xbf04b0eb	-0.51832455
83	0xbebe2549	-0.3713782
84	0xbf4236a4	-0.75864625
85	0xbf608e19	-0.87716824
86	0xbeaf90d7	-0.34290192
87	0xbeaf39f3	-0.342239
88	0xbf4f1cd7	-0.8090338
89	0xbf5adea5	-0.8549598
90	0xbe9a1390	-0.3009305
91	0xbf320d2e	-0.6955136
92	0xbf2eede1	-0.68331724
93	0xbf1c9629	-0.61166626
94	0x3f00deab	0.50339764
95	0xbf5374ba	-0.82599986
96	0xbf5bb66f	-0.85825247
97	0xbf0ba847	-0.54553646
98	0xbf2cc0f3	-0.6748192
99	0xbf24e2f2	-0.6440879
100	0xbec43ab1	-0.38326028
101	0xbec7e5b1	-0.39042428
102	0xbf04dcb1	-0.5189925
103	0xbeb829e1	-0.3596945
104	0xbf0d0e72	-0.55100167
105	0xbdd5dbfd	-0.1044235
106	0xbf2b3ce7	-0.66889805
107	0xbf4cbd0e	-0.79975975
108	0xbf2e3d07	-0.6806187
109	0xbf4b871b	-0.7950303
110	0xbf30a70c	-0.69004893
111	0xbf3b1abc	-0.7308767
112	0xbf2b7435	-0.6697419
113	0xbf31583c	-0.6927526
114	0xbdb632e2	-0.08896424
115	0xbeb4182f	-0.351747
116	0xbee71b6c	-0.4513811
117	0xbf2e08c1	-0.6798211
118	0xbf04ee31	-0.5192595
119	0xbf252e0a	-0.64523375
120	0xbf4ac754	-0.792104
121	0xbf998804	-1.1994634
122	0xbefd1214	-0.49427855
123	0xbed1538f	-0.40884063
124	0xbe3e13f1	-0.18562295
125	0xbf3dc72d	-0.74132043
126	0xbee92fb2	-0.455442
127	0xbf326d0b	-0.69697636

action_layer.weight f4 [4, 128]
0	0xbdd0981f	-0.10185265
1	0xbe396e49	-0.18108477
2	0x3dd79bd0	0.10527766
3	0xbefd0f6e	-0.49425834
4	0xbe130aa5	-0.1435953
5	0x3d3741b5	0.044740397
6	0xbe71bca2	-0.23607114
7	0xbe7a15ff	-0.24422453
8	0x3dcde4e2	0.100534216
9	0xbdc7240b	-0.097236715
10	0xbf54a296	-0.83060586
11	0x3e16764e	0.14693567
12	0xbeaa4ecf	-0.3326325
13	0xbe955f94	-0.29174483
14	0xbe64d73d	-0.22347732
15	0xbf174cf0	-0.5910177
16	0x3e0e366e	0.13887951
17	0xbe972319	-0.29518965
18	0x3b7b1543	0.0038312234
19	0xbdbaa816	-0.09114091
20	0xbe133626	-0.14376125
21	0x3ef0c452	0.4702478
22	0xbe27bab0	-0.1637981
23	0xbe64f097	-0.22357403
24	0x3e1055cb	0.14095227
25	0xbdd5285b	-0.10408088
26	0xbe7cb201	-0.24677278
27	0xbebb5314	-0.3658682
28	0x3ebe9883	0.37225732
29	0x3d782e54	0.060591057
30	0xbebd7e63	-0.37010488
31	0xbe1bd110	-0.1521647
32	0xbe8f8516	-0.28031224
33	0xbfb86b30	-1.4407711
34	0x3ef2143e	0.4728107
35	0xbeaaf9ac	-0.3339361
36	0x3f3f3ad3	0.74699134
37	0xbc7ddd29	-0.015494623
38	0x3fb4b963	1.4119076
39	0x3dbc4f93	0.09194865
40	0xbf893d17	-1.0721768
41	0xbec1cac8	-0.37850022
42	0xbf1becca	-0.60908186
43	0x3d0b10d7	0.033951607
44	0xbe9ddadb	-0.30831036
45	0xbd9a9faa	-0.07549985
46	0xbe3872d8	-0.1801256
47	0xbf071997	-0.5277342
48	0x3e1e774b	0.15475194
49	0x3e9a18ce	0.3009705
50	0x3f025819	0.50915676
51	0xbe18193f	-0.1485338
52	0xbd10411b	-0.03521834
53	0x3c659db2	0.014014648
54	0xbe3b3d55	-0.18285115
55	0xbf5fadc0	-0.87374496
56	0xbefd5fba	-0.49487096
57	0xbe255d67	-0.16148911
58	0xbedc28a5	-0.4299976
59	0x3edbb0f5	0.42908445
60	0x3ba5739b	0.0050491816
61	0x3e9a8352	0.30178314
62	0xbea7d48b	-0.32779345
63	0x3ffc401e	1.9707067
64	0xbebd76f9	-0.3700483
65	0x3f665a88	0.8998189
66	0x3cb3744f	0.021906046
67	0xbe0e2003	-0.13879399
68	0x3ec501d6	0.38477963
69	0xbe1b5f6a	-0.15173116
70	0xbe60c73e	-0.21951005
71	0x3eac4ba1	0.3365145
72	0xbf2661b6	-0.64992845
73	0xbd9f85f1	-0.07789219
74	0xbe298d8b	-0.165579
75	0xbe80aa4f	-0.25129935
76	0x3f73b1a6	0.95192945
77	0xbf074921	-0.5284596
78	0x3f60b1c4	0.8777125
79	0xbd45e078	-0.048309773
80	0xbe89ba35	-0.26899877
81	0x3e5359fe	0.20639798
82	0xbecf79b6	-0.40522546
83	0xbe0ed344	-0.13947779
84	0x3da82b8c	0.08211431
85	0x3e955f47	0.29174253
86	0xbecf7ccd	-0.40524903
87	0xbea6ae1e	-0.32554716
88	0xbed50643	-0.4160634
89	0xbf6100ad	-0.87891656
90	0xbe8316c2	-0.256033
91	0xbd7a29b4	-0.061074927
92	0xbe83d6ba	-0.2574976
93	0xbf7c083b	-0.9845006
94	0xbf3cb10e	-0.73707664
95	0xbe984cf3	-0.29746208
96	0xbee68a92	-0.45027596
97	0xbf051a3d	-0.5199316
98	0x3d7ade2b	0.061247032
99	0xbe1777a4	-0.14791733
100	0x3d464c37	0.048412528
101	0xbe29020c	-0.16504687
102	0xbec68d77	-0.38779804
103	0x3f5830ef	0.84449667
104	0xbeaabcc7	-0.3334715
105	0xbeab2365	-0.3342544
106	0x3eca6ab7	0.39534542
107	0x3ea128be	0.31476396
108	0xbf2aba48	-0.6669049
109	0x3d2c3d1a	0.04205046
110	0xbe50841a	-0.20362893
111	0xbde8e06c	-0.1137093
112	0xbd937783	-0.072005294
113	0xbebbc387	-0.36672613
114	0xbfa68048	-1.3007898
115	0xbf195ec2	-0.59910214
116	0x3da0c973	0.078509234
117	0x3ec9b309	0.39394405
118	0xbf3c00cc	-0.73438716
119	0xbdd871d1	-0.10568584
120	0xbd3639c9	-0.044488702
121	0x3f17eb41	0.59343344
122	0xbcbe1a49	-0.023205893
123	0xbdc1f8e6	-0.09471302
124	0x3e85cb4a	0.2613166
125	0xbf25b6f6	-0.647323
126	0xbe2b9d46	-0.16759214
127	0x3ebd96bc	0.37029064
128	0x3d3f63ff	0.046726223
129	0x3e0f5626	0.13997707
130	0xbcb8d7e8	-0.02256389
131	0x3fbc5a6d	1.4715096
132	0xbd8e807d	-0.06958101
133	0x3eb1e39d	0.34743968
134	0xbebb55e5	-0.3658897
135	0x40299cf0	2.6502037
136	0x3e8a32d8	0.26991916
137	0x3d072266	0.03299179
138	0x4019fb99	2.4059813
139	0xbf2aad3a	-0.6667057
140	0xbe6864a0	-0.22694635
141	0x3eeeb608	0.46623254
142	0x3f0d43c3	0.5518152
143	0xbf0317e4	-0.5120833
144	0x3ee88550	0.4541421
145	0xbd951349	-0.07279069
146	0xbe2f3dd8	-0.17113435
147	0xbe8b82bc	-0.2724818
148	0x3ed7b5ca	0.42130882
149	0x3ed18c21	0.40927222
150	0xbc28f8cc	-0.010313224
151	0x3cc18979	0.023625122
152	0xbc805f75	-0.015670517
153	0x3e91797a	0.28412992
154	0x3bfa39e4	0.0076362956
155	0x3f04296c	0.51625705
156	0xbf833f65	-1.0253721
157	0x3cd1906f	0.025581567
158	0x3ee3d25a	0.44496423
159	0x3e1cc725	0.15310343
160	0xbe2179eb	-0.15769164
161	0xbf98b560	-1.1930351
162	0xbf43f0fc	-0.7653959
163	0xbd90c1a1	-0.07068182
164	0x3d4d0fd0	0.050063908
165	0xbd623193	-0.05522306
166	0x3e84bb82	0.25924307
167	0xbe8963fb	-0.26834092
168	0xbe81286f	-0.2522616
169	0xbe4f2bba	-0.20231524
170	0x3fdf6d6f	1.7455271
171	0x3fdb027f	1.7110137
172	0xbd5e90ad	-0.054337192
173	0x3f043c8b	0.5165488
174	0x3fba4998	1.4553709
175	0x3e5cc45e	0.21559283
176	0x3c521e41	0.012824596
177	0x3ee90bad	0.4551672
178	0x3f22fe54	0.63669324
179	0x3da9ecd7	0.08297127
180	0x3d4ae16d	0.04953139
181	0xbea2843f	-0.3174152
182	0x3e7f3deb	0.24925964
183	0x3f99a789	1.2004253
184	0xbe9531dc	-0.29139602
185	0x3baf1c3a	0.005343941
186	0x3f234b30	0.637866
187	0xbe66c99a	-0.22537842
188	0x3dd2fb77	0.10301869
189	0xbe84f2cc	-0.2596649
190	0xbdc751bc	-0.097323865
191	0x40026c03	2.0378425
192	0xbec533ec	-0.38516176
193	0x3e9bcd44	0.30430043
194	0xbf1f7c5a	-0.6229912
195	0x3da65305	0.081213035
196	0xbf198cf5	-0.5998071
197	0x3e38263a	0.17983332
198	0x3e50f60e	0.20406362
199	0x3f08011d	0.531267
200	0x3f2038f7	0.6258692
201	0x3ebe36a9	0.37151077
202	0xbd7d34a2	-0.061817773
203	0x3e1b1382	0.1514416
204	0xbe836cbc	-0.25668895
205	0xbdbc286e	-0.09187399
206	0xbd346bce	-0.044048123
207	0xbd8f1838	-0.06987041
208	0xbe138b79	-0.14408673
209	0xbcf99457	-0.030466242
210	0xbf32ec75	-0.69892055
211	0x3e12d2cf	0.1433823
212	0xbea665b3	-0.32499465
213	0x3f0fa337	0.5610842
214	0xbee2434b	-0.44191965
215	0xbfb619d4	-1.4226632
216	0xbf26e199	-0.65187985
217	0x3f9e3682	1.2360384
218	0x4035a9ac	2.838481
219	0x3e936495	0.28787675
220	0xbe8226e2	-0.2542029
221	0x3e08f519	0.13374747
222	0xbe6b0b26	-0.22953472
223	0x3eea1ae3	0.45723638
224	0x3f2d27f2	0.67639077
225	0x3f095c25	0.53656226
226	0xbf32a4bf	-0.6978263
227	0xbd638fce	-0.055557065
228	0x3c9640f8	0.018341526
229	0xbeea6363	-0.4577895
230	0x3e44777b	0.19186203
231	0xbea3f19b	-0.32020268
232	0x3e29c6a0	0.16579676
233	0x3dcb3efe	0.09924124
234	0x3ecf4681	0.40483478
235	0x3f03dbe7	0.5150742
236	0x4075f25d	3.8429177
237	0x3f14bf37	0.5810427
238	0x3eadfea0	0.33983326
239	0x3ebe43c2	0.3716107
240	0x3d295ea4	0.041350022
241	0xbeb8488b	-0.35992846
242	0x3e012bdb	0.12614386
243	0x3f8e659f	1.1124762
244	0x3ebd07e6	0.3692009
245	0x3ea1a6cd	0.3157257
246	0x3cea7b5d	0.028623277
247	0x3c0e32e4	0.008679125
248	0xbe8256a8	-0.25456738
249	0x3dc06918	0.09395045
250	0x3e8dece9	0.2771981
251	0xbd8878bb	-0.066636525
252	0xbfdc235b	-1.719829
253	0x3e3519ee	0.17685673
254	0xbb28c73c	-0.0025753519
255	0x3eb9ae38	0.3626573

action_layer.bias f4 [4]
0	0xbd27900f	-0.04090887
1	0x3dcee1fd	0.101016976
2	0x3d7af2d0	0.06126672
3	0x3ef5ac20	0.47982883

value_layer.weight f4 [1, 128]
0	0x3ca21a68	0.019787982
1	0x3da4bccf	0.08043825
2	0xbca85361	-0.02054757
3	0x3e2a9c46	0.16661176
4	0xbc1505dc	-0.009095635
5	0x3d34fb80	0.04418516
6	0x3d75784c	0.059929177
7	0x3e15e347	0.1463748
8	0x3dc013db	0.09378787
9	0x3e5101bb	0.20410816
10	0x3baddd9e	0.00530596
11	0x3d0a248e	0.033726268
12	0x3d343887	0.04399922
13	0xbd6f1b75	-0.058375794
14	0x3e149a21	0.1451192
15	0xbe9a31ed	-0.30116215
16	0x3d05c7ac	0.032661125
17	0xbda31732	-0.079634085
18	0x3da60d93	0.08108058
19	0x3df0d659	0.117596336
20	0x3e0d7cf5	0.13817199
21	0x3a206967	0.0006119222
22	0xbb0eb8fc	-0.002177774
23	0x3dec42a4	0.11536148
24	0x3cecbde8	0.028899148
25	0xbcad248d	-0.021135593
26	0xbd18010b	-0.03711037
27	0x3e555b8a	0.208357
28	0x3e445e99	0.19176711
29	0x3eb2aa4c	0.3489555
30	0x3dfbc984	0.122942954
31	0xbcc31c2b	-0.023817142
32	0x3d086758	0.03330168
33	0x3e285ee6	0.16442451
34	0x3e70a72b	0.2350127
35	0xbd3ea890	-0.046547472
36	0xbe13c27a	-0.14429656
37	0x3e04b2b3	0.12958793
38	0x3d579f24	0.052642003
39	0xbd15af12	-0.036543913
40	0xbca2559a	-0.019816209
41	0xbd0d8570	-0.034551084
42	0xbd5ec09c	-0.054382905
43	0xbd9dab80	-0.07698727
44	0xbdb25445	-0.087074794
45	0xbd95958f	-0.07303917
46	0xbd930115	-0.07177941
47	0x3a0fb309	0.00054816954
48	0x3e407e01	0.18798067
49	0x3de7d0ad	0.113190986
50	0xbdae3133	-0.08505478
51	0xbd2d3f4f	-0.042296704
52	0xbe3142e8	-0.17310679
53	0xbeb5e4f2	-0.35526234
54	0x3d1809f6	0.037118874
55	0x3ede95fd	0.43473807
56	0xbd26fc56	-0.04076799
57	0xbc74e665	-0.014947508
58	0xbc115d66	-0.008872366
59	0xbe3f5297	-0.1868385
60	0xbd2c2c2e	-0.04203432
61	0xbe6d8d79	-0.23198499
62	0x3e778814	0.24173003
63	0x3eb937bd	0.36175337
64	0x3e016090	0.12634492
65	0xbd30d7cb	-0.043174546
66	0x3cb75a84	0.022382028
67	0x3d454b27	0.048167374
68	0x3e6b5910	0.22983193
69	0x3df02a23	0.11726787
70	0x3d1483bd	0.036258448
71	0xbe0f9c49	-0.14024462
72	0x3e482e15	0.19548829
73	0x3df3ef86	0.1191092
74	0x3da84b0e	0.082174405
75	0x3d632214	0.05545242
76	0x3df5309e	0.119721636
77	0xbdff625a	-0.12469931
78	0x3eb282fc	0.34865558
79	0xbc97e953	-0.018543875
80	0xbcccb30a	-0.024987716
81	0xbd8ea59e	-0.06965183
82	0xbb1bf989	-0.0023799858
83	0x3dcac000	0.09899902
84	0xbd2c0d40	-0.042004824
85	0xbe199815	-0.14999421
86	0x3dfd8941	0.12379695
87	0xbe14866c	-0.14504403
88	0x3df3b461	0.11899639
89	0x3d888c17	0.06667345
90	0xbe275a41	-0.16343023
91	0x3dc64459	0.09681005
92	0x3e1a0b3c	0.15043348
93	0x3ed9d2ca	0.42543632
94	0xbf08c2d8	-0.5342231
95	0x3e107c10	0.14109826
96	0xbd5d91e4	-0.05409421
97	0xbe16dc8e	-0.14732572
98	0xbe1faa23	-0.15592246
99	0x3dc548d9	0.09633035
100	0xbdb24f17	-0.087064914
101	0x3e536ee2	0.20647767
102	0xbeb0b3dc	-0.34512222
103	0x3dbf8af5	0.09352676
104	0xbbb257a7	-0.005442578
105	0x3caa8567	0.020815564
106	0x3df0e901	0.11763192
107	0xbd3280d4	-0.04357989
108	0x3e8674ee	0.26261085
109	0x3c59f849	0.013303825
110	0xbd883093	-0.0664989
111	0x3daa212c	0.08307108
112	0x3e07f3ee	0.13276646
113	0xbc91f1bf	-0.017815469
114	0x3e7afa93	0.24509649
115	0xbdf40b9f	-0.11916279
116	0x3d395319	0.045245264
117	0x3aec3589	0.0018021326
118	0xbd99c815	-0.07508866
119	0xbd180cc3	-0.037121546
120	0x3bfe0628	0.0077521987
121	0x3e167587	0.1469327
122	0x3d7f35b6	0.062307082
123	0x3daa1cc9	0.083062716
124	0x3d63bc4b	0.055599492
125	0x3dd99292	0.10623659
126	0x3d40d847	0.04708126
127	0x3dadb143	0.084810756
