checkpoint/LunarLander_9000.pth (torch_old, 8217 bytes, 5 tensors)

input_layer.weight f4 [128, 8]
0.08070432 -0.6020106 -0.1730892 0.19291037 -0.0582843 0.027266333 -0.25633025 0.20174229
0.009092821 -0.040935647 -0.28391802 0.023581319 -0.039521154 0.069117725 -0.296824 -0.24772148
0.27656648 -0.41744733 0.015569722 0.25468594 -0.18715487 0.07759445 -0.28353506 -0.11600974
0.96529084 -0.98474014 -0.17639293 -1.8338009 -2.0037768 -3.0567384 -0.6492411 -0.39125675
0.4119491 -0.5652756 0.0949599 0.39112973 0.08015275 -0.08617287 -0.44119158 0.06826121
-0.08140459 -0.09989349 -0.11892563 0.029330105 -0.3272875 0.09931516 -0.26650658 -0.12207974
0.18501388 -0.0018771475 0.11025525 0.071714796 -0.26544315 0.21083899 -0.66434664 -0.31900886
-0.3750249 -2.1535516 2.295303 3.997694 -1.7669636 -0.2138938 -0.82053876 0.1522236
0.2896292 -0.43502787 -0.23320006 0.47695413 -0.07478527 -0.290802 -0.22753534 -0.2882263
0.36369902 -0.15861739 0.33105344 0.22322872 -0.27751485 0.22710663 -0.268186 -0.28378314
0.9746056 -1.8080945 -2.6186626 0.27528667 -2.1108246 0.91646457 0.4565219 -2.4658113
0.018046727 -0.14954224 0.011774235 0.12166933 0.032262206 -0.1184051 -0.81329083 -0.35223466
0.6663406 -0.5861826 -0.26833412 -1.0719924 0.75079036 -0.85101503 -0.9303155 -0.50246817
-0.08029932 -0.55180866 0.30269924 0.14138655 0.07602493 -0.15705979 -0.030617217 -0.366237
-0.07309505 -0.40308225 0.08853567 0.23036343 0.0026203867 -0.25141063 -0.67901057 -0.07651446
-0.39166355 -5.6859503 0.4879858 -2.95525 -0.024649275 0.06713856 -3.1576152 -0.45575967
0.29674938 -0.30811965 -0.04307078 0.90014046 -0.109020166 0.05308141 -1.5854057 0.0027214466
0.12626877 -0.4243184 -0.10416501 0.29668525 -0.08563913 0.21844156 -0.39501837 -0.45596504
0.2255007 0.039649315 0.3507647 0.13839355 -0.08935338 -0.047355525 0.19542964 -0.49058405
0.1281797 -0.042250507 0.46135977 0.2839065 -0.32436743 0.05503989 -0.7093562 0.1465663
0.30042762 -1.08138 0.20348701 1.1111697 0.38841626 -0.38985038 -0.20433266 -0.17107634
-0.15109655 -0.026991388 -0.1712492 0.30712935 -0.049112417 -0.012071207 -0.5432881 -0.5168946
0.06525339 -0.2043369 -0.20005749 -0.035117213 -0.0994125 -0.21144135 -0.47492146 -0.037794814
0.06844634 0.065091364 0.30965978 -0.16698702 -0.21583313 0.104783304 -0.3099669 -0.3641156
0.16923545 -0.3576988 -0.031737786 0.36319086 -0.2105779 0.12438335 -0.15500426 -0.04436183
0.11984108 0.08928104 0.030912954 -0.2556465 -0.12996738 -0.15006463 -0.48190826 -0.4769639
-0.026957847 -0.31861353 -0.15218022 0.16381076 -0.38208237 0.010196381 -0.28290674 -0.3108278
-0.020087255 -0.5350646 0.13273796 0.5430395 -0.10797014 0.13366197 0.02557629 -0.09759414
-1.3432959 -0.7702934 0.8744049 0.048693586 -0.6822733 0.5276896 -0.83442026 0.32457492
-0.29615614 -0.035768338 -0.6324268 0.38265058 -0.22144122 -0.276461 -0.9265701 -0.84282005
-0.30393454 -0.53344697 -0.023870064 0.4958995 0.22090967 -0.08731054 -0.17265789 -0.74927104
-0.29693145 -0.35527477 -0.036269404 0.22026987 -0.21455511 0.305908 -0.36400232 -0.3172792
00000000: 4e48 a53d 5e1d 1abf 4c3e 31be 4c8a 453e
00000010: 85bb 6ebd a55d df3c b83d 83be 8895 4e3e
00000020: 0efa 143c 23ac 27bd b45d 91be 9c2d c13c
00000030: efe0 21bd 988d 8d3d 51f9 97be b3aa 7dbe
00000040: 1f9a 8d3e a8bb d5be 2618 7f3c 3266 823e
00000050: 87a5 3fbe d7e9 9e3d 822b 91be 8496 edbd
00000060: 4d1d 773f ee17 7cbf 59a0 34be fdb9 eabf
00000070: e13d 00c0 9aa1 43c0 aa34 26bf ce52 c8be
00000080: feea d23e e7b5 10bf 567a c23d 2842 c83e
00000090: 2027 a43d 677b b0bd dde3 e1be 89cc 8b3d
000000a0: 73b7 a6bd f594 ccbd 488f f3bd b045 f03c
000000b0: 3a92 a7be bf65 cb3d 8d73 88be f104 fabd
000000c0: 4774 3d3e 9e0a f6ba 81cd e13d 35df 923d
000000d0: 2ae8 87be 2de6 573e 9f12 2abf 2155 a3be
000000e0: 4403 c0be cad3 09c0 3fe6 1240 38da 7f40
000000f0: dd2b e2bf fa06 5bbe d40e 52bf 81e0 1b3e
00000100: 474a 943e f9bb debe ffcb 6ebe 5533 f43e
00000110: 0529 99bd 00e4 94be 06ff 68be 6692 93be
00000120: c236 ba3e 996c 22be d67f a93e 1296 643e
00000130: 6d16 8ebe a48e 683e ad4f 89be 064c 91be
00000140: c17f 793f a46f e7bf 2b98 27c0 60f2 8c3e
00000150: c017 07c0 6c9d 6a3f 3dbd e93e dacf 1dc0
00000160: bbd6 933c 9a21 19be b9e8 403c c52d f93d
00000170: 6025 043d 607e f2bd d433 50bf 1a58 b4be
00000180: 4c95 2a3f 1010 16bf 1763 89be 0c37 89bf
00000190: cc33 403f 1fdc 59bf 2829 6ebf c1a1 00bf
000001a0: f873 a4bd 5543 0dbf 65fb 9a3e a3c7 103e
000001b0: f5b2 9b3d 48d4 20be f5d0 fabc 6b83 bbbe
000001c0: dcb2 95bd cc60 cebe 3052 b53d 64e4 6b3e
000001d0: cbba 2b3b e5b8 80be a3d3 2dbf 9db3 9cbd
000001e0: 2088 c8be 4ef3 b5c0 46d9 f93e d122 3dc0
000001f0: 47ed c9bc f17f 893d 5e16 4ac0 5559 e9be
00000200: 89ef 973e dcc1 9dbe fc6a 30bd 9b6f 663f
00000210: f745 dfbd e46b 593d 93ee cabf 4c5a 323b
00000220: 9a4c 013e 4340 d9be 7754 d5bd 21e7 973e
00000230: 9163 afbd 25af 5f3e d93f cabe 4074 e9be
00000240: a8e9 663e 5267 223d 6e97 b33e 0ab7 0d3e
00000250: e8fe b6bd def7 41bd b51e 483e d52d fbbe
00000260: 8a41 033e de0e 2dbd 5937 ec3e 315c 913e
00000270: 7d13 a6be 8271 613d 5e98 35bf 7a15 163e
00000280: a6d1 993e a96a 8abf e65e 503e cf3a 8e3f
00000290: 7fde c63e 789a c7be 953c 51be a32e 2fbe
000002a0: 0eb9 1abe 0b1d ddbc f35b 2fbe 0f40 9d3e
000002b0: 1a2a 49bd 50c6 45bc ee14 0bbf 3453 04bf
000002c0: 92a3 853d b13d 51be dfdb 4cbe 11d7 0fbd
000002d0: c898 cbbd 1584 58be e828 f3be bcce 1abd
000002e0: 982d 8c3d 9f4e 853d ba8b 9e3e a5fe 2abe
000002f0: 5c03 5dbe a198 d63d fbb3 9ebe 5c6d babe
00000300: 0f4c 2d3e 4c24 b7be 7bff 01bd 27f4 b93e
00000310: bca1 57be b3bc fe3d 70b9 1ebe c0b4 35bd
00000320: 3d6f f53d fad8 b63d 2a3d fd3c 19e4 82be
00000330: 2b16 05be 8baa 19be aebc f6be 9d34 f4be
00000340: b4d6 dcbc 5021 a3be 22d5 1bbe 02be 273e
00000350: 4da0 c3be b90e 273c 27d9 90be d224 9fbe
00000360: 078e a4bc fef9 08bf 76ec 073e a304 0b3f
00000370: 731f ddbd afde 083e 5e85 d13c 70df c7bd
00000380: 1ff1 abbf f331 45bf 00d9 5f3f ed72 473d
00000390: 77a9 2ebf aa16 073f 919c 55bf af2e a63e
000003a0: c7a1 97be d281 12bd b9e6 21bf c7ea c33e
000003b0: 7dc1 62be 4c8c 8dbe b333 6dbf 0ec3 57bf
000003c0: 4f9d 9bbe fb8f 08bf 278b c3bc 8ae6 fd3e
000003d0: 2536 623e decf b2bd 3bcd 30be 3ad0 3fbf
000003e0: 6607 98be 93e6 b5be 3a8f 14bd 6d8e 613e
000003f0: 56b4 5bbe f99f 9c3e 835e babe 6b72 a2be

input_layer.bias f4 [128]
-0.6643412 -0.79542696 -0.4556302 -1.614081 -0.6788367 -0.73436487 -0.67521596 -1.1783493
-0.7467459 -0.7601531 -1.9520118 -0.8930086 -0.825353 -0.7009274 -0.4216991 -0.20501389
-0.69472533 -0.7130102 -0.7392724 -0.6679664 -1.2419921 -0.48922873 -0.5475053 -0.7138002
-0.3591809 -0.5448118 -0.5801684 -0.7477293 -1.8202132 -1.4652305 -1.333141 -0.95689464
-0.5499846 -0.9293195 -0.56717956 -0.5539979 -1.0784706 -0.67115897 0.9009654 -0.7234043
-1.1575569 -0.65165436 -1.3144084 -1.1917778 -1.5805966 -0.7521723 -0.6662607 -1.3283174
-0.31645718 -1.0897274 -0.9476154 -0.62488097 -0.88904417 -2.1689599 -0.8742601 -0.986248
-0.85102504 -0.2374994 -0.47479627 -1.1911197 -0.56569713 -0.5954196 -0.79318607 -0.66521746
-1.3614321 -0.62074697 -0.7585581 -0.81107986 -1.0654886 -0.644444 -1.644584 -0.96488297
-0.86725855 -0.26108772 -0.8717247 -1.0536784 -1.6079249 -0.5303193 -1.2210727 -0.40364364
-0.46254352 -0.533266 -1.2869567 -0.35895008 -0.75864625 -1.2986767 -1.3481989 -0.4986357
-1.1591347 -1.2725935 -1.0881112 -1.5035415 -0.68331724 -1.0622296 -0.13485335 -0.95612496
-1.1001834 -0.96237046 -0.6982756 -1.330754 -0.65036935 -0.61338127 -0.5189925 -0.89034855
-0.55774903 -0.538368 -0.9463404 -1.1332803 -0.6671727 -0.7950303 -0.69005054 -0.77279896
-0.6697419 -1.5973332 -0.6869566 -0.3198386 -0.4513811 -0.68218946 -0.84226936 -0.97099614
-0.87090284 -1.8177819 -0.49427855 -0.5710499 -1.414441 -0.7663755 -0.455442 -1.123098
00000000: 4412 2abf 1aa1 4bbf 5d48 e9be 359a cebf
00000010: 3ec8 2dbf 56ff 3bbf f4da 2cbf 26d4 96bf
00000020: bd2a 3fbf 6599 42bf 86db f9bf 369c 64bf
00000030: 564a 53bf fa6f 33bf f2e8 d7be 29ef 51be
00000040: 85d9 31bf d687 36bf f540 3dbf d9ff 2abf
00000050: 99f9 9ebf 307c fabe 4f29 0cbf 9cbb 36bf
00000060: 8fe6 b7be c978 0bbf eb85 14bf 306b 3fbf
00000070: bffc e8bf ac8c bbbf 5da4 aabf 0cf7 74bf
00000080: cacb 0cbf e2e7 6dbf ae32 11bf ced2 0dbf
00000090: 530b 8abf 13d1 2bbf aba5 663f 0631 39bf
000000a0: d32a 94bf d2d2 26bf 893e a8bf 2d8c 98bf
000000b0: fd50 cabf 5d8e 40bf 1090 2abf 4e06 aabf
000000c0: ad06 a2be 307c 8bbf ec96 72bf 33f8 1fbf
000000d0: 6698 63bf 3dd0 0ac0 83cf 5fbf c07a 7cbf
000000e0: c7dc 59bf 0b33 73be 7f18 f3be 9c76 98bf
000000f0: 87d1 10bf 6b6d 18bf 3e0e 4bbf b14b 2abf
00000100: 6843 aebf 46e9 1ebf dd30 42bf eea2 4fbf
00000110: ee61 88bf 48fa 24bf ba81 d2bf 9202 77bf
00000120: a804 5ebf 4aad 85be 5a29 5fbf efde 86bf
00000130: 7cd0 cdbf 01c3 07bf 1c4c 9cbf 61aa cebe
00000140: 81d2 ecbe 1f84 08bf ffba a4bf 4ec8 b7be
00000150: a436 42bf 0a3b a6bf c891 acbf 2e4d ffbe
00000160: 875e 94bf 58e4 a2bf 3a47 8bbf 0c74 c0bf
00000170: e1ed 2ebf 24f7 87bf ff16 0abe 9bc4 74bf
00000180: cfd2 8cbf e95d 76bf 31c2 32bf 2656 aabf
00000190: 9b7e 26bf 8e06 1dbf b1dc 04bf e2ed 63bf
000001a0: a4c8 0ebf 7cd2 09bf 5d43 72bf 540f 91bf
000001b0: d4cb 2abf 1b87 4bbf 27a7 30bf 27d6 45bf
000001c0: 3574 2bbf 6a75 ccbf 63dc 2fbf e3c1 a3be
000001d0: 6c1b e7be f8a3 2ebf f79e 57bf 3493 78bf
000001e0: 7df3 5ebf 14ad e8bf 1412 fdbe 5430 12bf
000001f0: 670c b5bf 2f31 44bf b22f e9be adc1 8fbf

action_layer.weight f4 [4, 128]
-0.10185265 -0.18108477 0.10527766 -1.5747327 -0.1435953 0.044740397 -0.23607114 0.1795853
0.100534216 -0.097236715 -1.8843782 0.15921691 1.3157183 -0.29174483 -0.22347732 -0.47512415
0.0394631 -0.29518965 0.0038312234 -0.09114091 -0.105454 0.4702478 -0.1637981 -0.22357403
0.14095159 -0.10408088 -0.24677278 -0.3658682 -0.721719 0.060591057 -0.37010488 -0.1521716
-0.28031224 -3.011866 0.4728107 -0.3333892 0.7463202 -0.015494623 5.3034306 0.09194865
-0.6953728 -0.37850022 -0.40312484 -0.27227414 0.17548797 -0.07549985 -0.61594284 -0.5277342
0.15475194 0.30103022 0.51110756 -0.1485338 -0.03521834 0.36697868 -0.18217118 -3.502042
-0.47363588 -0.16148911 -0.4299976 0.82433754 0.0050491816 0.30178314 -0.13649799 -0.11796883
-0.37004808 1.0585266 0.02200402 -0.13879399 0.38242617 -0.15173116 -0.13656747 0.32820868
-0.6499262 -0.07789219 -0.12436676 -0.24714509 0.9497871 -3.2756696 -0.4018342 -0.048309773
-0.26899877 0.20639798 -0.96903837 -0.13947779 0.08211431 0.28420308 -0.3513347 -1.7219745
-0.35629526 -0.8046349 -1.8395221 0.08394932 -0.2574976 -1.756249 -3.2537634 -0.29746208
-0.45027596 -0.5205029 0.062266387 -0.10270812 0.15380338 -1.1602886 -0.38779804 0.16235422
-0.3334715 -0.49227586 0.3290984 0.31470543 -1.796844 0.04205046 -0.20362893 -0.1137093
-0.072005294 -0.27341253 -2.1883814 -2.5956314 0.078509234 0.39394405 -1.4810247 -0.10569546
-0.044488702 0.6580611 -0.023205893 0.67830527 -2.0080142 -0.6473068 -0.16759214 0.88695866
0.046726223 0.13997707 -0.02256389 0.86050105 -0.06958101 0.34743968 -0.3658897 3.304728
0.26991916 0.03261998 1.4835638 -0.63495433 -0.27729228 0.46623254 0.5518152 -3.8858912
0.3723362 -0.07279069 -0.17113435 -0.2724818 0.8718771 0.3265262 -0.010313224 0.023625122
-0.0156632 0.28412992 0.0076362956 0.51625705 -1.3906356 0.025581727 0.44369042 0.15734737
-0.15769164 -3.3659017 -0.7653959 -0.07377074 0.0536717 -0.05522306 -1.2151686 -0.26834092
0.54067963 -0.20438845 1.631276 2.143314 -0.020236546 0.5165488 3.816498 0.21559283
0.012824596 0.4332111 0.6371614 0.082968734 0.04953139 -1.0332685 0.27064198 2.6015286
-0.3005828 0.005343941 0.637866 -2.2555523 0.10301869 -0.2596649 -2.248189 4.781392
-0.38512942 0.3862186 -0.6200314 -0.12228243 -0.6034865 0.17983332 0.7712698 0.5555749
0.62598085 0.37151077 -0.0683147 0.24831519 0.4213553 -0.68142205 0.6790985 -0.06987041
-0.14408433 -0.030466242 -0.45460054 0.1433823 -0.32499465 0.6336589 -0.9925439 -2.5489914
-0.80743927 0.48366752 4.3297286 0.32957897 -0.2542029 -2.2943509 -0.40422672 0.45723638
0.67639077 0.6599714 -0.7075928 0.301871 -0.19823036 -0.6462592 0.19186203 0.025571648
0.16579676 -0.44851482 0.40441197 0.49494025 7.7396073 0.5810427 0.33983356 0.3716107
0.041350022 0.1727538 -3.5900178 -1.9512258 0.3692009 0.3157257 -3.1991916 0.02871118
-0.25456738 -0.42719743 0.2771981 -2.281468 -5.432452 0.17793205 -0.0025753519 -0.7738734
00000000: 1f98 d0bd 496e 39be d09b d73d d790 c9bf
00000010: a50a 13be b541 373d a2bc 71be 35e5 373e
00000020: e2e4 cd3d 0b24 c7bd 4e33 f1bf c209 233e
00000030: 7569 a83f 945f 95be 3dd7 64be 7943 f3be
00000040: 0fa4 213d 1923 97be 4315 7b3b 16a8 babd
00000050: 44f8 d7bd 52c4 f03e b0ba 27be 97f0 64be
00000060: 9d55 103e 5b28 d5bd 01b2 7cbe 1453 bbbe
00000070: 94c2 38bf 542e 783d 637e bdbe dfd2 1bbe
00000080: 1685 8fbe 6ac2 40c0 3e14 f23e fdb1 aabe
00000090: d70e 3f3f 29dd 7dbc b4b5 a940 934f bc3d
000000a0: f403 32bf c8ca c1be 6166 cebe 8467 8bbe
000000b0: 1eb3 333e aa9f 9abd 6eae 1dbf 9719 07bf
000000c0: 4b77 1e3e a220 9a3e f2d7 023f 3f19 18be
000000d0: 1b41 10bd a1e4 bb3e 158b 3abe 7521 60c0
000000e0: 6780 f2be 675d 25be a528 dcbe c907 533f
000000f0: 9b73 a53b 5283 9a3e 21c6 0bbe a499 f1bd
00000100: f176 bdbe cd7d 873f c641 b43c 0320 0ebe
00000110: 5dcd c33e 6a5f 1bbe 58d8 0bbe f80a a83e
00000120: 9061 26bf f185 9fbd 00b4 febd 9a13 7dbe
00000130: 3f25 733f 92a4 51c0 36bd cdbe 78e0 45bd
00000140: 35ba 89be fe59 533e e612 78bf 44d3 0ebe
00000150: 8c2b a83d 1183 913e 24e2 b3be a969 dcbf
00000160: 556c b6be 8efc 4dbf 7675 ebbf 9fed ab3d
00000170: bad6 83be c4cc e0bf a93d 50c0 f34c 98be
00000180: 928a e6be ae3f 05bf 0a0b 7f3d a358 d2bd
00000190: a27e 1d3e 5684 94bf 778d c6be 2f40 263e
000001a0: c7bc aabe 950b fcbe 967f a83e 1221 a13e
000001b0: fcfe e5bf 1a3d 2c3d 1a84 50be 6ce0 e8bd
000001c0: 8377 93bd bafc 8bbe 710e 0cc0 d31e 26c0
000001d0: 73c9 a03d 09b3 c93e 3892 bdbf dd76 d8bd
000001e0: c939 36bd b176 283f 491a bebc 6aa5 2d3f
000001f0: 4e83 00c0 e6b5 25bf 469d 2bbe b90f 633f
00000200: ff63 3f3d 2656 0f3e e8d7 b8bc cc49 5c3f
00000210: 7d80 8ebd 9de3 b13e e555 bbbe aa80 5340
00000220: d832 8a3e 879c 053d 6be5 bd3f 5e8c 22bf
00000230: 41f9 8dbe 08b6 ee3e c343 0d3f 71b2 78c0
00000240: daa2 be3e 4913 95bd d83d 2fbe bc82 8bbe
00000250: 5633 5f3f 712e a73e ccf8 28bc 7989 c13c
00000260: 1c50 80bc 7a79 913e e439 fa3b 6c29 043f
00000270: 5900 b2bf c590 d13c 642b e33e ab1f 213e
00000280: eb79 21be ef6a 57c0 fcf0 43bf 1d15 97bd
00000290: dbd6 5b3d 9331 62bd a58a 9bbf fb63 89be
000002a0: fb69 0a3f 354b 51be a7cd d03f 0e2c 0940
000002b0: 1dc7 a5bc 8b3c 043f 8141 7440 5ec4 5c3e
000002c0: 411e 523c d8cd dd3e 021d 233f 83eb a93d
000002d0: 6de1 4a3d 2442 84bf 9691 8a3e 727f 2640
000002e0: fde5 99be 3a1c af3b 304b 233f f85a 10c0
000002f0: 77fb d23d ccf2 84be 54e2 0fc0 2a01 9940
00000300: af2f c5be 72be c53e 61ba 1ebf 366f fabd
00000310: 177e 1abf 3a26 383e f071 453f 283a 0e3f
00000320: 4840 203f a936 be3e 94e8 8bbd 5646 7e3e
00000330: e2bb d73e ad71 2ebf 66d9 2d3f 3818 8fbd
00000340: d88a 13be 5794 f9bc 67c1 e8be cfd2 123e
00000350: b365 a6be 7837 223f 5b17 7ebf ad22 23c0
00000360: 57b4 4ebf 45a3 f73e 238d 8a40 93be a83e
00000370: e226 82be a5d6 12c0 cef6 cebe e31a ea3e
00000380: f227 2d3f e3f3 283f cd24 35bf d68e 9a3e
00000390: e6fc 4abe 3e71 25bf 7b77 443e a27b d13c
000003a0: a0c6 293e bca3 e5be 160f cf3e cf68 fd3e
000003b0: ddaa f740 37bf 143f aafe ad3e c243 be3e
000003c0: a45e 293d 5fe6 303e dac2 65c0 c4c1 f9bf
000003d0: e607 bd3e cda6 a13e 8ebf 4cc0 b533 eb3c
000003e0: a856 82be 9fb9 dabe e9ec 8d3e 9203 12c0
000003f0: a6d6 adc0 d233 363e 3cc7 28bb 911c 46bf

action_layer.bias f4 [4]
0.7389409 0.63822824 -1.7576435 1.818069
00000000: 3b2b 3d3f ed62 233f 76fa e0bf 7cb6 e83f

value_layer.weight f4 [1, 128]
0.019787982 0.08043825 -0.02054757 0.0634849 -0.009095635 0.04418516 0.05446767 0.0040845335
0.09378787 0.17379582 0.31295237 -0.22905605 -0.004118388 -0.027481912 0.1454918 0.28643584
0.023518763 -0.079634085 0.08000008 0.11735208 -0.4621106 -0.005990503 -0.0012856373 0.11536148
0.028898304 -0.01759117 -0.038315035 0.208357 -0.18016154 0.03068223 -0.40383908 0.01103613
0.03330168 -0.2324896 0.23464528 0.01980161 0.23060313 0.12958793 -0.42388606 -0.03529352
0.083734535 -0.028611261 -0.10771954 -0.27275363 0.5654658 -0.07303917 -0.35400608 -0.19966453
0.18798067 0.111153305 -0.084414475 -0.042199522 0.054392736 -0.14484353 -0.06423656 0.11841974
0.22476675 -0.014947508 0.043275047 0.14791258 -0.04203432 -0.23198499 0.083741575 0.48117143
0.11484416 -0.06894726 0.05834033 0.039651442 0.20841801 0.11726787 -0.40093923 -0.10043888
0.2235934 0.1191092 0.07413568 -0.17388813 0.14903203 -0.5458382 0.68719614 -0.016772304
-0.024990896 -0.06965183 -0.12205648 0.09915342 -0.042004824 -0.1211527 -0.16824366 -0.016683111
0.5272697 0.06750528 0.3179868 -0.21066704 0.15043348 0.46710792 -0.45918578 0.082471624
0.061627857 -0.12369429 -0.13261805 -0.6072517 -0.07059616 0.3918067 -0.34512222 -0.22373623
0.01200854 0.0926732 0.113173 0.071416 -0.04351418 0.013303825 -0.06650025 0.08308298
0.13276646 0.025518859 0.33871585 -0.20270903 0.045245264 -0.0011821642 -0.52010983 -0.015668085
-0.124581315 -0.17036739 0.062307082 0.47246122 -0.256525 0.104070485 0.04708126 -0.03040568
00000000: 681a a23c cfbc a43d 6153 a8bc 5f04 823d
00000010: dc05 15bc 80fb 343d 7e19 5f3d 8dd7 853b
00000020: db13 c03d 88f7 313e 4b3b a03e ab8d 6abe
00000030: 8bf3 86bb bf21 e1bc cdfb 143e b8a7 923e
00000040: 6caa c03c 3217 a3bd 15d7 a33d 4a56 f03d
00000050: c399 ecbe fb4b c4bb d482 a8ba a442 ec3d
00000060: 23bc ec3c 5b1b 90bc 3af0 1cbd 8a5b 553e
00000070: 447c 38be 4d59 fb3c ffc3 cebe e2d0 343c
00000080: 5867 083d c111 6ebe da46 703e fc36 a23c
00000090: 3a23 6c3e b3b2 043e 9807 d9be f08f 10bd
000000a0: 037d ab3d 2a62 eabc 109c dcbd 5da6 8bbe
000000b0: 5ec2 103f 8f95 95bd 4940 b5be dc74 4cbe
000000c0: 017e 403e 58a4 e33d 7fe1 acbd 68d9 2cbd
000000d0: ebca 5e3d dd51 14be 758e 83bd 0c86 f23d
000000e0: 4129 663e 65e6 74bc 2d41 313d 6576 173e
000000f0: 2e2c 2cbd 798d 6dbe b480 ab3d 1a5c f63e
00000100: 6a33 eb3d 3934 8dbd 45f6 6e3d 8d69 223d
00000110: 886b 553e 232a f03d e847 cdbe e6b2 cdbd
00000120: abf5 643e 86ef f33d 73d4 973d bb0f 32be
00000130: da9b 183e 0dbc 0bbf 16ec 2f3f 1266 89bc
00000140: b5b9 ccbc 9ea5 8ebd bff8 f9bd f310 cb3d
00000150: 400d 2cbd e81e f8bd 1148 2cbe 05ab 88bc
00000160: 26fb 063f 3540 8a3d 2acf a23e 1ab9 57be
00000170: 3c0b 1a3e c528 ef3e 661a ebbe e2e6 a83d
00000180: 7e6d 7c3d 6f53 fdbd 07cd 07be d974 1bbf
00000190: b894 90bd e39a c83e dcb3 b0be 1c1b 65be
000001a0: 78bf 443c 72cb bd3d 3fc7 e73d 8d42 923d
000001b0: ed3b 32bd 49f8 593c 4831 88bd 6927 aa3d
000001c0: eef3 073e ed0c d13c 2a6c ad3e f592 4fbe
000001d0: 1953 393d d9f2 9aba eb25 05bf 5b5a 80bc
000001e0: 7d24 ffbd ca74 2ebe b635 7f3d 70e6 f13e
000001f0: 3f57 83be e822 d53d 47d8 403d 5515 f9bc
