checkpoint/LunarLander_0700.pth (torch_old, 8217 bytes, 5 tensors)

input_layer.weight f4 [128, 8]
00000000: 4e48 a53d 5e1d 1abf 4c3e 31be 4c8a 453e
00000010: 85bb 6ebd a55d df3c b83d 83be 8895 4e3e
00000020: 524c c1bd 5088 08bd 592e cebe 550b 9c3c
00000030: ead2 4abd 1d9a 04bd 51f9 97be b3aa 7dbe
00000040: 1f9a 8d3e a8bb d5be 2618 7f3c 3266 823e
00000050: 87a5 3fbe d7e9 9e3d 822b 91be 8496 edbd
00000060: c0d9 35be ecbd e03d 2daa b53e 68f3 bbbe
00000070: c610 a9bf deea a2be aa61 06bf cd16 08bf
00000080: feea d23e e7b5 10bf 567a c23d 2842 c83e
00000090: 2027 a43d 677b b0bd dde3 e1be 89cc 8b3d
000000a0: fb88 7dbe c0c3 b6bd e403 52be c9e8 243c
000000b0: c5f3 bbbe f33d df3d 8d73 88be 665a 7a3d
000000c0: e7f6 563e c332 b4ba 5298 2b3e bdaa 5c3d
000000d0: 46ee 86be f0a3 ee3e 9f12 2abf b876 7abe
000000e0: 62a5 253f 5213 b4bf 5709 563f 7ad3 cc3f
000000f0: 5c82 91be 7cd0 22bd 6da2 be3e a102 673f
00000100: 5b1a 9f3e 2d3b dfbe 92fe 80be 8774 f43e
00000110: 5a7c 9abd d376 9cbe 06ff 68be 6692 93be
00000120: d34b 693e 559b 23be 69c2 af3e 97c9 523e
00000130: 7ac2 edbe df22 483e ad4f 89be ed7d e4bd
00000140: 0fbd 3cbf 8046 99bb 8da0 2e3c dadb 6b3e
00000150: 7bbf c2bf 7e5c 12bf 4209 c53f fe2d 0bc0
00000160: 6402 8b3e a431 463a d3cc b5be c4b2 53be
00000170: e1cd 5e3e c8b8 7f3d 69ba 33bf c3bb f73e
00000180: 8dda 833d 782a 0cbf c255 0d3b 2873 a33e
00000190: b4d0 12be 86cc c2bd 23b7 68bd f0ad 633e
000001a0: 99d2 40be 8014 11bf 1f12 9b3e 8c9d d83d
000001b0: 22b1 453d e886 8cbe 479e dd3d 6b83 bbbe
000001c0: 2952 cebc 71dd ccbe 084b b83d 44a9 743e
000001d0: 583a 173c 32f1 62be a3d3 2dbf 9db3 9cbd
000001e0: 0990 3ebf 4111 29bf 5c7f c2be e8cc 86bf
000001f0: f479 063e e714 c5bd c150 51bf 818e 25be
00000200: 3ef8 fe3e 30db 05bf d969 2d3d d43d 833e
00000210: f15a 96bd 6c42 8c3e e9f3 82bf 212d 113e
00000220: 9a4c 013e 4340 d9be 7754 d5bd 21e7 973e
00000230: 9163 afbd 25af 5f3e d93f cabe 4074 e9be
00000240: c1d5 603e 0057 223d 5fb1 b63e f801 0c3e
00000250: cc6d d4bd 8cbb fcbd 7e90 a23e d52d fbbe
00000260: 58bc 0d3e 68bc 2ebd d573 ee3e 1e87 903e
00000270: 55cb a9be baaf 4b3d 5e98 35bf effe a63e
00000280: 85e6 b5bd 35e6 18bf 5b52 073e e41c fc3e
00000290: 19d1 9d3d cc9b d0be d44e 463e a32e 2fbe
000002a0: d9a6 853c ef1e 02bd ade7 3bbe 843e 923e
000002b0: 9676 8fbd 3e10 d4bd ee14 0bbf 4016 e53d
000002c0: d78e b13d cd4e 52be cbfe 5abe bde0 2bbd
000002d0: 5ae2 c7bd f5d9 7ebe e828 f3be 03ec 953c
000002e0: 982d 8c3d 9f4e 853d ba8b 9e3e a5fe 2abe
000002f0: 5c03 5dbe a198 d63d fbb3 9ebe 5c6d babe
00000300: 9929 5c3e d103 b5be e634 a5bc 52d2 b93e
00000310: c72f 56be bba9 053e 70b9 1ebe c0b4 35bd
00000320: ca13 bf3d f89e b63d b8cd f03c 8992 84be
00000330: 4b9c 0ebe 278f 41be aebc f6be 9d34 f4be
00000340: c6a6 ed39 a14a a2be fea4 1bbe c138 333e
00000350: e044 abbe 2bf9 3f3d 27d9 90be d224 9fbe
00000360: 078e a4bc fef9 08bf 76ec 073e a304 0b3f
00000370: 731f ddbd afde 083e 5e85 d13c 70df c7bd
00000380: 2ee0 fbbe 87a5 1abe 0fc8 cd3e 5ba3 bd3e
00000390: b741 f2be 7032 af3e 271e 8fbf 825b 623f
000003a0: cdc8 70be 6bbd 8fbc 0deb 3fbf 176c a93e
000003b0: b8e9 cebd ab2e 593e 864e 02bf 204b f8be
000003c0: 5a62 983e 4e38 6dbf 6377 d43e 17e6 a83d
000003d0: ce87 d1be 60bb 12be 6f96 ae3d fecd 96bd
000003e0: d129 d5bd e64d c7be 51f6 87bd 0f91 6b3e
000003f0: d5de 73be 53e1 9b3e 7ff6 3f3e 42cd d23d
0.08070432 -0.6020106 -0.1730892 0.19291037 -0.0582843 0.027266333 -0.25633025 0.20174229
-0.09438385 -0.033333123 -0.40269735 0.019048372 -0.04951755 -0.032373536 -0.296824 -0.24772148
0.27656648 -0.41744733 0.015569722 0.25468594 -0.18715487 0.07759445 -0.28353506 -0.11600974
-0.17758846 0.10973725 0.35481396 -0.36709142 -1.3208244 -0.31819814 -0.52492774 -0.5315979
0.4119491 -0.5652756 0.0949599 0.39112973 0.08015275 -0.08617287 -0.44119158 0.06826121
-0.24759285 -0.08924055 -0.20509297 0.010065266 -0.3670942 0.10900488 -0.26650658 0.061121367
0.20992623 -0.0013748038 0.16757324 0.053873766 -0.26353663 0.4660945 -0.66434664 -0.2445935
0.6470548 -1.4068396 0.83608 1.6002038 -0.2841977 -0.039749607 0.37233296 0.90238386
0.31074795 -0.43599835 -0.25194222 0.47745153 -0.075432494 -0.30559406 -0.22753534 -0.2882263
0.22782831 -0.15977223 0.3432801 0.20584713 -0.46437436 0.19544552 -0.268186 -0.11156831
-0.7372598 -0.0046775937 0.0106583955 0.23033085 -1.5214685 -0.5717238 1.539345 -2.1746821
0.2715026 0.00075604976 -0.3550783 -0.20673662 0.21758224 0.06243208 -0.70206314 0.48385438
0.0643817 -0.547523 0.0021566008 0.31923795 -0.14337426 -0.09511666 -0.056815278 0.2223432
-0.18830337 -0.56671906 0.30287263 0.10576925 0.04826463 -0.27446675 0.10821205 -0.366237
-0.025185661 -0.40012696 0.08998686 0.23892695 0.009230219 -0.22162321 -0.67901057 -0.07651446
-0.7443853 -0.6604195 -0.37987792 -1.0531282 0.13132459 -0.096231274 -0.81763846 -0.16167642
0.4979877 -0.5228758 0.042337272 0.2563311 -0.073415644 0.27394426 -1.0230685 0.14177372
0.12626877 -0.4243184 -0.10416501 0.29668525 -0.08563913 0.21844156 -0.39501837 -0.45596504
0.2195654 0.03963375 0.35682198 0.13672626 -0.103725046 -0.12340459 0.31750864 -0.49058405
0.13841379 -0.042660147 0.46572748 0.28228086 -0.33162943 0.049728133 -0.7093562 0.32616374
-0.08881859 -0.5972627 0.1321501 0.49240792 0.07705898 -0.40743864 0.19366008 -0.17107634
0.01631491 -0.03176778 -0.18350096 0.2856332 -0.0700504 -0.103546605 -0.5432881 0.111858845
0.08669823 -0.20537873 -0.21386258 -0.041962374 -0.0975997 -0.24887832 -0.47492146 0.018301016
0.06844634 0.065091364 0.30965978 -0.16698702 -0.21583313 0.104783304 -0.3099669 -0.3641156
0.21500243 -0.35354474 -0.020166826 0.36293274 -0.20916663 0.13053028 -0.15500426 -0.04436183
0.09329946 0.0891704 0.02939497 -0.25893047 -0.13926809 -0.18902265 -0.48190826 -0.4769639
0.00045328418 -0.31697562 -0.15199658 0.17502119 -0.33450985 0.046868484 -0.28290674 -0.3108278
-0.020087255 -0.5350646 0.13273796 0.5430395 -0.10797014 0.13366197 0.02557629 -0.09759414
-0.49194473 -0.15102206 0.40191695 0.37038693 -0.4731576 0.34218168 -1.1181077 0.8842088
-0.235141 -0.017546376 -0.74968034 0.33090279 -0.10103172 0.21209209 -0.5090107 -0.48494816
0.29762536 -0.9266404 0.41497335 0.08247011 -0.40923923 -0.1432929 0.08524787 -0.07363509
-0.104083665 -0.3892662 -0.06638778 0.23004554 -0.23815472 0.30445346 0.18746375 0.10293056

input_layer.bias f4 [128]
00000000: 4412 2abf 182c 2ebf 5d48 e9be ce47 16be
00000010: 3ec8 2dbf ca33 24bf b9ad 19bf 4d2a 09bf
00000020: 2c33 37bf cd32 23bf f5ed 4b3d acab 81be
00000030: 9d28 0ebf 1c73 1cbf 1412 e7be 16a2 363e
00000040: cc08 abbe d687 36bf 65db 3abf 04eb 27bf
00000050: 3074 33bf 1a5a 8cbe 94e1 05bf 9cbb 36bf
00000060: 3a5f acbe c575 07bf 145c 1bbf 306b 3fbf
00000070: e4d4 c5bd 3f99 54bf 8d66 0fbf a609 28bf
00000080: 7fc8 0cbf 41ac 6cbe 71aa 07bf 0c92 6fbe
00000090: c7da 713d 5663 26bf a640 093e 6e32 2abf
000000a0: 7fcc 9ebe 3c47 e0be 2a18 36be 10b4 4cbe
000000b0: 6325 49bf 5d8e 40bf 0ee2 9bbd f072 2abf
000000c0: ad06 a2be c9c8 3fbf cbf8 2bbf c337 e9be
000000d0: 7488 20bf c122 10bf 6e8a f5be ff6f 65be
000000e0: ba68 99be 0b33 73be 2f69 f5bd 2286 2fbe
000000f0: 87d1 10bf 6b6d 18bf 1eff e1bd 83ce 96bc
00000100: 2404 9ebf a68b 7fbc 3316 05bf a545 f0be
00000110: 804d 46bd e858 21bf ac92 d0be 42fb 1fbf
00000120: 9bf4 d9be 4aad 85be 93e3 22bf 8447 d0be
00000130: d30b 01bf 2e60 ce3e 2440 cdbe df7e c6be
00000140: 4c44 cfbe ef55 60be 54e8 d2be 61ae a3be
00000150: a436 42bf 09c3 ddbe 4396 12be 42f1 03be
00000160: 8b5d 4ebf 4f15 c4be aab9 2e3e 2734 33bf
00000170: fa05 2cbf 0381 2f3e 3f47 713f deae 1fbf
00000180: e349 46bf 71dd 34bf e31a b0be 1435 19bf
00000190: 6c69 b9be c10e 01be 6e8c a8be 8318 73bd
000001a0: 5915 0abf 3d83 d0bc 8c37 25bf 9766 5cbf
000001b0: 5059 41bf 1b87 4bbf 67cf 00bf ee8d 20bf
000001c0: 3574 2bbf e505 2dbf 8ad4 30be 5ddf 023f
000001d0: 6c1b e7be 6208 2ebf c2d2 a33e 95d8 1cbf
000001e0: 52be 00bf 6914 8abf 01c0 d3be 2196 efbd
000001f0: e5d9 0b3d f209 b8be 9fb5 e2be 1f9d 34bf
-0.6643412 -0.6803603 -0.4556302 -0.14675829 -0.6788367 -0.64141524 -0.60030705 -0.5358017
-0.7156246 -0.6374939 0.04978748 -0.25326288 -0.5553072 -0.6111314 -0.4513098 0.17835268
-0.3340515 -0.7130102 -0.7299102 -0.6559298 -0.70099163 -0.27412492 -0.5229733 -0.7138002
-0.33666402 -0.5291408 -0.60687375 -0.7477293 -0.09659746 -0.83046335 -0.56015855 -0.6563972
-0.5499343 -0.23112585 -0.5299445 -0.23395556 0.059046533 -0.64995325 0.13403568 -0.664832
-0.31015393 -0.43804348 -0.17782655 -0.19990563 -0.7857267 -0.7521723 -0.07611476 -0.6658163
-0.31645718 -0.7491575 -0.671765 -0.45550355 -0.6270821 -0.5630303 -0.47957176 -0.22406004
-0.29962713 -0.2374994 -0.11982953 -0.17141011 -0.56569713 -0.5954196 -0.11034988 -0.01840902
-1.2345014 -0.01559726 -0.51987 -0.46928135 -0.048413754 -0.63026285 -0.40736902 -0.62492764
-0.42569432 -0.26108772 -0.636285 -0.40679562 -0.5040867 0.40307754 -0.40087998 -0.3876867
-0.40481794 -0.21907781 -0.41192877 -0.31968978 -0.75864625 -0.43312863 -0.14315133 -0.12885001
-0.80611485 -0.38297507 0.17063013 -0.70001453 -0.6719662 0.17139058 0.9424934 -0.623762
-0.7745649 -0.7065039 -0.34395513 -0.59846616 -0.36213243 -0.12603284 -0.3291964 -0.059349548
-0.53938824 -0.025453204 -0.6453788 -0.8609404 -0.75526905 -0.7950303 -0.5031647 -0.6271657
-0.6697419 -0.6758712 -0.17268577 0.51122075 -0.4513811 -0.6798154 0.31996733 -0.6126798
-0.50290406 -1.0787479 -0.41357425 -0.11698557 0.034143347 -0.35945088 -0.4427919 -0.7055225

action_layer.weight f4 [4, 128]
00000000: 1f98 d0bd 6dbe 39be d09b d73d 2b2d b6be
00000010: a50a 13be 1987 373d 98be 71be bcde 873e
00000020: 4fb7 cc3d 0b24 c7bd 3f49 24bf 4cc1 8c3e
00000030: cf4e aabe 945f 95be 3dd7 64be 97b4 91bf
00000040: f991 1a3c 1923 97be 4315 7b3b 30a8 babd
00000050: 2636 13be 9297 ed3e f1d2 27be 97f0 64be
00000060: 96b5 183e 5b28 d5bd 01b2 7cbe 1453 bbbe
00000070: 20de 043e 4b71 813d bc32 d7be 8adc 1bbe
00000080: 1685 8fbe 255e bebf 3e14 f23e c1a8 e3be
00000090: c55b 4f3f 29dd 7dbc 9bba 813f 4600 6f3d
000000a0: 04be 8cbf aaca c4bd 501d ccbc fd24 a33d
000000b0: 0c04 9ebe aa9f 9abd dad8 82be 990a 0dbf
000000c0: 4b77 1e3e ad90 9c3e cb98 d63e 2325 18be
000000d0: 2e41 10bd 855c 4cbe 583d 3bbe 6640 1dbf
000000e0: d0c3 d7be 675d 25be 5e84 d9be 54a1 09be
000000f0: 9b73 a53b 5283 9a3e 2c39 2fbf 3239 843e
00000100: b389 bebe c079 543f 2cbc 943c 0320 0ebe
00000110: 0c3f 003f ef60 1bbe 5fd9 60be fd98 f13e
00000120: d088 f8be f185 9fbd 8626 2abe f8cb 80be
00000130: 5570 e93e 7b43 0dbf 65c3 f93e 922b 47bd
00000140: d0ed 8abe 18eb 9ebc 1617 b9be c08b 0fbe
00000150: 8c2b a83d 0925 013f bc66 15bf d6ba 8abe
00000160: 743d e8be c901 f1be 4f5f 54be 0929 7abd
00000170: bad6 83be 544d 263e 840d 0bbf 0609 99be
00000180: 25a4 e6be e21a 05bf 591b 47bd a477 17be
00000190: 5591 333d 9997 2bbd 87ee cbbe b411 693f
000001a0: 42bf aabe 9ef6 84be d769 ca3e 5fce a03e
000001b0: daf1 8dbd 1a3d 2c3d 6a4b 6bbe e243 b0bd
000001c0: 8377 93bd 571a babe 24fa 98be f91b a3be
000001d0: 73c9 a03d 06b3 c93e 45e1 57be a113 1abe
000001e0: c900 46bd b9cd 123f 03f8 01bd fce5 57be
000001f0: b935 a93e 3780 2dbf c1aa 2bbe f7e4 bc3e
00000200: ff63 3f3d 3466 093e e8d7 b8bc 10bc a13f
00000210: 7d80 8ebd 0ebe b93e fc53 bbbe 9834 4c3f
00000220: a676 8a3e 6622 073d 631a 0c40 bd5d 1abf
00000230: a064 68be 08b6 ee3e c343 0d3f 6398 0abe
00000240: 49fb cebe 4913 95bd d83d 2fbe 4280 8bbe
00000250: cab5 d73e bd70 d03e b23d b7bc 7989 c13c
00000260: 3038 92bd 7a79 913e e439 fa3b 6c29 043f
00000270: f435 50bf 090c e03d d5d5 df3e 87a6 193e
00000280: eb79 21be 7e84 7dbe fcf0 43bf c73d 3abd
00000290: ccdb b0be 9331 62bd f230 fbbb 223c dcbd
000002a0: d75f dfbd 2d00 82bd b6e3 ad3f fa20 a03f
000002b0: 018f 2ebd 8b3c 043f 6f3f c73f 0424 7f3e
000002c0: 411e 523c fe05 b23c 3adc 1f3f 70f5 b83d
000002d0: ddde 4a3d 9e34 803e 3d3a 7f3e 80af 883f
000002e0: 8c9c aabe 3a1c af3b ba0d 243f 2f7e 4d3f
000002f0: 77fb d23d ccf2 84be 3639 fdbc f2e5 8c3f
00000300: fa3d c4be 4b59 76bc 6433 00bf 0553 a63d
00000310: 3f6a 87be f61f 383e 7956 753e 53f9 fd3d
00000320: 6b86 843f a936 be3e 5f68 63bd 0ddd 1d3e
00000330: f9d6 8dbe 83a0 cb3e 9185 eb3e 4e44 bebd
00000340: c279 23be 66f5 c73d 63ff 4dbf dd35 143e
00000350: b365 a6be 32df 613e 8869 c3be d208 debf
00000360: 7a9e b8be 6c39 b13f 45d6 da3f ca74 933e
00000370: e226 82be 3dde acbc ac51 e4bc 0e19 e13e
00000380: 35ca 2c3f 5a02 083f fe92 3bbf 54c0 63bd
00000390: 260b 823c 8b06 e3be 1a72 363e cd9c c5be
000003a0: bda7 2c3e 7114 2c3e cc51 cf3e 7d75 043f
000003b0: 7df3 763f 37bf 143f f03b 563e 210e c03e
000003c0: a45e 293d 5d39 c1be 1314 783b 6808 c53f
000003d0: e607 bd3e 10a7 a13e 90ce cf3e 97b9 383e
000003e0: 2666 72be 572f 2e3d 71ef 9f3e c055 9f3d
000003f0: f2be 42bf 7482 e63e 7209 cebb 4fd7 ba3e
-0.10185265 -0.18139048 0.10527766 -0.35581335 -0.1435953 0.044806574 -0.23607862 0.2653712
0.09995901 -0.097236715 -0.64174265 0.27491224 -0.3326325 -0.29174483 -0.22347732 -1.1383237
0.009434217 -0.29518965 0.0038312234 -0.091141105 -0.14376125 0.464047 -0.16389062 -0.22357403
0.1491302 -0.10408088 -0.24677278 -0.3658682 0.12975359 0.06320437 -0.42030895 -0.15220848
-0.28031224 -1.4872481 0.4728107 -0.44464687 0.80999404 -0.015494623 1.0135072 0.05834987
-1.0995488 -0.096089676 -0.024916321 0.07966039 -0.30862463 -0.07549985 -0.2555607 -0.55094296
0.15475194 0.3057913 0.41913447 -0.14857917 -0.03521841 -0.19957168 -0.1828512 -0.6142639
-0.4214158 -0.16148911 -0.424838 -0.13440448 0.0050491816 0.30178314 -0.6844661 0.25824887
-0.3721443 0.82998276 0.018156134 -0.13879399 0.500962 -0.15173696 -0.2195792 0.47187033
-0.4854188 -0.07789219 -0.16616258 -0.25155616 0.45593515 -0.5518109 0.48781887 -0.048625536
-0.27134562 -0.01939921 -0.36150426 -0.14018154 0.08211431 0.50447136 -0.58359885 -0.2709567
-0.45359385 -0.47071674 -0.20739482 -0.06107429 -0.2574976 0.16240436 -0.543175 -0.29889697
-0.45047107 -0.51994145 -0.048610065 -0.14791733 0.04383977 -0.04189262 -0.3983042 0.9104264
-0.33349043 -0.25969404 0.39533874 0.3140745 -0.06930895 0.04205046 -0.22977987 -0.086066976
-0.072005294 -0.3634822 -0.29878342 -0.3185728 0.078509234 0.39394397 -0.21082027 -0.1504655
-0.048340593 0.5734516 -0.031730663 -0.21083826 0.330488 -0.67773765 -0.16764356 0.36893436
0.046726223 0.13417894 -0.02256389 1.2635517 -0.06958101 0.36277813 -0.36587512 0.7976775
0.27043647 0.03299179 2.1891105 -0.60299283 -0.22694635 0.46623254 0.5518152 -0.13534693
-0.4042609 -0.07279069 -0.17113435 -0.2724629 0.42130882 0.40711012 -0.022368286 0.023625122
-0.07139623 0.28412992 0.0076362956 0.51625705 -0.81332326 0.109397955 0.43717828 0.15004931
-0.15769164 -0.24757573 -0.7653959 -0.04546907 -0.34542692 -0.05522306 -0.007665747 -0.10753657
-0.10906952 -0.0634769 1.3585117 1.2510064 -0.042616848 0.5165488 1.5566233 0.24916083
0.012824596 0.021731373 0.62445414 0.090311885 0.049528945 0.25040144 0.2492456 1.0678558
-0.3332256 0.005343941 0.64083445 0.80270666 0.10301869 -0.2596649 -0.03091107 1.1007674
-0.38328534 -0.015035938 -0.50078416 0.081213035 -0.26448247 0.17980942 0.23958768 0.124010704
1.0353521 0.37151077 -0.055519458 0.15416355 -0.27703074 0.39770898 0.4600034 -0.09290372
-0.15964416 0.09763603 -0.80467814 0.14473672 -0.32499465 0.22057799 -0.3816645 -1.7346442
-0.36058408 1.3845649 1.709664 0.2880004 -0.2542029 -0.021102065 -0.027870975 0.43964428
0.67496043 0.5312859 -0.7327117 -0.05560334 0.015874457 -0.4434093 0.17816964 -0.38596192
0.16860862 0.16804673 0.40492094 0.5174177 0.96465284 0.5810427 0.20921302 0.3751078
0.041350022 -0.37739077 0.0037853762 1.539319 0.3692009 0.3157277 0.40587282 0.18039547
-0.23671779 0.042525616 0.31237367 0.077800274 -0.7607261 0.45021403 -0.006287747 0.36492392

action_layer.bias f4 [4]
00000000: 549b 13be 3d55 3f3e 4349 1b3e 8ece 993e
-0.14414722 0.1868486 0.15164666 0.300404

value_layer.weight f4 [1, 128]
00000000: 681a a23c 5e93 de3d 6153 a8bc bbbc f23d
00000010: dc05 15bc d509 2f3d fd6c ab3d 873b 773e
00000020: ac74 c33d bb01 513e 414f 0dbe 5c4f d93a
00000030: 8738 343d 0d48 6dbd dcbb 143e f838 89be
00000040: 3a59 dd3d 3217 a3bd 930d a63d 7ed8 f03d
00000050: d9d6 0f3e 45e2 d23a 5798 41bb a442 ec3d
00000060: 3498 173d 2961 abbc 0b01 18bd 8a5b 553e
00000070: c962 493e cf3a 2f3e 4224 bf3e 089b 13bd
00000080: 9671 083d 6a62 b73d 4db8 703e 99df 22be
00000090: 0575 abbc c41b 053e 623b 1dbd bb81 8f3c
000000a0: 91ed 6d3e 2f46 f2bc 9b15 d93d 4cb8 f43d
000000b0: 2759 b5bd 8f95 95bd 9070 e7bd 7eda 473d
000000c0: 017e 403e 4b0d a53d 594f 9ebd cfe3 60bd
000000d0: f2c4 49be 4dcd 4e3d fb64 303d 623c d83c
000000e0: 12dc e2bd 65e6 74bc 475a 4ebc e714 d7bd
000000f0: 2e2c 2cbd 798d 6dbe ba2b 8a3d 8760 d03e
00000100: 29d0 0d3e afa0 5ebc 5636 a5bc 274b 453d
00000110: ed12 8cbd d8f7 f33d f538 453d 475b 92bd
00000120: b5f2 353d 86ef f33d 42c9 a63d 6c7d 653d
00000130: c7ae 2f3e 087a 78be f296 c33e a3a1 93bc
00000140: 0e82 383c 9a0e 10bb 9332 e6bb 8876 cd3d
00000150: 400d 2cbd 1b10 8ebd 4a0f df3c 71f6 57be
00000160: 2060 c2b8 5dc5 de3d 4f5a b0ba 3c4e c63d
00000170: ac30 1a3e 6467 0c3e ca1c 75bf 70c1 4e3e
00000180: 74a0 5fbd 6494 10be 9bf8 05be 6c8a d83d
00000190: 7d1d 6ebd 9fe9 b3bd b62e eabe 4828 ca3b
000001a0: 946b 56bb 4989 ae3c e9bd f43d 289c 403c
000001b0: f500 a73e 49f8 593c 2014 75bc 4598 9f3d
000001c0: eef3 073e f9df 7dbc 8b25 993d 467e 43be
000001d0: 1953 393d ec8b ec3a f08c 63be 058f e2bc
000001e0: a425 ab3d 4bd0 5c3e c1ce 903d 9751 c53d
000001f0: 954c 893e 2034 663d 077e 463d 7328 db3d
0.019787982 0.10867952 -0.02054757 0.11852404 -0.009095635 0.042733986 0.08370397 0.24143802
0.09543738 0.20410816 -0.13799764 0.0016579437 0.04399922 -0.05793004 0.14524788 -0.26801276
0.10808034 -0.079634085 0.08108058 0.117600426 0.14046802 0.0016089162 -0.0029540265 0.11536148
0.037010387 -0.020920353 -0.03711037 0.208357 0.1966659 0.17112277 0.3733235 -0.03603652
0.03331145 0.08954318 0.23507805 -0.15905608 -0.020929823 0.12998873 -0.03838671 0.017517915
0.23235156 -0.029574482 0.10599824 0.11949214 -0.08854895 -0.07303917 -0.113007665 0.048792355
0.18798067 0.08059176 -0.07729978 -0.054904755 -0.19704035 0.05048876 0.043065052 0.02639598
-0.11077131 -0.014947508 -0.012594766 -0.10502034 -0.04203432 -0.23198499 0.067466214 0.40698645
0.13848938 -0.013588115 -0.020167511 0.048167374 -0.06839547 0.11912507 0.04815002 -0.07146316
0.044420917 0.1191092 0.08143856 0.056027815 0.17156516 -0.24265301 0.382011 -0.01802141
0.011261476 -0.002198136 -0.007025072 0.10032374 -0.042004824 -0.069366656 0.02722897 -0.21090104
-9.2685455e-05 0.10877488 -0.0013454648 0.09682891 0.1505763 0.13711315 -0.95747054 0.20190978
-0.05459638 -0.14119107 -0.13083117 0.10573277 -0.05813359 -0.08784794 -0.45738763 0.0061693527
-0.003271793 0.021305697 0.11950285 0.011755981 0.32617918 0.013303825 -0.014958411 0.07792715
0.13276646 -0.015495294 0.07477864 -0.19091138 0.045245264 0.0018047071 -0.22221732 -0.027656088
0.08356789 0.21563832 0.07070685 0.09634703 0.2681624 0.056202054 0.048460033 0.107010745
