checkpoint/LunarLander_1750.pth (torch_old, 8217 bytes, 5 tensors)

input_layer.weight f4 [128, 8]
0.08070432 -0.6020106 -0.1730892 0.19291037 -0.0582843 0.027266333 -0.25633025 0.20174229
0.009092821 -0.040935647 -0.28391802 0.023581319 -0.039521154 0.069117725 -0.296824 -0.24772148
0.27656648 -0.41744733 0.015569722 0.25468594 -0.18715487 0.07759445 -0.28353506 -0.11600974
0.1423443 0.03012321 -0.082475975 -0.7689113 -2.4880934 0.03812976 -0.81283796 -1.2484202
0.4119491 -0.5652756 0.0949599 0.39112973 0.08015275 -0.08617287 -0.44119158 0.06826121
-0.08140459 -0.09989349 -0.11892563 0.029330105 -0.3272875 0.09931516 -0.26650658 -0.12207974
0.17360637 -0.0016714113 0.1410576 0.060191885 -0.27333215 0.37542197 -0.66434664 -0.31900886
-0.268372 -1.597353 3.0503037 2.6433759 -1.9396447 0.43031272 0.008518064 0.26671702
0.2896292 -0.43502787 -0.23320006 0.47695413 -0.07478527 -0.290802 -0.22753534 -0.2882263
0.22782831 -0.15977223 0.3432801 0.20584713 -0.46437436 0.19544552 -0.268186 -0.11156831
1.2714635 -0.7164689 0.29030052 1.1311074 -0.87081677 -0.44579226 1.3824259 -2.574405
-0.012027455 -0.0334109 -0.7618627 -0.24656172 0.22319715 0.17023946 -0.81329083 0.14487238
0.0643817 -0.547523 0.0021566008 0.31923795 -0.14337426 -0.09511666 -0.056815278 0.2223432
-0.18642604 -0.566774 0.3004743 0.10397232 0.04853326 -0.2793324 0.11435548 -0.366237
-0.03225498 -0.40016708 0.09913792 0.2464193 0.008444267 -0.2067552 -0.67901057 -0.07651446
-0.63065183 -1.4838403 0.46981168 -1.8689846 -0.058770075 -0.6348192 -1.2578418 -1.4029635
0.3425733 -0.3158455 -0.21039745 0.83335155 -0.13708751 0.41490385 -1.5854057 0.47617903
0.12626877 -0.4243184 -0.10416501 0.29668525 -0.08563913 0.21844156 -0.39501837 -0.45596504
0.216841 0.03959729 0.355899 0.1369337 -0.103455536 -0.11736083 0.29425445 -0.49058405
0.1281797 -0.042250507 0.46135977 0.2839065 -0.32436743 0.05503989 -0.7093562 0.1465663
-0.11586506 -0.59520674 0.16322055 0.51188505 0.07622795 -0.36541733 0.07047266 -0.17107634
0.037226565 -0.032487005 -0.17456822 0.2876555 -0.06881844 -0.10809176 -0.5432881 0.07385291
0.07867304 -0.20476691 -0.20757098 -0.041177254 -0.09837116 -0.23714639 -0.47492146 -0.028431937
0.06844634 0.065091364 0.30965978 -0.16698702 -0.21583313 0.104783304 -0.3099669 -0.3641156
0.16923545 -0.3576988 -0.031737786 0.36319086 -0.2105779 0.12438335 -0.15500426 -0.04436183
0.09390822 0.089170955 0.028852684 -0.25915337 -0.13910711 -0.19178757 -0.48190826 -0.4769639
0.00045328418 -0.31697562 -0.15199658 0.17502119 -0.33450985 0.046868484 -0.28290674 -0.3108278
-0.020087255 -0.5350646 0.13273796 0.5430395 -0.10797014 0.13366197 0.02557629 -0.09759414
0.015665172 -0.045757864 0.100698665 0.47152686 -0.03335693 0.38194466 -1.194194 1.0688473
-0.2498047 -0.028615754 -0.9428858 0.30774504 0.3669358 0.41254178 -0.9265701 -0.067608
0.26025617 -1.1192008 0.3623571 0.105682045 -0.34765714 -0.10132215 -0.14922161 -0.74927104
-0.082440145 -0.3896263 -0.047226418 0.22875896 -0.24007964 0.290491 0.13093288 -0.016911218
00000000: 4e48 a53d 5e1d 1abf 4c3e 31be 4c8a 453e
00000010: 85bb 6ebd a55d df3c b83d 83be 8895 4e3e
00000020: 0efa 143c 23ac 27bd b45d 91be 9c2d c13c
00000030: efe0 21bd 988d 8d3d 51f9 97be b3aa 7dbe
00000040: 1f9a 8d3e a8bb d5be 2618 7f3c 3266 823e
00000050: 87a5 3fbe d7e9 9e3d 822b 91be 8496 edbd
00000060: b4c2 113e f3c4 f63c 2ae9 a8bd 5fd7 44bf
00000070: ec3c 1fc0 f42d 1c3d 2616 50bf 3ccc 9fbf
00000080: feea d23e e7b5 10bf 567a c23d 2842 c83e
00000090: 2027 a43d 677b b0bd dde3 e1be 89cc 8b3d
000000a0: 73b7 a6bd f594 ccbd 488f f3bd b045 f03c
000000b0: 3a92 a7be bf65 cb3d 8d73 88be f104 fabd
000000c0: dec5 313e 4213 dbba 6771 103e c48b 763d
000000d0: 31f2 8bbe 4f37 c03e 9f12 2abf 2155 a3be
000000e0: 0e68 89be 1076 ccbf 2d38 4340 122d 2940
000000f0: 4746 f8bf f351 dc3e 5a8f 0b3c 228f 883e
00000100: 474a 943e f9bb debe ffcb 6ebe 5533 f43e
00000110: 0529 99bd 00e4 94be 06ff 68be 6692 93be
00000120: d34b 693e 559b 23be 69c2 af3e 97c9 523e
00000130: 7ac2 edbe df22 483e ad4f 89be ed7d e4bd
00000140: 51bf a23f 816a 37bf 45a2 943e 21c8 903f
00000150: d9ed 5ebf e23e e4be 55f3 b03f 0dc3 24c0
00000160: cd0e 45bc ded9 08bd 6f09 43bf ad7a 7cbe
00000170: cb8d 643e 4153 2e3e d433 50bf 6d59 143e
00000180: 8dda 833d 782a 0cbf c255 0d3b 2873 a33e
00000190: b4d0 12be 86cc c2bd 23b7 68bd f0ad 633e
000001a0: 78e6 3ebe 1a18 11bf c4d7 993e 71ef d43d
000001b0: d0ca 463d a804 8fbe 3533 ea3d 6b83 bbbe
000001c0: cc1d 04bd b3e2 ccbe d208 cb3d 5755 7c3e
000001d0: d359 0a3c a3b7 53be a3d3 2dbf 9db3 9cbd
000001e0: 6672 21bf 7bee bdbf 288b f03e e33a efbf
000001f0: e4b8 70bd 8383 22bf f600 a1bf 4f94 b3bf
00000200: c465 af3e 80b6 a1be 6e72 57be 8756 553f
00000210: ab60 0cbe 476e d43e 93ee cabf bdcd f33e
00000220: 9a4c 013e 4340 d9be 7754 d5bd 21e7 973e
00000230: 9163 afbd 25af 5f3e d93f cabe 4074 e9be
00000240: 910b 5e3e c530 223d 6538 b63e 5938 0c3e
00000250: 7fe0 d3bd e05a f0bd 85a8 963e d52d fbbe
00000260: 8a41 033e de0e 2dbd 5937 ec3e 315c 913e
00000270: 7d13 a6be 8271 613d 5e98 35bf 7a15 163e
00000280: a94a edbd 785f 18bf 4a23 273e e60a 033f
00000290: 661d 9c3d fb17 bbbe f853 903d a32e 2fbe
000002a0: e27a 183d 1811 05bd 03c2 32be 9547 933e
000002b0: aff0 8cbd 365f ddbd ee14 0bbf 3240 973d
000002c0: 551f a13d 6bae 51be 7d8d 54be 7ba9 28bd
000002d0: d276 c9bd 81d6 72be e828 f3be 18ea e8bc
000002e0: 982d 8c3d 9f4e 853d ba8b 9e3e a5fe 2abe
000002f0: 5c03 5dbe a198 d63d fbb3 9ebe 5c6d babe
00000300: 0f4c 2d3e 4c24 b7be 7bff 01bd 27f4 b93e
00000310: bca1 57be b3bc fe3d 70b9 1ebe c0b4 35bd
00000320: f452 c03d 439f b63d 775c ec3c c0af 84be
00000330: 1872 0ebe f663 44be aebc f6be 9d34 f4be
00000340: c6a6 ed39 a14a a2be fea4 1bbe c138 333e
00000350: e044 abbe 2bf9 3f3d 27d9 90be d224 9fbe
00000360: 078e a4bc fef9 08bf 76ec 073e a304 0b3f
00000370: 731f ddbd afde 083e 5e85 d13c 70df c7bd
00000380: 3f54 803c 996c 3bbd 1a3b ce3d f86b f13e
00000390: 47a1 08bd 408e c33e 59db 98bf fdcf 883f
000003a0: cecc 7fbe 966b eabc f760 71bf c290 9d3e
000003b0: 02df bb3e ad38 d33e b333 6dbf 1076 8abd
000003c0: 4c40 853e f941 8fbf df86 b93e d46f d83d
000003d0: 1e00 b2be fd81 cfbd 8dcd 18be 3ad0 3fbf
000003e0: 61d6 a8bd 197d c7be 7d70 41bd ca3f 6a3e
000003f0: 70d7 75be 3dbb 943e 4513 063e 6589 8abc

input_layer.bias f4 [128]
-0.6643412 -0.79542696 -0.4556302 -0.461521 -0.6788367 -0.73436487 -0.62540966 -0.60768557
-0.7467459 -0.6374939 -0.6626422 -0.37829244 -0.5553072 -0.6080029 -0.46376327 -0.30414984
-0.5860943 -0.7130102 -0.7316751 -0.6679664 -0.7447999 -0.2808917 -0.53127813 -0.7138002
-0.3591809 -0.52840966 -0.60687375 -0.7477293 -0.7768619 -0.9975968 -0.7991956 -0.6719109
-0.5499846 -0.5889265 -0.5326014 -0.49396062 -0.9053753 -0.67115897 0.07430885 -0.72087973
-0.9243851 -0.56100875 -0.8082458 -0.3493541 -1.5805966 -0.7521723 -0.5390156 -0.9152028
-0.31645718 -1.0091085 -0.9228856 -0.62488097 -0.661979 -1.1520998 -0.49004936 -0.31514627
-0.7521474 -0.2374994 -0.26939952 -1.0559723 -0.56569713 -0.5954196 0.09542418 0.33108824
-1.2954069 -0.23905154 -0.7025695 -0.47222918 -0.87838095 -0.644444 -0.46280968 -0.7864262
-0.8803103 -0.26108772 -0.6316211 -0.44962436 -1.1663935 -0.24876948 -1.1256605 -0.395945
-0.46254352 -0.533266 -0.51263636 -0.3713782 -0.75864625 -0.9240969 -0.099273555 0.0218023
-0.92101306 -0.91263026 -0.3808288 -0.7105375 -0.68331724 -0.47016072 0.5341741 -0.8255611
-0.85635686 -0.6345718 -0.6371852 -0.6440879 -0.375916 -0.36086133 -0.5189925 -0.33469585
-0.55100167 -0.09132962 -0.66889805 -0.8399388 -0.5251473 -0.7950303 -0.69005054 -0.7308767
-0.6697419 -0.69288415 0.0034797597 -0.32039857 -0.4513811 -0.6798211 -0.4665637 -0.65258306
-0.792104 -1.1994634 -0.49427855 -0.430211 -0.31784096 -0.76296264 -0.455442 -0.696977
00000000: 4412 2abf 1aa1 4bbf 5d48 e9be 7b4c ecbe
00000010: 3ec8 2dbf 56ff 3bbf d91a 20bf 4891 1bbf
00000020: bd2a 3fbf cd32 23bf eba2 29bf 8caf c1be
00000030: 9d28 0ebf 14a6 1bbf 6172 edbe 87b9 9bbe
00000040: 470a 16bf d687 36bf 0f4f 3bbf d9ff 2abf
00000050: 35ab 3ebf 09d1 8fbe d801 08bf 9cbb 36bf
00000060: 8fe6 b7be db45 07bf 145c 1bbf 306b 3fbf
00000070: 6ce0 46bf 8162 7fbf 1598 4cbf 5a02 2cbf
00000080: cacb 0cbf e3c3 16bf 9158 08bf 68e8 fcbe
00000090: adc6 67bf 13d1 2bbf 3d2f 983d 938b 38bf
000000a0: 80a4 6cbf 459e 0fbf 32e9 4ebf 8ade b2be
000000b0: fd50 cabf 5d8e 40bf edfc 09bf bb4a 6abf
000000c0: ad06 a2be 782a 81bf 3b42 6cbf 33f8 1fbf
000000d0: 7577 29bf 0278 93bf c0e7 fabe da5a a1be
000000e0: bb8c 40bf 0b33 73be bcee 89be 1a2a 87bf
000000f0: 87d1 10bf 6b6d 18bf c16d c33d 6684 a93e
00000100: e5cf a5bf edc9 74be 98db 33bf 06c8 f1be
00000110: 93dd 60bf 48fa 24bf 64f5 ecbe 3a53 49bf
00000120: 045c 61bf 4aad 85be ecb1 21bf 2a35 e6be
00000130: 624c 95bf 6dbd 7ebe a515 90bf 4eb9 cabe
00000140: 81d2 ecbe 1f84 08bf 233c 03bf 4925 bebe
00000150: a436 42bf 9d91 6cbf ef4f cbbd bd9a b23c
00000160: 83c7 6bbf 23a2 69bf fefb c2be c9e5 35bf
00000170: e1ed 2ebf e8b8 f0be a2bf 083f f957 53bf
00000180: 343a 5bbf 4c73 22bf 921e 23bf f2e2 24bf
00000190: 1078 c0be d1c2 b8be b1dc 04bf 415d abbe
000001a0: 720e 0dbf 060b bbbd e73c 2bbf 3b06 57bf
000001b0: 0e70 06bf 1b87 4bbf 27a7 30bf bc1a 3bbf
000001c0: 3574 2bbf db60 31bf ae0c 643b 480b a4be
000001d0: 6c1b e7be c108 2ebf 70e1 eebe af0f 27bf
000001e0: 54c7 4abf 0488 99bf 1412 fdbe 9e44 dcbe
000001f0: 0dbc a2be 8551 43bf b22f e9be 166d 32bf

action_layer.weight f4 [4, 128]
-0.10185265 -0.18108477 0.10527766 -0.52538186 -0.1435953 0.044740397 -0.23607114 -0.28729826
0.100534216 -0.097236715 -0.8387296 0.11910643 -0.3326325 -0.29174483 -0.22347732 -0.41962838
0.06196265 -0.29518965 0.0038312234 -0.09114091 -0.14376125 0.4702478 -0.1637981 -0.22357403
0.14095159 -0.10408088 -0.24677278 -0.3658682 0.46353772 0.060591057 -0.37010488 -0.1521647
-0.28031224 -1.3897569 0.4728107 -0.33338997 0.74658394 -0.015494623 1.3619767 0.09194865
-1.0721768 -0.37850022 -0.59594023 -0.2451778 0.17548797 -0.07549985 -0.29433405 -0.5277342
0.15475194 0.30097017 0.5090313 -0.1485338 -0.03521834 0.008356282 -0.18285115 -1.0347935
-0.49201488 -0.16148911 -0.4299976 0.34574082 0.0050491816 0.30178314 -0.34100896 1.9214478
-0.37004808 0.91850066 0.022004016 -0.13879399 0.38240278 -0.15173116 -0.21951005 0.33081403
-0.6499262 -0.07789219 -0.165579 -0.25129935 0.92312586 -0.61096865 0.7149624 -0.048309773
-0.26899877 0.20639798 -0.40525064 -0.13947779 0.08211431 0.2868546 -0.4074163 -0.4084515
-0.41438034 -0.9560257 -0.28226265 -0.061073877 -0.2574976 -1.3787993 -0.6358052 -0.29746208
-0.45027596 -0.5204809 0.062266055 -0.14791733 0.048209306 -0.1651372 -0.38779804 0.8441066
-0.3334715 -0.33428767 0.39534542 0.31470355 -0.8651078 0.04205046 -0.20362893 -0.1137093
-0.072005294 -0.36683735 -1.097298 -0.70345473 0.078509234 0.39394405 -0.71731454 -0.105689116
-0.044488702 0.59343344 -0.023205893 -0.08456037 0.026670452 -0.6473068 -0.16759214 0.37029064
0.046726223 0.13997707 -0.02256389 1.4742832 -0.06958101 0.34743968 -0.3658897 2.6553757
0.26991916 0.03299179 2.5655265 -0.63896006 -0.22694635 0.46623254 0.5518152 -0.74245185
0.4080979 -0.07279069 -0.17113435 -0.2724818 0.42130882 0.40927222 -0.010313224 0.023625122
-0.0156632 0.28412992 0.0076362956 0.51625705 -0.9275929 0.025581727 0.44496423 0.15310343
-0.15769164 -1.2864866 -0.7653959 -0.07377362 0.05372283 -0.05522306 0.2873207 -0.26834092
-0.2522616 -0.20231524 1.731805 1.9147698 -0.020236546 0.5165488 1.7509804 0.21559283
0.012824596 0.4551682 0.63666934 0.082968734 0.04953139 -0.36394292 0.24925964 1.2457929
-0.28982192 0.005343941 0.637866 -0.19981895 0.10301869 -0.2596649 -0.13969178 2.2183263
-0.3851569 0.29270655 -0.62287885 0.08117459 -0.6028982 0.17983332 0.20406362 0.53112966
0.62598085 0.37151077 -0.061817773 0.1514416 -0.2733033 -0.31557354 -0.15369591 -0.06987041
-0.14408433 -0.030466242 -0.6994034 0.1433823 -0.32499465 0.56096214 -0.44600883 -1.3742186
-0.6580281 1.012929 2.671267 0.28715467 -0.2542029 -0.51133007 -0.45132 0.45723638
0.67639077 0.5869766 -0.7075827 -0.055557065 -0.018609853 -0.45857832 0.19186203 -0.3202904
0.16579676 0.099813975 0.40483478 0.5068479 4.3270955 0.5810427 0.33983356 0.3716107
0.041350022 -0.36020213 0.12701765 1.0884069 0.3692009 0.3157257 0.0013850149 0.014244627
-0.25456738 0.0939521 0.2771981 -0.06856144 -1.8511969 0.17791831 -0.0025753519 0.3626573
00000000: 1f98 d0bd 496e 39be d09b d73d 6d7f 06bf
00000010: a50a 13be b541 373d a2bc 71be c218 93be
00000020: e2e4 cd3d 0b24 c7bd fcb6 56bf 12ee f33d
00000030: cf4e aabe 945f 95be 3dd7 64be 88d9 d6be
00000040: 8ccc 7d3d 1923 97be 4315 7b3b 16a8 babd
00000050: 2636 13be 52c4 f03e b0ba 27be 97f0 64be
00000060: 9d55 103e 5b28 d5bd 01b2 7cbe 1453 bbbe
00000070: d154 ed3e 542e 783d 637e bdbe 10d1 1bbe
00000080: 1685 8fbe 8ee3 b1bf 3e14 f23e 17b2 aabe
00000090: 2020 3f3f 29dd 7dbc 4155 ae3f 934f bc3d
000000a0: 173d 89bf c8ca c1be 8a8f 18bf e40f 7bbe
000000b0: 1eb3 333e aa9f 9abd f4b2 96be 9719 07bf
000000c0: 4b77 1e3e c318 9a3e e04f 023f 3f19 18be
000000d0: 1b41 10bd c9e8 083c 553d 3bbe 1d74 84bf
000000e0: 60e9 fbbe 675d 25be a528 dcbe f104 b13e
000000f0: 9b73 a53b 5283 9a3e ba98 aebe 00f2 f53f
00000100: f176 bdbe dc22 6b3f c441 b43c 0320 0ebe
00000110: 4cca c33e 6a5f 1bbe 3ec7 60be 7560 a93e
00000120: 9061 26bf f185 9fbd 8b8d 29be 4faa 80be
00000130: fa51 6c3f 7168 1cbf c707 373f 78e0 45bd
00000140: 35ba 89be fe59 533e 037d cfbe 44d3 0ebe
00000150: 8c2b a83d 9bde 923e df98 d0be 8e20 d1be
00000160: a929 d4be 1abe 74bf bb84 90be 9a28 7abd
00000170: bad6 83be 7f7c b0bf 21c4 22bf f34c 98be
00000180: 928a e6be 3c3e 05bf b10a 7f3d a477 17be
00000190: 1f77 453d ba19 29be 778d c6be 5f17 583f
000001a0: c7bc aabe c127 abbe b76a ca3e d320 a13e
000001b0: b477 5dbf 1a3d 2c3d 1a84 50be 6ce0 e8bd
000001c0: 8377 93bd 1bd2 bbbe 4374 8cbf 9c15 34bf
000001d0: 73c9 a03d 09b3 c93e eda1 37bf 8973 d8bd
000001e0: c939 36bd 41eb 173f 491a bebc fd2d adbd
000001f0: fe7b da3c e6b5 25bf 469d 2bbe bc96 bd3e
00000200: ff63 3f3d 2656 0f3e e8d7 b8bc 50b5 bc3f
00000210: 7d80 8ebd 9de3 b13e e555 bbbe adf1 2940
00000220: d832 8a3e 6622 073d 9631 2440 e392 23bf
00000230: a064 68be 08b6 ee3e c343 0d3f 5311 3ebf
00000240: 35f2 d03e 4913 95bd d83d 2fbe bc82 8bbe
00000250: cab5 d73e 218c d13e ccf8 28bc 7989 c13c
00000260: 1c50 80bc 7a79 913e e439 fa3b 6c29 043f
00000270: ba76 6dbf c590 d13c 5ad2 e33e 25c7 1c3e
00000280: eb79 21be 98ab a4bf fcf0 43bf a016 97bd
00000290: 780c 5c3d 9331 62bd b31b 933e fb63 89be
000002a0: 6f28 81be ba2b 4fbe c9ab dd3f 2d17 f53f
000002b0: 1dc7 a5bc 8b3c 043f 2020 e03f 5ec4 5c3e
000002c0: 411e 523c ce0b e93e c3fc 223f 83eb a93d
000002d0: 6de1 4a3d ba56 babe eb3d 7f3e 2476 9f3f
000002e0: 8a63 94be 3a1c af3b 304b 233f 579d 4cbe
000002f0: 77fb d23d ccf2 84be 5d0b 0fbe 0ff9 0d40
00000300: 4933 c5be a2dd 953e fd74 1fbf dd3e a63d
00000310: 8957 1abf 3a26 383e 0ef6 503e 1df8 073f
00000320: 4840 203f a936 be3e a234 7dbd 8213 1b3e
00000330: 69ee 8bbe db92 a1be 7662 1dbe 3818 8fbd
00000340: d88a 13be 5794 f9bc 1a0c 33bf cfd2 123e
00000350: b365 a6be 379b 0f3f 455b e4be 65e6 afbf
00000360: 8874 28bf a8a7 813f 0af6 2a40 f005 933e
00000370: e226 82be 87e6 02bf 6a13 e7be e31a ea3e
00000380: f227 2d3f 1944 163f 2424 35bf ce8f 63bd
00000390: b173 98bc c7ca eabe 7b77 443e 1afd a3be
000003a0: a0c6 293e 456b cc3d 8146 cf3e c9c0 013f
000003b0: 9177 8a40 37bf 143f aafe ad3e c243 be3e
000003c0: a45e 293d 6a6c b8be ea10 023e eb50 8b3f
000003d0: e607 bd3e cda6 a13e 6389 b53a 4c62 693c
000003e0: a856 82be f569 c03d e9ec 8d3e f169 8cbd
000003f0: 05f4 ecbf 3830 363e 3cc7 28bb 38ae b93e

action_layer.bias f4 [4]
-0.059944633 0.016453082 -0.098098874 0.7771756
00000000: 8188 75bd 9dc8 863c 10e8 c8bd fbf4 463f

value_layer.weight f4 [1, 128]
0.019787982 0.08043825 -0.02054757 0.34279874 -0.009095635 0.04418516 0.05992841 0.23863225
0.09378787 0.20410816 0.11507224 0.037112817 0.04399922 -0.058375794 0.1451192 -0.22643986
0.026548697 -0.079634085 0.08100263 0.11735208 0.13817199 0.0006119222 -0.002177774 0.11536148
0.028898304 -0.021135593 -0.03711037 0.208357 0.16474304 0.3477575 0.122942954 -0.023817142
0.03330168 0.12866448 0.2350127 -0.04957586 -0.15299095 0.12958793 0.07372185 -0.036543913
-0.019752974 -0.034551084 -0.05266043 0.0664048 0.5654658 -0.07303917 -0.40354317 0.00054816954
0.18798067 0.11319054 -0.08510065 -0.042199522 -0.17310679 -0.36836737 0.037118874 0.5680204
-0.02904513 -0.014947508 -0.008872366 -0.3112164 -0.04203432 -0.23198499 0.19803439 0.5689839
0.12633401 -0.045234673 0.01253284 0.0481467 0.22579533 0.11726787 0.036258448 -0.1361869
0.19442119 0.1191092 0.082174405 0.05545242 0.16739109 -0.21002303 0.51336 -0.018543875
-0.024990896 -0.06965183 -0.0053713033 0.09899902 -0.042004824 -0.14365546 0.16481027 0.04397225
0.07906338 0.120477 0.002420015 0.096399404 0.15043348 0.41674808 -0.52909523 0.1410989
-0.05430645 -0.14434372 -0.15953763 0.09633035 -0.08501877 0.20841582 -0.34512222 0.095126554
-0.005442578 0.021925448 0.11763192 -0.05045703 0.14447217 0.013303825 -0.06650025 0.08307108
0.13276646 -0.017508868 0.24077296 -0.2749794 0.045245264 0.0018021326 -0.15646642 -0.039239027
0.0077521987 0.14693207 0.062307082 0.081299774 0.105372824 0.10413105 0.04708126 0.084810756
00000000: 681a a23c cfbc a43d 6153 a8bc 5183 af3e
00000010: dc05 15bc 80fb 343d 7e77 753d 035c 743e
00000020: db13 c03d bb01 513e ffaa eb3d 9c03 183d
00000030: 8738 343d 751b 6fbd 219a 143e dadf 67be
00000040: a77c d93c 3217 a3bd b5e4 a53d 4a56 f03d
00000050: f57c 0d3e 6769 203a fcb8 0ebb a442 ec3d
00000060: 23bc ec3c 8d24 adbc 0b01 18bd 8a5b 553e
00000070: 66b2 283e 450d b23e 84c9 fb3d 2b1c c3bc
00000080: 5867 083d 9fc0 033e 2ba7 703e 0f10 4bbd
00000090: a9a9 1cbe b3b2 043e 7bfb 963d 12af 15bd
000000a0: fdd0 a1bc 7085 0dbd 77b2 57bd 3dff 873d
000000b0: 5ec2 103f 8f95 95bd 369d cebe 09b3 0f3a
000000c0: 017e 403e 71d0 e73d 4049 aebd 68d9 2cbd
000000d0: e842 31be a69a bcbe f609 183d c969 113f
000000e0: 0df0 edbc 65e6 74bc 665d 11bc c257 9fbe
000000f0: 2e2c 2cbd 798d 6dbe 87c9 4a3e eea8 113f
00000100: b45d 013e fe47 39bd 8a56 4d3c 7935 453d
00000110: e436 673e 232a f03d bd83 143d 9474 0bbe
00000120: 5916 473e 86ef f33d 0e4b a83d 1422 633d
00000130: 9268 2b3e 4710 57be 906b 033f 53e9 97bc
00000140: b5b9 ccbc 9ea5 8ebd c201 b0bb 00c0 ca3d
00000150: 400d 2cbd 6b1a 13be 06c4 283e 3f1c 343d
00000160: fbeb a13d a5bc f63d 1d99 1e3b 0d6d c53d
00000170: 3c0b 1a3e 0160 d53e c972 07bf 3b7c 103e
00000180: 7170 5ebd d7ce 13be d55d 23be d948 c53d
00000190: 521e aebd f56a 553e dcb3 b0be b6d1 c23d
000001a0: a757 b2bb ff9c b33c 01e9 f03d 08ac 4ebd
000001b0: 83f0 133e 49f8 593c 4831 88bd 2c21 aa3d
000001c0: eef3 073e c26e 8fbc 308d 763e 1aca 8cbe
000001d0: 1953 393d 8935 ec3a bc38 20be 1ab9 20bd
000001e0: 2806 fe3b 5c75 163e b635 7f3d 7f80 a63d
000001f0: b5cd d73d a942 d53d 47d8 403d 43b1 ad3d
