checkpoint/LunarLander_5000.pth (torch_old, 8217 bytes, 5 tensors)

input_layer.weight f4 [128, 8]
000000 4e 48 a5 3d 5e 1d 1a bf 4c 3e 31 be 4c 8a 45 3e
       0.08070432 -0.6020106 -0.1730892 0.19291037
000010 85 bb 6e bd a5 5d df 3c b8 3d 83 be 88 95 4e 3e
       -0.0582843 0.027266333 -0.25633025 0.20174229
000020 0e fa 14 3c 23 ac 27 bd b4 5d 91 be 9c 2d c1 3c
       0.009092821 -0.040935647 -0.28391802 0.023581319
000030 ef e0 21 bd 98 8d 8d 3d 51 f9 97 be b3 aa 7d be
       -0.039521154 0.069117725 -0.296824 -0.24772148
000040 1f 9a 8d 3e a8 bb d5 be 26 18 7f 3c 32 66 82 3e
       0.27656648 -0.41744733 0.015569722 0.25468594
000050 87 a5 3f be d7 e9 9e 3d 82 2b 91 be 84 96 ed bd
       -0.18715487 0.07759445 -0.28353506 -0.11600974
000060 d7 a8 89 3f 68 ec 7b bf 01 97 a9 be 64 d1 cb bf
       1.0754651 -0.984076 -0.3312302 -1.5923276
000070 52 86 e4 bf f4 40 07 c0 cb 08 c1 bf 47 00 80 3c
       -1.7853491 -2.1133394 -1.5080808 0.015625132
000080 fe ea d2 3e e7 b5 10 bf 56 7a c2 3d 28 42 c8 3e
       0.4119491 -0.5652756 0.0949599 0.39112973
000090 20 27 a4 3d 67 7b b0 bd dd e3 e1 be 89 cc 8b 3d
       0.08015275 -0.08617287 -0.44119158 0.06826121
0000a0 73 b7 a6 bd f5 94 cc bd 48 8f f3 bd b0 45 f0 3c
       -0.08140459 -0.09989349 -0.11892563 0.029330105
0000b0 3a 92 a7 be bf 65 cb 3d 8d 73 88 be f1 04 fa bd
       -0.3272875 0.09931516 -0.26650658 -0.12207974
0000c0 66 e8 3b 3e 15 83 00 bb 82 a2 08 3e c3 cd 87 3d
       0.18350372 -0.001960938 0.13343242 0.06631043
0000d0 fc f6 89 be bf 89 94 3e 9f 12 2a bf 21 55 a3 be
       -0.26946247 0.29011342 -0.66434664 -0.31900886
0000e0 5d 91 1b 3e 45 49 04 c0 88 e8 15 40 21 2d 85 40
       0.1519217 -2.066972 2.3423176 4.161759
0000f0 19 1c 06 c0 c2 e2 28 3f 5d 06 c4 bc a6 aa 4b bd
       -2.095465 0.65971005 -0.023928815 -0.04972329
000100 47 4a 94 3e f9 bb de be ff cb 6e be 55 33 f4 3e
       0.2896292 -0.43502787 -0.23320006 0.47695413
000110 05 29 99 bd 00 e4 94 be 06 ff 68 be 66 92 93 be
       -0.07478527 -0.290802 -0.22753534 -0.2882263
000120 e9 30 b9 3e 55 9b 22 be 73 24 bd 3e 39 6f 5a 3e
       0.36170128 -0.15879567 0.3694187 0.2133149
000130 7a 05 91 be bc cd bd 3e ad 4f 89 be ae 3c de bd
       -0.2832449 0.37071025 -0.268186 -0.108514175
000140 c4 85 83 3f 01 20 45 bf f6 03 1f 3f 8b 8a a8 3f
       1.0275197 -0.7700196 0.6211542 1.316728
000150 c5 a7 f8 be 5b 0b ff 3e a3 8c 2d 3f 0d c3 24 c0
       -0.48565498 0.4981335 0.6779272 -2.574405
000160 23 24 d4 3d 80 76 02 be cc 92 00 bf 2e 25 79 bd
       0.10358455 -0.12740517 -0.50223994 -0.060826473
000170 8e 0d 59 3e 01 18 35 3e d4 33 50 bf 6b 06 a6 3d
       0.21196577 0.17684938 -0.81329083 0.08106693
000180 8d da 83 3d 78 2a 0c bf c2 55 0d 3b 28 73 a3 3e
       0.0643817 -0.547523 0.0021566008 0.31923795
000190 b4 d0 12 be 86 cc c2 bd 23 b7 68 bd f0 ad 63 3e
       -0.14337426 -0.09511666 -0.056815278 0.2223432
0001a0 f8 73 a4 bd 55 43 0d bf 65 fb 9a 3e a3 c7 10 3e
       -0.08029932 -0.55180866 0.30269924 0.14138655
0001b0 f5 b2 9b 3d 48 d4 20 be f5 d0 fa bc 6b 83 bb be
       0.07602493 -0.15705979 -0.030617217 -0.366237
0001c0 dc b2 95 bd cc 60 ce be 30 52 b5 3d 64 e4 6b 3e
       -0.07309505 -0.40308225 0.08853567 0.23036343
0001d0 cb ba 2b 3b e5 b8 80 be a3 d3 2d bf 9d b3 9c bd
       0.0026203867 -0.25141063 -0.67901057 -0.07651446
0001e0 55 9a 64 3f bd 3b 82 c0 7a ef 39 3f 53 da 00 c0
       0.8929799 -4.0697923 0.7263104 -2.0133255
0001f0 74 ee 99 3e fc a9 4b 3d fb 5e 28 c0 dd 7f 7c 3e
       0.30064738 0.049722657 -2.6307971 0.24658151
000200 80 0a a5 3e 08 c8 9d be 2b 21 98 be 56 b2 4b 3f
       0.32234573 -0.30816674 -0.29712805 0.79568994
000210 88 9b bf bd a0 fb 0a 3f 93 ee ca bf 83 bd 91 3e
       -0.09355837 0.542902 -1.5854057 0.28464898
000220 9a 4c 01 3e 43 40 d9 be 77 54 d5 bd 21 e7 97 3e
       0.12626877 -0.4243184 -0.10416501 0.29668525
000230 91 63 af bd 25 af 5f 3e d9 3f ca be 40 74 e9 be
       -0.08563913 0.21844156 -0.39501837 -0.45596504
000240 a8 e9 66 3e 52 67 22 3d 6e 97 b3 3e 0a b7 0d 3e
       0.2255007 0.039649315 0.3507647 0.13839355
000250 e8 fe b6 bd de f7 41 bd b5 1e 48 3e d5 2d fb be
       -0.08935338 -0.047355525 0.19542964 -0.49058405
000260 8a 41 03 3e de 0e 2d bd 59 37 ec 3e 31 5c 91 3e
       0.1281797 -0.042250507 0.46135977 0.2839065
000270 7d 13 a6 be 82 71 61 3d 5e 98 35 bf 7a 15 16 3e
       -0.32436743 0.05503989 -0.7093562 0.1465663
000280 a6 d1 99 3e a9 6a 8a bf e6 5e 50 3e cf 3a 8e 3f
       0.30042762 -1.08138 0.20348701 1.1111697
000290 7f de c6 3e 78 9a c7 be 95 3c 51 be a3 2e 2f be
       0.38841626 -0.38985038 -0.20433266 -0.17107634
0002a0 c7 63 18 3d 85 11 05 bd 0f c3 32 be f9 46 93 3e
       0.03720453 -0.03248741 -0.17457221 0.28765085
0002b0 35 f4 8c bd 0b 76 dd bd ee 14 0b bf 32 40 97 3d
       -0.06882516 -0.108135305 -0.5432881 0.07385291
0002c0 47 71 96 3d 59 8c 51 be bc 4c 53 be a8 26 23 bd
       0.07345825 -0.20463695 -0.2063474 -0.039831787
0002d0 07 c0 cb bd 0d bf 6d be e8 28 f3 be 20 56 22 bd
       -0.09948736 -0.23217411 -0.47492146 -0.039632916
0002e0 98 2d 8c 3d 9f 4e 85 3d ba 8b 9e 3e a5 fe 2a be
       0.06844634 0.065091364 0.30965978 -0.16698702
0002f0 5c 03 5d be a1 98 d6 3d fb b3 9e be 5c 6d ba be
       -0.21583313 0.104783304 -0.3099669 -0.3641156
000300 0f 4c 2d 3e 4c 24 b7 be 7b ff 01 bd 27 f4 b9 3e
       0.16923545 -0.3576988 -0.031737786 0.36319086
000310 bc a1 57 be b3 bc fe 3d 70 b9 1e be c0 b4 35 bd
       -0.2105779 0.12438335 -0.15500426 -0.04436183
000320 3d 6f f5 3d fa d8 b6 3d 2a 3d fd 3c 19 e4 82 be
       0.11984108 0.08928104 0.030912954 -0.2556465
000330 2b 16 05 be 8b aa 19 be ae bc f6 be 9d 34 f4 be
       -0.12996738 -0.15006463 -0.48190826 -0.4769639
000340 b4 d6 dc bc 50 21 a3 be 22 d5 1b be 02 be 27 3e
       -0.026957847 -0.31861353 -0.15218022 0.16381076
000350 4d a0 c3 be b9 0e 27 3c 27 d9 90 be d2 24 9f be
       -0.38208237 0.010196381 -0.28290674 -0.3108278
000360 07 8e a4 bc fe f9 08 bf 76 ec 07 3e a3 04 0b 3f
       -0.020087255 -0.5350646 0.13273796 0.5430395
000370 73 1f dd bd af de 08 3e 5e 85 d1 3c 70 df c7 bd
       -0.10797014 0.13366197 0.02557629 -0.09759414
000380 d3 09 b2 be c8 9f 84 be 8c 4c 75 3f d3 4a 95 3e
       -0.3477312 -0.25903153 0.95819926 0.2915865
000390 d4 71 9f 3b b0 d7 06 40 de 64 d4 bd 44 ef 97 3f
       0.0048658643 2.1069145 -0.103708014 1.1869893
0003a0 c7 a1 97 be d2 81 12 bd b9 e6 21 bf c7 ea c3 3e
       -0.29615614 -0.035768338 -0.6324268 0.38265058
0003b0 68 c1 62 be 42 8c 8d be b3 33 6d bf 0e c3 57 bf
       -0.22144091 -0.2764607 -0.9265701 -0.84282005
0003c0 dd ba 84 3e 84 86 8f bf 08 88 be 3e 65 68 c5 3d
       0.25923815 -1.1212926 0.3721316 0.09639052
0003d0 1c 19 ae be e3 9b 40 be 07 18 15 be 3a d0 3f bf
       -0.34003532 -0.18809466 -0.14559947 -0.74927104
0003e0 66 07 98 be 93 e6 b5 be 3a 8f 14 bd 6d 8e 61 3e
       -0.29693145 -0.35527477 -0.036269404 0.22026987
0003f0 56 b4 5b be f9 9f 9c 3e 83 5e ba be 6b 72 a2 be
       -0.21455511 0.305908 -0.36400232 -0.3172792

input_layer.bias f4 [128]
000000 44 12 2a bf 1a a1 4b bf 5d 48 e9 be 74 db 4a bf
       -0.6643412 -0.79542696 -0.4556302 -0.7924111
000010 3e c8 2d bf 56 ff 3b bf 3a d1 26 bf 87 7d 77 bf
       -0.6788367 -0.73436487 -0.65163004 -0.96675915
000020 bd 2a 3f bf 61 3e 39 bf 30 86 8c bf 44 2a 11 bf
       -0.7467459 -0.7236081 -1.0978451 -0.5670512
000030 9d 28 0e bf fa 6f 33 bf f2 e8 d7 be 02 0c 20 3e
       -0.5553072 -0.7009274 -0.4216991 0.1562958
000040 05 2a 20 bf d6 87 36 bf f5 40 3d bf d9 ff 2a bf
       -0.62564117 -0.7130102 -0.7392724 -0.6679664
000050 99 f9 9e bf 94 ce 8f be 35 79 08 bf 9c bb 36 bf
       -1.2419921 -0.28087294 -0.5330995 -0.7138002
000060 8f e6 b7 be c9 78 0b bf eb 85 14 bf 30 6b 3f bf
       -0.3591809 -0.5448118 -0.5801684 -0.7477293
000070 fc 45 57 bf ac 8c bb bf 79 87 4c bf 0c f7 74 bf
       -0.8409116 -1.4652305 -0.79894215 -0.95689464
000080 ca cb 0c bf 3d 64 10 bf 43 8a 09 bf ce d2 0d bf
       -0.5499846 -0.5640295 -0.53726596 -0.5539979
000090 ad c6 67 bf 13 d1 2b bf 16 39 27 3f 06 31 39 bf
       -0.9053753 -0.67115897 0.6532148 -0.7234043
0000a0 62 19 6a bf a3 66 0f bf e0 fe 91 bf ba 9a 4b bf
       -0.9144498 -0.56015986 -1.1405907 -0.7953297
0000b0 fd 50 ca bf 5d 8e 40 bf a1 a9 2c be e8 64 6a bf
       -1.5805966 -0.7521723 -0.16861583 -0.9156022
0000c0 ad 06 a2 be 30 7c 8b bf a8 84 6a bf 33 f8 1f bf
       -0.31645718 -1.0897274 -0.9160867 -0.62488097
0000d0 66 98 63 bf 2d 34 ca bf 83 cf 5f bf 61 1c c2 be
       -0.88904417 -1.5797173 -0.8742601 -0.37912276
0000e0 a2 02 4c bf 0b 33 73 be 7f 18 f3 be 36 82 cb bf
       -0.7969152 -0.2374994 -0.47479627 -1.5899112
0000f0 87 d1 10 bf 6b 6d 18 bf 76 0b 90 be d6 3c a6 be
       -0.56569713 -0.5954196 -0.28133744 -0.3246829
000100 c3 e5 a4 bf 18 93 c3 be 12 23 3e bf 68 59 f5 be
       -1.2882618 -0.3819816 -0.74272263 -0.47919774
000110 ee 61 88 bf 48 fa 24 bf a6 4a 95 bf bd 4c 56 bf
       -1.0654886 -0.644444 -1.1663406 -0.83710843
000120 04 5c 61 bf 4a ad 85 be 5a 29 5f bf ef de 86 bf
       -0.8803103 -0.26108772 -0.8717247 -1.0536784
000130 e4 f6 94 bf e1 2d 86 be 93 90 8f bf 61 aa ce be
       -1.1637845 -0.26206878 -1.1215996 -0.40364364
000140 81 d2 ec be 1f 84 08 bf f3 83 6c bf 4e c8 b7 be
       -0.46254352 -0.533266 -0.9238884 -0.35895008
000150 a4 36 42 bf c2 f3 6c bf 01 49 53 bf 6f 3f 22 bf
       -0.75864625 -0.92559445 -0.8253327 -0.6337804
000160 c9 17 80 bf 01 ae 88 bf 71 a3 a5 bf 9d 40 7c bf
       -1.0007259 -1.0678102 -1.2940503 -0.9853609
000170 e1 ed 2e bf 5c 5d d0 be 8b c4 76 3e 9b c4 74 bf
       -0.68331724 -0.40696228 0.24098413 -0.95612496
000180 cf d2 8c bf e9 5d 76 bf 31 c2 32 bf 26 56 aa bf
       -1.1001834 -0.96237046 -0.6982756 -1.330754
000190 7c a0 09 bf b8 f6 97 be b1 dc 04 bf 17 08 3a bf
       -0.53760505 -0.2968042 -0.5189925 -0.72668594
0001a0 a4 c8 0e bf 7c d2 09 bf 6c 87 31 bf 54 0f 91 bf
       -0.55774903 -0.538368 -0.6934726 -1.1332803
0001b0 9e 87 57 bf 1b 87 4b bf 27 a7 30 bf 1b af 39 bf
       -0.8419131 -0.7950303 -0.69005054 -0.72532815
0001c0 35 74 2b bf 5a d5 86 bf 38 15 df 3c ae 17 6a be
       -0.6697419 -1.053386 0.027231798 -0.22860596
0001d0 6c 1b e7 be c1 08 2e bf 2f 18 60 bf db 1a 4f bf
       -0.4513811 -0.6798211 -0.875369 -0.80900353
0001e0 08 e9 4b bf bd 97 9a bf 14 12 fd be 3d b2 3e bf
       -0.7965245 -1.2077557 -0.49427855 -0.7449072
0001f0 47 8c 67 bf 2f 31 44 bf b2 2f e9 be ad c1 8f bf
       -0.9044842 -0.7663755 -0.455442 -1.123098

action_layer.weight f4 [4, 128]
000000 1f 98 d0 bd 49 6e 39 be d0 9b d7 3d 82 53 a7 bf
       -0.10185265 -0.18108477 0.10527766 -1.307236
000010 a5 0a 13 be b5 41 37 3d a2 bc 71 be c5 0b d2 be
       -0.1435953 0.044740397 -0.23607114 -0.41024604
000020 e2 e4 cd 3d 0b 24 c7 bd 9c 63 6b bf 23 0a 23 3e
       0.100534216 -0.097236715 -0.91948867 0.15921836
000030 cf 4e aa be 94 5f 95 be 3d d7 64 be 51 cb bc be
       -0.3326325 -0.29174483 -0.22347732 -0.36873868
000040 f6 00 27 3d 19 23 97 be 43 15 7b 3b 16 a8 ba bd
       0.0407724 -0.29518965 0.0038312234 -0.09114091
000050 44 f8 d7 bd 52 c4 f0 3e b0 ba 27 be 97 f0 64 be
       -0.105454 0.4702478 -0.1637981 -0.22357403
000060 9d 55 10 3e 5b 28 d5 bd 01 b2 7c be 14 53 bb be
       0.14095159 -0.10408088 -0.24677278 -0.3658682
000070 bf 7e af 3e 54 2e 78 3d 63 7e bd be df d2 1b be
       0.34276387 0.060591057 -0.37010488 -0.1521716
000080 16 85 8f be c2 8d 25 c0 3e 14 f2 3e fd b1 aa be
       -0.28031224 -2.5867772 0.4728107 -0.3333892
000090 20 20 3f 3f 29 dd 7d bc ce 70 23 40 93 4f bc 3d
       0.74658394 -0.015494623 2.55376 0.09194865
0000a0 17 3d 89 bf c8 ca c1 be 7f 64 cf be a7 bc 58 be
       -1.0721768 -0.37850022 -0.4050636 -0.21165715
0000b0 1e b3 33 3e aa 9f 9a bd cd 76 ce bf 97 19 07 bf
       0.17548797 -0.07549985 -1.6130005 -0.5277342
0000c0 4b 77 1e 3e a2 20 9a 3e 71 b2 02 3f 3f 19 18 be
       0.15475194 0.30103022 0.5105353 -0.1485338
0000d0 1b 41 10 bd 9d 17 33 3e 15 8b 3a be a9 de 15 c0
       -0.03521834 0.17489477 -0.18217118 -2.341715
0000e0 67 80 f2 be 67 5d 25 be a5 28 dc be 6d 3d 54 3f
       -0.47363588 -0.16148911 -0.4299976 0.8290623
0000f0 9b 73 a5 3b 52 83 9a 3e d7 6e 8a 3e 42 0d 8f 3f
       0.0050491816 0.30178314 0.2703769 1.1175921
000100 f1 76 bd be aa 37 89 3f c6 41 b4 3c 03 20 0e be
       -0.37004808 1.0720112 0.02200402 -0.13879399
000110 5d cd c3 3e 6a 5f 1b be 58 d8 0b be 74 0b a8 3e
       0.38242617 -0.15173116 -0.13656747 0.32821238
000120 90 61 26 bf f1 85 9f bd 00 b4 fe bd 9a 13 7d be
       -0.6499262 -0.07789219 -0.12436676 -0.24714509
000130 74 5f 75 3f d3 ec 0b c0 73 6f ff 3e 78 e0 45 bd
       0.95848775 -2.1863296 0.49889717 -0.048309773
000140 35 ba 89 be fe 59 53 3e 15 d2 e2 be 44 d3 0e be
       -0.26899877 0.20639798 -0.44300905 -0.13947779
000150 8c 2b a8 3d 23 de 92 3e c3 0a b3 be a6 aa 2c bf
       0.08211431 0.28685102 -0.34969148 -0.6744789
000160 61 55 d5 be 45 ec 7c bf 9a f7 df bf 9f ed ab 3d
       -0.416667 -0.9879802 -1.7497437 0.08394932
000170 ba d6 83 be fa 53 9f bf e4 e0 0c c0 f3 4c 98 be
       -0.2574976 -1.2447503 -2.2012262 -0.29746208
000180 92 8a e6 be ae 3f 05 bf 0a 0b 7f 3d a3 58 d2 bd
       -0.45027596 -0.5205029 0.062266387 -0.10270812
000190 94 b1 1b 3e 5d ee 16 bf 77 8d c6 be 84 91 28 3e
       0.1520446 -0.58957464 -0.38779804 0.1646176
0001a0 c7 bc aa be 95 0b fc be 96 7f a8 3e 12 21 a1 3e
       -0.3334715 -0.49227586 0.3290984 0.31470543
0001b0 f1 ac 87 bf 1a 3d 2c 3d 1a 84 50 be 6c e0 e8 bd
       -1.0599653 0.04205046 -0.20362893 -0.1137093
0001c0 83 77 93 bd e6 df 8c be 3e 4c 80 bf 2f c2 86 bf
       -0.072005294 -0.2751457 -1.0023267 -1.052801
0001d0 73 c9 a0 3d 09 b3 c9 3e f6 f2 8a bf dd 76 d8 bd
       0.078509234 0.39394405 -1.0855396 -0.10569546
0001e0 c9 39 36 bd 41 eb 17 3f 49 1a be bc ff eb 4d 3f
       -0.044488702 0.59343344 -0.023205893 0.80438226
0001f0 8e ee 0d bf e6 b5 25 bf 46 9d 2b be b9 0f 63 3f
       -0.5544213 -0.6473068 -0.16759214 0.88695866
000200 ff 63 3f 3d 26 56 0f 3e e8 d7 b8 bc b6 c6 8f 3f
       0.046726223 0.13997707 -0.02256389 1.1232517
000210 7d 80 8e bd 9d e3 b1 3e e5 55 bb be 5f ad 3e 40
       -0.06958101 0.34743968 -0.3658897 2.9793317
000220 d8 32 8a 3e 87 9c 05 3d 06 93 1f 40 5e 8c 22 bf
       0.26991916 0.03261998 2.4933486 -0.63495433
000230 a0 64 68 be 08 b6 ee 3e c3 43 0d 3f 35 5a f0 bf
       -0.22694635 0.46623254 0.5518152 -1.8777529
000240 dc b6 c3 3e 49 13 95 bd d8 3d 2f be bc 82 8b be
       0.38225448 -0.07279069 -0.17113435 -0.2724818
000250 56 33 5f 3f 21 8c d1 3e cc f8 28 bc 79 89 c1 3c
       0.8718771 0.40927222 -0.010313224 0.023625122
000260 1c 50 80 bc 7a 79 91 3e e4 39 fa 3b 6c 29 04 3f
       -0.0156632 0.28412992 0.0076362956 0.51625705
000270 60 93 8a bf c5 90 d1 3c 5a d2 e3 3e ab 1f 21 3e
       -1.0826225 0.025581727 0.44496423 0.15734737
000280 eb 79 21 be 58 7e ef bf fc f0 43 bf 1d 15 97 bd
       -0.15769164 -1.8710432 -0.7653959 -0.07377074
000290 78 0c 5c 3d 93 31 62 bd cc e7 c1 3e fb 63 89 be
       0.05372283 -0.05522306 0.3787216 -0.26834092
0002a0 63 2e 81 be 35 4b 51 be ee 83 d3 3f f5 77 d3 3f
       -0.25230703 -0.20438845 1.6524637 1.6520983
0002b0 1d c7 a5 bc 8b 3c 04 3f 59 c2 68 40 5e c4 5c 3e
       -0.020236546 0.5165488 3.636862 0.21559283
0002c0 41 1e 52 3c d8 cd dd 3e c9 1c 23 3f 83 eb a9 3d
       0.012824596 0.4332111 0.637158 0.082968734
0002d0 6d e1 4a 3d 71 2d d2 bf 96 91 8a 3e cd 20 f1 3f
       0.04953139 -1.6420118 0.27064198 1.8838135
0002e0 ba d9 91 be 3a 1c af 3b 30 4b 23 3f e5 8c dd bf
       -0.28486425 0.005343941 0.637866 -1.7308623
0002f0 77 fb d2 3d cc f2 84 be 00 ce 00 bf 6a 12 4b 40
       0.10301869 -0.2596649 -0.5031433 3.172999
000300 af 2f c5 be 0c c0 b8 3e 61 ba 1e bf dd 3e a6 3d
       -0.38512942 0.3608402 -0.6200314 0.08117459
000310 17 7e 1a bf 3a 26 38 3e f0 71 45 3f fb 39 0e 3f
       -0.6034865 0.17983332 0.7712698 0.5555722
000320 48 40 20 3f a9 36 be 3e 94 e8 8b bd 56 46 7e 3e
       0.62598085 0.37151077 -0.0683147 0.24831519
000330 b0 10 ba be 84 95 34 bf b6 23 c0 bd 38 18 8f bd
       -0.36340857 -0.7054064 -0.09381811 -0.06987041
000340 d8 8a 13 be 57 94 f9 bc c9 e8 15 bf cf d2 12 3e
       -0.14408433 -0.030466242 -0.58558327 0.1433823
000350 b3 65 a6 be 4a 3a 13 3f d6 1c 7e bf a4 16 fc bf
       -0.32499465 0.5751082 -0.9926275 -1.9694409
000360 8b 74 28 bf 24 f6 78 3f cf 5f 83 40 eb 64 a3 3e
       -0.6580283 0.9725058 4.1054454 0.31912932
000370 e2 26 82 be de 97 9e bf 8e 1e ca be e3 1a ea 3e
       -0.2542029 -1.2390096 -0.39476436 0.45723638
000380 f2 27 2d 3f e3 f3 28 3f cd 24 35 bf d6 8e 9a 3e
       0.67639077 0.6599714 -0.7075928 0.301871
000390 4d 70 09 be 8d 3b aa 3b 7b 77 44 3e 51 d9 9f 3d
       -0.13421746 0.0051950873 0.19186203 0.07805122
0003a0 a0 c6 29 3e bc a3 e5 be 16 0f cf 3e cf 68 fd 3e
       0.16579676 -0.44851482 0.40441197 0.49494025
0003b0 f4 5e c8 40 37 bf 14 3f aa fe ad 3e c2 43 be 3e
       6.261591 0.5810427 0.33983356 0.3716107
0003c0 a4 5e 29 3d 0e 55 b1 3d 93 8c 19 c0 59 dc 4f be
       0.041350022 0.08658801 -2.399205 -0.202989
0003d0 e6 07 bd 3e cd a6 a1 3e 46 f5 dc bf eb 34 eb 3c
       0.3692009 0.3157257 -1.7262352 0.028711757
0003e0 a8 56 82 be a5 6b c0 3d e9 ec 8d 3e 69 dd 28 bf
       -0.25456738 0.093955316 0.2771981 -0.65962845
0003f0 f8 81 6a c0 d2 33 36 3e 3c c7 28 bb 91 1c 46 bf
       -3.6641827 0.17793205 -0.0025753519 -0.7738734

action_layer.bias f4 [4]
000000 14 63 10 3f a4 f5 91 3e ab 57 a5 bf 09 45 cd 3f
       0.5640118 0.2850772 -1.2917379 1.6036693

value_layer.weight f4 [1, 128]
000000 68 1a a2 3c cf bc a4 3d 61 53 a8 bc 61 09 2b bf
       0.019787982 0.08043825 -0.02054757 -0.66811186
000010 dc 05 15 bc 80 fb 34 3d ab f8 6a 3d 54 07 fe 3d
       -0.009095635 0.04418516 0.057366055 0.124037415
000020 db 13 c0 3d a0 d2 3f 3e 8e db 2d 3c 9e 64 7a bc
       0.09378787 0.18732691 0.010611428 -0.015282778
000030 87 38 34 3d bf 21 e1 bc cd fb 14 3e bc ba aa 3e
       0.04399922 -0.027481912 0.1454918 0.33345592
000040 a4 2f 38 bd 32 17 a3 bd 15 d7 a3 3d 4a 56 f0 3d
       -0.04496731 -0.079634085 0.08000008 0.11735208
000050 c3 99 ec be bb cc 20 3a 8d 08 2e 3b a4 42 ec 3d
       -0.4621106 0.0006134023 0.002655539 0.11536148
000060 23 bc ec 3c 5b 1b 90 bc 3a f0 1c bd 8a 5b 55 3e
       0.028898304 -0.01759117 -0.038315035 0.208357
000070 97 b9 b4 be b6 59 fb 3c 1b 5c 02 3e e2 d0 34 3c
       -0.35297844 0.030682426 0.12730448 0.01103613
000080 58 67 08 3d 5c a0 b6 bd f0 b1 70 3e fc 36 a2 3c
       0.03330168 -0.08917305 0.23505378 0.01980161
000090 a9 a9 1c be b3 b2 04 3e 56 44 0e bf f0 8f 10 bd
       -0.15299095 0.12958793 -0.5557302 -0.03529352
0000a0 df 61 0d be 6a 2c 0b bd c7 6f e0 bd 71 86 1c 3d
       -0.13806866 -0.033977903 -0.1095882 0.03821415
0000b0 5e c2 10 3f 8f 95 95 bd 35 fa 2c bf 7f 97 02 bc
       0.5654658 -0.07303917 -0.67569286 -0.00797069
0000c0 01 7e 40 3e 58 a4 e3 3d a7 56 ae bd 68 d9 2c bd
       0.18798067 0.111153305 -0.085126214 -0.042199522
0000d0 eb ca 5e 3d c8 61 cd 3e 75 8e 83 bd e1 95 3f 3d
       0.054392736 0.40113664 -0.06423656 0.046773795
0000e0 81 8b c6 3b 65 e6 74 bc 2d 41 31 3d c2 db 01 3f
       0.0060591106 -0.014947508 0.043275047 0.5072595
0000f0 2e 2c 2c bd 79 8d 6d be 77 0c a5 3e d7 f4 0f 3f
       -0.04203432 -0.23198499 0.32236072 0.5623297
000100 17 d0 01 3e 77 2b ca bd e8 83 bf bb 4f 37 44 3d
       0.12677036 -0.098715715 -0.005844582 0.04790431
000110 88 6b 55 3e 23 2a f0 3d a0 e6 05 bf 2c fd 03 be
       0.20841801 0.11726787 -0.5230503 -0.12889546
000120 59 16 47 3e 86 ef f3 3d 73 d4 97 3d bb 0f 32 be
       0.19442119 0.1191092 0.07413568 -0.17388813
000130 25 c6 10 3e cd bc 96 be bd a6 40 3f 12 66 89 bc
       0.14138086 -0.2944092 0.7525442 -0.016772304
000140 b5 b9 cc bc 9e a5 8e bd bc 1c cc bd f3 10 cb 3d
       -0.024990896 -0.06965183 -0.09966418 0.09915342
000150 40 0d 2c bd 7e 49 0e be 33 4e e3 be 38 85 26 ba
       -0.042004824 -0.13895223 -0.443956 -0.00063522486
000160 62 b6 87 3d a7 87 8c 3d 88 cf d4 bd 1e dd 6b be
       0.06626584 0.06861811 -0.10391146 -0.23033568
000170 3c 0b 1a 3e f3 cf a1 3e 2e 29 04 bf e2 e6 a8 3d
       0.15043348 0.31603965 -0.51625335 0.082471624
000180 7e 6d 7c 3d 6f 53 fd bd 07 cd 07 be d9 74 1b bf
       0.061627857 -0.12369429 -0.13261805 -0.6072517
000190 69 89 99 3d 8b 54 60 3e dc b3 b0 be 49 a5 54 be
       0.07496912 0.2190725 -0.34512222 -0.20766176
0001a0 78 bf 44 3c 72 cb bd 3d 25 02 00 3e 8d 42 92 3d
       0.01200854 0.0926732 0.12500818 0.071416
0001b0 4b 2c 49 3e 49 f8 59 3c 48 31 88 bd ae 5c ab 3d
       0.19645803 0.013303825 -0.06650025 0.083672866
0001c0 ee f3 07 3e db 12 c3 3e 30 83 28 be a2 0f 0f bf
       0.13276646 0.38100323 -0.16456294 -0.5588323
0001d0 19 53 39 3d 89 35 ec 3a 61 6b fe be 64 de b6 bc
       0.045245264 0.0018021326 -0.496913 -0.022322841
0001e0 d2 a9 58 3b f6 c8 15 3e b6 35 7f 3d 61 2a 4e 3f
       0.0033060205 0.14627442 0.062307082 0.80533415
0001f0 57 2a e6 be e8 22 d5 3d 47 d8 40 3d 55 15 f9 bc
       -0.44954178 0.104070485 0.04708126 -0.03040568
