checkpoint/LunarLander_3000.pth (torch_old, 8217 bytes, 5 tensors)

input_layer.weight f4 [128, 8]
0.08070432 -0.6020106 -0.1730892 0.19291037 -0.0582843 0.027266333 -0.25633025 0.20174229
0.009092821 -0.040935647 -0.28391802 0.023581319 -0.039521154 0.069117725 -0.296824 -0.24772148
0.27656648 -0.41744733 0.015569722 0.25468594 -0.18715487 0.07759445 -0.28353506 -0.11600974
0.6903723 -0.33530062 0.7038397 -1.2198819 -2.4571483 -0.3914063 -1.1132753 -1.278364
0.4119491 -0.5652756 0.0949599 0.39112973 0.08015275 -0.08617287 -0.44119158 0.06826121
-0.08140459 -0.09989349 -0.11892563 0.029330105 -0.3272875 0.09931516 -0.26650658 -0.12207974
0.17753173 -0.0016836134 0.14009327 0.060990248 -0.272266 0.36463964 -0.66434664 -0.31900886
0.137528 -1.8767056 2.5666075 3.4895284 -2.5640166 0.2665983 0.08734847 0.12674351
0.2896292 -0.43502787 -0.23320006 0.47695413 -0.07478527 -0.290802 -0.22753534 -0.2882263
0.22782831 -0.15977223 0.3432801 0.20584713 -0.46437436 0.19544552 -0.268186 -0.11156831
1.4284022 -0.77010214 0.6506536 1.1837541 -0.857358 0.15160933 1.2382066 -2.574405
0.111521535 -0.11798563 -0.6104154 -0.13107969 0.2261554 0.18907465 -0.81329083 0.1276177
0.0643817 -0.547523 0.0021566008 0.31923795 -0.14337426 -0.09511666 -0.056815278 0.2223432
-0.18642604 -0.566774 0.3004743 0.10397232 0.04853326 -0.2793324 0.11435548 -0.366237
-0.03225498 -0.40016708 0.09913792 0.2464193 0.008444267 -0.2067552 -0.67901057 -0.07651446
0.06980103 -2.569249 1.6319613 -2.3825684 1.2498647 -0.6561004 -1.8385103 -0.2514758
0.3286729 -0.31164965 -0.21589573 0.8299783 -0.107810415 0.4176829 -1.5854057 0.31182513
0.12626877 -0.4243184 -0.10416501 0.29668525 -0.08563913 0.21844156 -0.39501837 -0.45596504
0.216841 0.03959729 0.355899 0.1369337 -0.103455536 -0.11736083 0.29425445 -0.49058405
0.1281797 -0.042250507 0.46135977 0.2839065 -0.32436743 0.05503989 -0.7093562 0.1465663
-0.11586506 -0.59520674 0.16322055 0.51188505 0.07622795 -0.36541733 0.07047266 -0.17107634
0.037226565 -0.032487005 -0.17456822 0.2876555 -0.06881844 -0.10809176 -0.5432881 0.07385291
0.07867304 -0.20476691 -0.20757098 -0.041177254 -0.09837116 -0.23714639 -0.47492146 -0.028431937
0.06844634 0.065091364 0.30965978 -0.16698702 -0.21583313 0.104783304 -0.3099669 -0.3641156
0.16923545 -0.3576988 -0.031737786 0.36319086 -0.2105779 0.12438335 -0.15500426 -0.04436183
0.09390822 0.089170955 0.028852684 -0.25915337 -0.13910711 -0.19178757 -0.48190826 -0.4769639
0.00045328418 -0.31697562 -0.15199658 0.17502119 -0.33450985 0.046868484 -0.28290674 -0.3108278
-0.020087255 -0.5350646 0.13273796 0.5430395 -0.10797014 0.13366197 0.02557629 -0.09759414
-0.09730538 -0.036338802 0.09579154 0.45814857 0.16808257 0.4449019 -1.194194 0.7314865
-0.2498041 -0.028615737 -0.9428858 0.30774504 0.3669357 0.41254178 -0.9265701 -0.067608
0.26025617 -1.1192008 0.3623571 0.105682045 -0.34765714 -0.10132215 -0.14922161 -0.74927104
-0.082440145 -0.3896263 -0.047226418 0.22875896 -0.24007964 0.290491 0.13093288 -0.016911218
00000000: 4e48 a53d 5e1d 1abf 4c3e 31be 4c8a 453e
00000010: 85bb 6ebd a55d df3c b83d 83be 8895 4e3e
00000020: 0efa 143c 23ac 27bd b45d 91be 9c2d c13c
00000030: efe0 21bd 988d 8d3d 51f9 97be b3aa 7dbe
00000040: 1f9a 8d3e a8bb d5be 2618 7f3c 3266 823e
00000050: 87a5 3fbe d7e9 9e3d 822b 91be 8496 edbd
00000060: 3dbc 303f 86ac abbe d72e 343f 1725 9cbf
00000070: eb41 1dc0 6866 c8be ce7f 8ebf 6ea1 a3bf
00000080: feea d23e e7b5 10bf 567a c23d 2842 c83e
00000090: 2027 a43d 677b b0bd dde3 e1be 89cc 8b3d
000000a0: 73b7 a6bd f594 ccbd 488f f3bd b045 f03c
000000b0: 3a92 a7be bf65 cb3d 8d73 88be f104 fabd
000000c0: e1ca 353e b1ac dcba 9c74 0f3e e9d0 793d
000000d0: 7366 8bbe 0cb2 ba3e 9f12 2abf 2155 a3be
000000e0: 24d4 0c3e e437 f0bf 4c43 2440 6f54 5f40
000000f0: d918 24c0 937f 883e c1e3 b23d 0dc9 013e
00000100: 474a 943e f9bb debe ffcb 6ebe 5533 f43e
00000110: 0529 99bd 00e4 94be 06ff 68be 6692 93be
00000120: d34b 693e 559b 23be 69c2 af3e 97c9 523e
00000130: 7ac2 edbe df22 483e ad4f 89be ed7d e4bd
00000140: e2d5 b63f 6a25 45bf 3c91 263f 4185 973f
00000150: d07b 5bbf 7a3f 1b3e 8e7d 9e3f 0dc3 24c0
00000160: 6765 e43d 73a2 f1bd 2f44 1cbf c139 06be
00000170: 4895 673e c99c 413e d433 50bf 37ae 023e
00000180: 8dda 833d 782a 0cbf c255 0d3b 2873 a33e
00000190: b4d0 12be 86cc c2bd 23b7 68bd f0ad 633e
000001a0: 78e6 3ebe 1a18 11bf c4d7 993e 71ef d43d
000001b0: d0ca 463d a804 8fbe 3533 ea3d 6b83 bbbe
000001c0: cc1d 04bd b3e2 ccbe d208 cb3d 5755 7c3e
000001d0: d359 0a3c a3b7 53be a3d3 2dbf 9db3 9cbd
000001e0: d8f3 8e3d 936e 24c0 1ce4 d03f 007c 18c0
000001f0: 91fb 9f3f 32f6 27bf 4e54 ebbf 70c1 80be
00000200: d047 a83e 8b90 9fbe c513 5dbe 7579 543f
00000210: b5cb dcbd 88da d53e 93ee cabf 8ba7 9f3e
00000220: 9a4c 013e 4340 d9be 7754 d5bd 21e7 973e
00000230: 9163 afbd 25af 5f3e d93f cabe 4074 e9be
00000240: 910b 5e3e c530 223d 6538 b63e 5938 0c3e
00000250: 7fe0 d3bd e05a f0bd 85a8 963e d52d fbbe
00000260: 8a41 033e de0e 2dbd 5937 ec3e 315c 913e
00000270: 7d13 a6be 8271 613d 5e98 35bf 7a15 163e
00000280: a94a edbd 785f 18bf 4a23 273e e60a 033f
00000290: 661d 9c3d fb17 bbbe f853 903d a32e 2fbe
000002a0: e27a 183d 1811 05bd 03c2 32be 9547 933e
000002b0: aff0 8cbd 365f ddbd ee14 0bbf 3240 973d
000002c0: 551f a13d 6bae 51be 7d8d 54be 7ba9 28bd
000002d0: d276 c9bd 81d6 72be e828 f3be 18ea e8bc
000002e0: 982d 8c3d 9f4e 853d ba8b 9e3e a5fe 2abe
000002f0: 5c03 5dbe a198 d63d fbb3 9ebe 5c6d babe
00000300: 0f4c 2d3e 4c24 b7be 7bff 01bd 27f4 b93e
00000310: bca1 57be b3bc fe3d 70b9 1ebe c0b4 35bd
00000320: f452 c03d 439f b63d 775c ec3c c0af 84be
00000330: 1872 0ebe f663 44be aebc f6be 9d34 f4be
00000340: c6a6 ed39 a14a a2be fea4 1bbe c138 333e
00000350: e044 abbe 2bf9 3f3d 27d9 90be d224 9fbe
00000360: 078e a4bc fef9 08bf 76ec 073e a304 0b3f
00000370: 731f ddbd afde 083e 5e85 d13c 70df c7bd
00000380: 0b48 c7bd ffd7 14bd 5b2e c43d 7392 ea3e
00000390: d61d 2c3e 2fca e33e 59db 98bf b342 3b3f
000003a0: a5cc 7fbe 8d6b eabc f760 71bf c290 9d3e
000003b0: ffde bb3e ad38 d33e b333 6dbf 1076 8abd
000003c0: 4c40 853e f941 8fbf df86 b93e d46f d83d
000003d0: 1e00 b2be fd81 cfbd 8dcd 18be 3ad0 3fbf
000003e0: 61d6 a8bd 197d c7be 7d70 41bd ca3f 6a3e
000003f0: 70d7 75be 3dbb 943e 4513 063e 6589 8abc

input_layer.bias f4 [128]
-0.6643412 -0.79542696 -0.4556302 -0.5567915 -0.6788367 -0.73436487 -0.6289604 -0.7871637
-0.7467459 -0.6374939 -0.6556519 -0.5017222 -0.5553072 -0.6080029 -0.46376327 0.025780117
-0.62226313 -0.7130102 -0.7316751 -0.6679664 -0.7447999 -0.2808917 -0.53127813 -0.7138002
-0.3591809 -0.52840966 -0.60687375 -0.7477293 -1.0046012 -0.997597 -0.7991956 -0.6719109
-0.5499846 -0.56469023 -0.5326014 -0.49385247 -0.9053753 -0.67115897 0.3276175 -0.72087973
-0.92446905 -0.56100875 -0.8412297 -0.75621736 -1.5805966 -0.7521723 -0.14132014 -0.9152028
-0.31645718 -1.0091085 -0.9228856 -0.62488097 -0.661979 -1.2927077 -0.49004936 -0.5361564
-0.7922231 -0.2374994 -0.26939952 -1.0208223 -0.56569713 -0.5954196 -0.22227462 -0.030578166
-1.2958965 -0.29102913 -0.70265037 -0.47222918 -0.8964032 -0.644444 -0.46280968 -0.81223166
-0.8803103 -0.26108772 -0.6360578 -0.44962436 -1.1961813 -0.17443025 -1.1594499 -0.395945
-0.46254352 -0.533266 -0.75634634 -0.3713782 -0.75864625 -0.95823854 -0.62151957 -0.45313084
-0.92101306 -1.0586147 -0.472173 -0.68892074 -0.68331724 -0.6999556 0.15192014 -0.8275182
-0.8565419 -0.8859562 -0.63698167 -0.6440879 -0.37285864 0.05783306 -0.5189925 -0.27870843
-0.55100167 -0.538368 -0.66889805 -1.0345454 -0.86922026 -0.7950303 -0.69005054 -0.7308767
-0.6697419 -1.0376489 -0.2374662 0.23147562 -0.4513811 -0.6798211 -0.30365622 -0.7971313
-0.792104 -1.1994634 -0.49427855 -0.24401471 -0.4242735 -0.75922674 -0.455442 -1.123098
00000000: 4412 2abf 1aa1 4bbf 5d48 e9be e389 0ebf
00000010: 3ec8 2dbf 56ff 3bbf 8c03 21bf 8f83 49bf
00000020: bd2a 3fbf cd32 23bf ced8 27bf de70 00bf
00000030: 9d28 0ebf 14a6 1bbf 6172 edbe d330 d33c
00000040: a34c 1fbf d687 36bf 0f4f 3bbf d9ff 2abf
00000050: 35ab 3ebf 09d1 8fbe d801 08bf 9cbb 36bf
00000060: 8fe6 b7be db45 07bf 145c 1bbf 306b 3fbf
00000070: c696 80bf 8462 7fbf 1598 4cbf 5a02 2cbf
00000080: cacb 0cbf 8a8f 10bf 9158 08bf 3bda fcbe
00000090: adc6 67bf 13d1 2bbf 7bbd a73e 938b 38bf
000000a0: 01aa 6cbf 459e 0fbf d45a 57bf 7697 41bf
000000b0: fd50 cabf 5d8e 40bf 3ab6 10be bb4a 6abf
000000c0: ad06 a2be 782a 81bf 3b42 6cbf 33f8 1fbf
000000d0: 7577 29bf 7277 a5bf c0e7 fabe 8c41 09bf
000000e0: 22cf 4abf 0b33 73be bcee 89be 4eaa 82bf
000000f0: 87d1 10bf 6b6d 18bf f59b 63be 107f fabc
00000100: f0df a5bf c501 95be e5e0 33bf 06c8 f1be
00000110: ae7a 65bf 48fa 24bf 64f5 ecbe 6aee 4fbf
00000120: 045c 61bf 4aad 85be afd4 22bf 2a35 e6be
00000130: 781c 99bf d89d 32be db68 94bf 4eb9 cabe
00000140: 81d2 ecbe 1f84 08bf ea9f 41bf 4925 bebe
00000150: a436 42bf 1f4f 75bf e81b 1fbf c400 e8be
00000160: 83c7 6bbf b080 87bf a9c0 f1be 1c5d 30bf
00000170: e1ed 2ebf 4a30 33bf f490 1b3e 3cd8 53bf
00000180: 5446 5bbf 07ce 62bf 3b11 23bf f2e2 24bf
00000190: 54e7 bebe 5ce2 6c3d b1dc 04bf dfb2 8ebe
000001a0: 720e 0dbf 7cd2 09bf e73c 2bbf fc6b 84bf
000001b0: 3885 5ebf 1b87 4bbf 27a7 30bf bc1a 3bbf
000001c0: 3574 2bbf aed1 84bf 572a 73be f207 6d3e
000001d0: 6c1b e7be c108 2ebf d478 9bbe cc10 4cbf
000001e0: 54c7 4abf 0488 99bf 1412 fdbe fede 79be
000001f0: 603a d9be af5c 42bf b22f e9be adc1 8fbf

action_layer.weight f4 [4, 128]
-0.10185265 -0.18108477 0.10527766 -1.183803 -0.1435953 0.044740397 -0.23607114 -0.2826863
0.100534216 -0.097236715 -1.0035135 0.15921836 -0.3326325 -0.29174483 -0.22347732 -1.37693
0.041652426 -0.29518965 0.0038312234 -0.09114091 -0.14376125 0.4702478 -0.1637981 -0.22357403
0.14095159 -0.10408088 -0.24677278 -0.3658682 0.308483 0.060591057 -0.37010488 -0.1521647
-0.28031224 -1.2311265 0.4728107 -0.3333892 0.74658394 -0.015494623 2.636661 0.09194865
-1.0721768 -0.37850022 -0.5244544 -0.21259335 0.17548797 -0.07549985 -1.3228254 -0.5277342
0.15475194 0.30097017 0.5090313 -0.1485338 -0.03521834 0.053941205 -0.18285115 -1.4683115
-0.47363606 -0.16148911 -0.4299976 0.35770983 0.0050491816 0.30178314 0.16297726 1.6837353
-0.37004808 0.93307775 0.02200402 -0.13879399 0.38242617 -0.15173116 -0.21951005 0.32980728
-0.6499262 -0.07789219 -0.165579 -0.25129935 0.9209509 -1.7961656 0.814827 -0.048309773
-0.26899877 0.20639798 -0.44271845 -0.13947779 0.08211431 0.28662542 -0.34126064 0.36731955
-0.41438034 -0.9920226 -0.95377475 -0.061075974 -0.2574976 -1.2981775 -1.3646971 -0.29746208
-0.45027596 -0.5205029 0.062266387 -0.14791733 0.12220869 -0.6067485 -0.38779804 0.40514386
-0.3334715 -0.49227586 0.39534542 0.31470543 -0.21900004 0.04205046 -0.20362893 -0.1137093
-0.072005294 -0.27514714 -0.76664555 -0.8911321 0.078509234 0.39394405 -0.8436481 -0.10569546
-0.044488702 0.59343344 -0.023205893 0.713299 0.10844736 -0.6473068 -0.16759214 0.88695866
0.046726223 0.13997707 -0.02256389 1.5716157 -0.06958101 0.34743968 -0.3658897 3.0908122
0.26991916 0.03299179 2.466048 -0.63495433 -0.22694635 0.46623254 0.5518152 -1.2267351
0.42881426 -0.07279069 -0.17113435 -0.2724818 0.42130882 0.40927222 -0.010313224 0.023625122
-0.0156632 0.28412992 0.0076362956 0.51625705 -0.83999115 0.025581727 0.44496423 0.15310343
-0.15769164 -1.3738065 -0.7653959 -0.07377074 0.05372283 -0.05522306 0.084944256 -0.26834092
-0.2522616 -0.20231524 1.7319925 1.6976057 -0.020236546 0.5165488 2.5496085 0.21559283
0.012824596 0.4551682 0.63666934 0.082968734 0.04953139 -0.9636044 0.24925964 1.1320702
-0.2861121 0.005343941 0.637866 -1.3538632 0.10301869 -0.2596649 -0.48803136 2.7975795
-0.38512942 0.3050655 -0.62287885 0.08117459 -0.60344803 0.17983332 0.20406362 0.5325349
0.62598085 0.37151077 -0.061817773 0.1514416 -0.27374905 -0.5812826 -0.04198166 -0.06987041
-0.14408433 -0.030466242 -0.5891406 0.1433823 -0.32499465 0.56112885 -1.1890911 -2.3251
-0.6580281 0.9668588 3.6827433 0.2902413 -0.2542029 -0.87506497 -0.42108005 0.45723638
0.67639077 0.6599714 -0.7075928 -0.055557065 -0.15478083 -0.042834613 0.19186203 -0.35696176
0.16579676 -0.44851482 0.40483478 0.49494025 5.1850867 0.5810427 0.33983356 0.3716107
0.041350022 0.08658801 -0.8832208 0.5716905 0.3692009 0.3157257 -0.5584588 0.028102564
-0.25456738 0.0939521 0.2771981 -0.79941857 -2.7128232 0.17793205 -0.0025753519 -0.7738734
00000000: 1f98 d0bd 496e 39be d09b d73d db86 97bf
00000010: a50a 13be b541 373d a2bc 71be 42bc 90be
00000020: e2e4 cd3d 0b24 c7bd 2173 80bf 230a 233e
00000030: cf4e aabe 945f 95be 3dd7 64be 3e3f b0bf
00000040: bc9b 2a3d 1923 97be 4315 7b3b 16a8 babd
00000050: 2636 13be 52c4 f03e b0ba 27be 97f0 64be
00000060: 9d55 103e 5b28 d5bd 01b2 7cbe 1453 bbbe
00000070: 7cf1 9d3e 542e 783d 637e bdbe 10d1 1bbe
00000080: 1685 8fbe 8e95 9dbf 3e14 f23e fdb1 aabe
00000090: 2020 3f3f 29dd 7dbc 0ebf 2840 934f bc3d
000000a0: 173d 89bf c8ca c1be a542 06bf 12b2 59be
000000b0: 1eb3 333e aa9f 9abd 5852 a9bf 9719 07bf
000000c0: 4b77 1e3e c318 9a3e e04f 023f 3f19 18be
000000d0: 1b41 10bd 74f1 5c3d 553d 3bbe a2f1 bbbf
000000e0: 6d80 f2be 675d 25be a528 dcbe be25 b73e
000000f0: 9b73 a53b 5283 9a3e 83e3 263e a384 d73f
00000100: f176 bdbe 2fde 6e3f c641 b43c 0320 0ebe
00000110: 5dcd c33e 6a5f 1bbe 3ec7 60be 80dc a83e
00000120: 9061 26bf f185 9fbd 8b8d 29be 4faa 80be
00000130: 70c3 6b3f c1e8 e5bf 8198 503f 78e0 45bd
00000140: 35ba 89be fe59 533e feab e2be 44d3 0ebe
00000150: 8c2b a83d 91c0 923e b7b9 aebe 4f11 bc3e
00000160: a929 d4be 31f5 7dbf 952a 74bf cd2a 7abd
00000170: bad6 83be ae2a a6bf 65ae aebf f34c 98be
00000180: 928a e6be ae3f 05bf 0a0b 7f3d a477 17be
00000190: 8d48 fa3d df53 1bbf 778d c6be 046f cf3e
000001a0: c7bc aabe 950b fcbe b76a ca3e 1221 a13e
000001b0: 8c41 60be 1a3d 2c3d 1a84 50be 6ce0 e8bd
000001c0: 8377 93bd 16e0 8cbe e242 44bf 3c21 64bf
000001d0: 73c9 a03d 09b3 c93e 52f9 57bf dd76 d8bd
000001e0: c939 36bd 41eb 173f 491a bebc c39a 363f
000001f0: a619 de3d e6b5 25bf 469d 2bbe b90f 633f
00000200: ff63 3f3d 2656 0f3e e8d7 b8bc b42a c93f
00000210: 7d80 8ebd 9de3 b13e e555 bbbe decf 4540
00000220: d832 8a3e 6622 073d bbd3 1d40 5e8c 22bf
00000230: a064 68be 08b6 ee3e c343 0d3f a805 9dbf
00000240: 8b8d db3e 4913 95bd d83d 2fbe bc82 8bbe
00000250: cab5 d73e 218c d13e ccf8 28bc 7989 c13c
00000260: 1c50 80bc 7a79 913e e439 fa3b 6c29 043f
00000270: a909 57bf c590 d13c 5ad2 e33e 25c7 1c3e
00000280: eb79 21be e4d8 afbf fcf0 43bf 1d15 97bd
00000290: 780c 5c3d 9331 62bd 41f7 ad3d fb63 89be
000002a0: 6f28 81be ba2b 4fbe eeb1 dd3f 254b d93f
000002b0: 1dc7 a5bc 8b3c 043f c92c 2340 5ec4 5c3e
000002c0: 411e 523c ce0b e93e c3fc 223f 83eb a93d
000002d0: 6de1 4a3d c7ae 76bf eb3d 7f3e ade7 903f
000002e0: 497d 92be 3a1c af3b 304b 233f 644b adbf
000002f0: 77fb d23d ccf2 84be 3fdf f9be 8b0b 3340
00000300: af2f c5be 8c31 9c3e fd74 1fbf dd3e a63d
00000310: 927b 1abf 3a26 383e 0ef6 503e 3554 083f
00000320: 4840 203f a936 be3e a234 7dbd 8213 1b3e
00000330: d628 8cbe f0ce 14bf f6f4 2bbd 3818 8fbd
00000340: d88a 13be 5794 f9bc ebd1 16bf cfd2 123e
00000350: b365 a6be 24a6 0f3f 2334 98bf 70ce 14c0
00000360: 8874 28bf 0f84 773f 11b2 6b40 829a 943e
00000370: e226 82be 4204 60bf ce97 d7be e31a ea3e
00000380: f227 2d3f e3f3 283f cd24 35bf ce8f 63bd
00000390: de7e 1ebe 5973 2fbd 7b77 443e b1c3 b6be
000003a0: a0c6 293e bca3 e5be 8146 cf3e cf68 fd3e
000003b0: 3bec a540 37bf 143f aafe ad3e c243 be3e
000003c0: a45e 293d 0e55 b13d c21a 62bf 4f5a 123f
000003d0: e607 bd3e cda6 a13e 28f7 0ebf 5937 e63c
000003e0: a856 82be f569 c03d e9ec 8d3e b2a6 4cbf
000003f0: e59e 2dc0 d233 363e 3cc7 28bb 911c 46bf

action_layer.bias f4 [4]
0.58927536 0.22921468 -0.72072536 0.9536511
00000000: c0da 163f 41b7 6a3e 7581 38bf 7a22 743f

value_layer.weight f4 [1, 128]
0.019787982 0.08043825 -0.02054757 0.24102412 -0.009095635 0.04418516 0.059687253 0.09438147
0.09378787 0.20410816 0.13882889 0.033400916 0.04399922 -0.058375794 0.1451192 0.40179747
-0.033676837 -0.079634085 0.08100263 0.11735208 0.13817199 0.0006119222 -0.002177774 0.11536148
0.028898304 -0.021135593 -0.03711037 0.208357 -0.12944649 0.3477575 0.122942954 -0.023817142
0.03330168 0.2212379 0.2350127 -0.049603317 -0.15299095 0.12958793 0.019981774 -0.036543913
-0.019636422 -0.034551084 -0.031574626 0.008444277 0.5654658 -0.07303917 -0.4936058 0.00054816954
0.18798067 0.11319054 -0.08510065 -0.042199522 -0.17310679 -0.060934007 0.037118874 0.27428356
0.0053060963 -0.014947508 -0.008872366 -0.024268445 -0.04203432 -0.23198499 0.3543731 0.30893293
0.12634008 -0.045090944 0.013746574 0.0481467 0.22357135 0.11726787 0.036258448 -0.12891658
0.19442119 0.1191092 0.08214825 0.05545242 0.16726239 -0.022207895 0.8259829 -0.018543875
-0.024990896 -0.06965183 -0.057892174 0.09899902 -0.042004824 -0.13608433 -0.27269688 0.34207225
0.07906331 0.0706483 -0.097022556 0.09651539 0.15043348 0.46378258 -0.53841496 0.14084497
-0.054305784 -0.13155793 -0.1595722 0.09633035 0.069781885 0.099048354 -0.34512222 -0.29162538
-0.005442578 0.0926732 0.11763192 -0.0485825 0.014953395 0.013303825 -0.06650025 0.08307108
0.13276646 0.3820946 0.096052825 0.07626011 0.045245264 0.0018021326 -0.43742552 -0.026914496
0.0077521987 0.14693207 0.062307082 0.5669215 0.047458477 0.10414867 0.04708126 -0.03040568
00000000: 681a a23c cfbc a43d 6153 a8bc 07cf 763e
00000010: dc05 15bc 80fb 343d 9f7a 743d 124b c13d
00000020: db13 c03d bb01 513e 2929 0e3e 66cf 083d
00000030: 8738 343d 751b 6fbd 219a 143e 66b8 cd3e
00000040: b9f0 09bd 3217 a3bd b5e4 a53d 4a56 f03d
00000050: f57c 0d3e 6769 203a fcb8 0ebb a442 ec3d
00000060: 23bc ec3c 8d24 adbc 0b01 18bd 8a5b 553e
00000070: 9f8d 04be 450d b23e 84c9 fb3d 2b1c c3bc
00000080: 5867 083d 308c 623e 2ba7 703e d92c 4bbd
00000090: a9a9 1cbe b3b2 043e d1b0 a33c 12af 15bd
000000a0: 90dc a0bc 7085 0dbd 6554 01bd dd59 0a3c
000000b0: 5ec2 103f 8f95 95bd e6b9 fcbe 09b3 0f3a
000000c0: 017e 403e 71d0 e73d 4049 aebd 68d9 2cbd
000000d0: e842 31be f095 79bd f609 183d e56e 8c3e
000000e0: c3de ad3b 65e6 74bc 665d 11bc 9ece c6bc
000000f0: 2e2c 2cbd 798d 6dbe 6470 b53e 752c 9e3e
00000100: 4b5f 013e 48b1 38bd 4f39 613c 7935 453d
00000110: e3ef 643e 232a f03d bd83 143d b502 04be
00000120: 5916 473e 86ef f33d 573d a83d 1422 633d
00000130: d546 2b3e 55ed b5bc 9e73 533f 53e9 97bc
00000140: b5b9 ccbc 9ea5 8ebd 5820 6dbd 00c0 ca3d
00000150: 400d 2cbd b159 0bbe ed9e 8bbe 1824 af3e
00000160: f2eb a13d 0eb0 903d c3b3 c6bd dca9 c53d
00000170: 3c0b 1a3e e974 ed3e 90d5 09bf aa39 103e
00000180: be6f 5ebd 1fb7 06be e566 23be d948 c53d
00000190: cee9 8e3d ddd9 ca3d dcb3 b0be ec4f 95be
000001a0: a757 b2bb 72cb bd3d 01e9 f03d 72fe 46bd
000001b0: 16ff 743c 49f8 593c 4831 88bd 2c21 aa3d
000001c0: eef3 073e e7a1 c33e 58b7 c43d 432e 9c3d
000001d0: 1953 393d 8935 ec3a 3df6 dfbe ca7b dcbc
000001e0: 2806 fe3b 5c75 163e b635 7f3d c421 113f
000001f0: d263 423d e64b d53d 47d8 403d 5515 f9bc
