checkpoint/LunarLander_0500.pth (torch_old, 8217 bytes, 5 tensors)

input_layer.weight f4 [128, 8]
00000000: 4e48 a53d 5e1d 1abf 4c3e 31be 4c8a 453e
00000010: 85bb 6ebd a55d df3c b83d 83be 8895 4e3e
00000020: 0502 c2bd 9953 08bd d1c9 cebe 1d97 993c
00000030: 46a8 4abd dc49 08bd 51f9 97be b3aa 7dbe
00000040: 1f9a 8d3e a8bb d5be 2618 7f3c 3266 823e
00000050: 87a5 3fbe d7e9 9e3d 822b 91be 8496 edbd
00000060: 0c2f 433d 9e7e d93d 9186 b23e 2ac8 c6be
00000070: d521 6cbf afa6 a3be 47c5 06bf 44c4 f9be
00000080: feea d23e e7b5 10bf 567a c23d 2842 c83e
00000090: 2027 a43d 677b b0bd dde3 e1be 89cc 8b3d
000000a0: 1250 7abe 04b9 b6bd 7c15 52be e7b3 283c
000000b0: 5a54 bbbe 68b2 df3d 8d73 88be 665a 7a3d
000000c0: 37b5 b33e 9153 c53b a888 643e 37fe 443d
000000d0: 119b 8bbe 710f 063f 9f12 2abf de7f 7abe
000000e0: 1477 193f 5864 aebf 0cab 013f 240a 433f
000000f0: 0115 83be 1ba2 aebe 1729 953e aa0c 833f
00000100: 5b1a 9f3e 2d3b dfbe 92fe 80be 8774 f43e
00000110: 5a7c 9abd d376 9cbe 06ff 68be 6692 93be
00000120: 8b0b c23e 9fdc 17be e94e db3e f77b 443e
00000130: e31e f8be aa4d 813e 8190 75be a7c5 e0bd
00000140: 604d 4b3c 4a81 033e 2211 083e ec06 c6bd
00000150: 8919 21bf 4563 15bf 127c 253f f986 9fbf
00000160: bd04 dc3d 468d ab3d e373 b0be 4466 88be
00000170: 4f34 403e 91ab 853d 3b94 26bf 8c63 15be
00000180: 8dda 833d 782a 0cbf c255 0d3b 2873 a33e
00000190: b4d0 12be 86cc c2bd 23b7 68bd f0ad 633e
000001a0: 289c 40be 051c 11bf cca8 9a3e 028f d83d
000001b0: 407c 473d 7bfa 8abe f7cb e83d 03f8 b6be
000001c0: 0f52 cebc 71dd ccbe 084b b83d 44a9 743e
000001d0: 553a 173c 32f1 62be a3d3 2dbf 9db3 9cbd
000001e0: f5a6 39bf 6348 43bf 6be1 54be fe7b 0fbf
000001f0: 86ff 043e 6c4e e13c b702 45bf b21e 033e
00000200: 056c 0c3f d179 00bf 5cc5 cf3d 8cb0 563e
00000210: df12 82bd c7bc 3b3e 3418 7dbf 55a6 f83e
00000220: 71cd 033f 8985 00bf 9646 85bd 76b3 843e
00000230: a901 8cbd 5033 593e d93f cabe 4074 e9be
00000240: 1873 603e aa4c 233d 3594 be3e e1d9 073e
00000250: c499 dbbd 312a 9cbd b76b f53e 87a3 f9be
00000260: a9c1 0e3e 6953 2ebd de2b ee3e c955 903e
00000270: 3332 a9be 8875 4f3d 1fa5 2ebf dfd5 bf3e
00000280: 0468 f5bd 6c85 18bf bf89 0d3e bbfb f83e
00000290: 6d0a 963d 3108 e0be 410d a23e 97c8 4fbe
000002a0: 8d6b ad3c 0feb 02bd afd3 4dbe 18ab 903e
000002b0: c7c0 8ebd 10e5 ddbd dc6a 0abf 7342 a13e
000002c0: 2b29 7d3e 83d1 53be 593b 7fbe b2ca 0abd
000002d0: 2aee cdbd 82a4 82be 4987 4abe 26ed 0c3d
000002e0: 2b65 8c3d a15e 853d 72ab 9e3e 6d04 2bbe
000002f0: 0a00 5dbe 74d2 d63d fbb3 9ebe 5c6d babe
00000300: fc22 5c3e d004 b5be 2697 a7bc dab5 b93e
00000310: 2b36 56be 9048 063e 70b9 1ebe 1c31 2cbc
00000320: f800 bd3d 279b b63d 0320 f23c bea7 84be
00000330: c179 0fbe 74f0 42be aebc f6be 9d34 f4be
00000340: bd1b 48bb 9339 a2be 2de6 1bbe 7a3e 333e
00000350: 8b65 acbe 31f4 443d 9307 89be d224 9fbe
00000360: 078e a4bc fef9 08bf 76ec 073e a304 0b3f
00000370: 731f ddbd afde 083e 5e85 d13c 70df c7bd
00000380: 569b 97bd d119 18be b9b3 bf3e 0495 b23e
00000390: 4012 ddbe b903 e23e 4ae3 58bf 7f10 5d3e
000003a0: 3d2e 64be 0697 89bc 53aa 3ebf bb46 aa3e
000003b0: e648 d2bd 471d 643e 864e 02bf 204b f8be
000003c0: 96ed 9a3e 16c9 5ebf a1b6 093f 3b99 02bd
000003d0: a3b4 c4be 150f 00bd 5f0a a8bd 15f6 d3be
000003e0: 8c37 d3bd d044 c7be 4b07 87bd 6552 6d3e
000003f0: 98e9 73be 2175 9a3e c1b8 e43d 2237 913d
0.08070432 -0.6020106 -0.1730892 0.19291037 -0.0582843 0.027266333 -0.25633025 0.20174229
-0.094730414 -0.03328285 -0.4038835 0.018748814 -0.049476884 -0.033273563 -0.296824 -0.24772148
0.27656648 -0.41744733 0.015569722 0.25468594 -0.18715487 0.07759445 -0.28353506 -0.11600974
0.04765229 0.106198534 0.3486829 -0.38824588 -0.92239124 -0.31963107 -0.5264477 -0.4878255
0.4119491 -0.5652756 0.0949599 0.39112973 0.08015275 -0.08617287 -0.44119158 0.06826121
-0.24444607 -0.08922008 -0.20516008 0.010296798 -0.36587793 0.109227 -0.26650658 0.061121367
0.35099193 0.006021925 0.22317755 0.048094 -0.27266744 0.5236731 -0.66434664 -0.2446284
0.59947324 -1.3624372 0.5065162 0.7618735 -0.25601962 -0.34108052 0.29132912 1.023824
0.31074795 -0.43599835 -0.25194222 0.47745153 -0.075432494 -0.30559406 -0.22753534 -0.2882263
0.37899432 -0.14830254 0.4283364 0.19187914 -0.48461065 0.25254565 -0.23980905 -0.10975199
0.012408584 0.12842289 0.13287786 -0.09669289 -0.6292959 -0.583546 0.6464244 -1.2463065
0.10743091 0.08376555 -0.34463415 -0.26640522 0.18769954 0.06526864 -0.6506993 -0.14588755
0.0643817 -0.547523 0.0021566008 0.31923795 -0.14337426 -0.09511666 -0.056815278 0.2223432
-0.18809569 -0.5668338 0.30206907 0.105741516 0.04870248 -0.27144226 0.11367028 -0.35736093
-0.025185613 -0.40012696 0.08998686 0.23892695 0.009230216 -0.22162321 -0.67901057 -0.07651446
-0.7252038 -0.7628233 -0.20789115 -0.5604857 0.129881 0.027503215 -0.7695727 0.12804678
0.54852325 -0.5018588 0.10145065 0.20965785 -0.063512556 0.18333732 -0.98865056 0.485644
0.51485354 -0.5020376 -0.06507604 0.25918168 -0.06836254 0.2121098 -0.39501837 -0.45596504
0.21918905 0.039868034 0.37222448 0.13266708 -0.10722688 -0.07625235 0.47933742 -0.48757574
0.13941063 -0.042560015 0.46517843 0.2819045 -0.3304611 0.050649196 -0.68220705 0.37467858
-0.1198273 -0.59578586 0.13822077 0.48629555 0.07326207 -0.4375625 0.31650737 -0.20291363
0.021169448 -0.03196245 -0.20100282 0.28255534 -0.06970363 -0.10834706 -0.54069304 0.3149601
0.24722736 -0.20685391 -0.24924983 -0.03388471 -0.10055192 -0.25516135 -0.1977817 0.03440585
0.06855234 0.0651219 0.30990177 -0.16700907 -0.21582046 0.104893595 -0.3099669 -0.3641156
0.2149772 -0.35355234 -0.020457815 0.36271554 -0.20919101 0.13113618 -0.15500426 -0.010509755
0.092287004 0.08916312 0.02955628 -0.25909227 -0.14011289 -0.19037038 -0.48190826 -0.4769639
-0.0030534111 -0.3168455 -0.15224524 0.17504302 -0.3367122 0.04808444 -0.2676359 -0.3108278
-0.020087255 -0.5350646 0.13273796 0.5430395 -0.10797014 0.13366197 0.02557629 -0.09759414
-0.07402675 -0.14853598 0.37441805 0.34879315 -0.43177986 0.44143465 -0.84721816 0.21588324
-0.22283264 -0.016795646 -0.74478644 0.33257088 -0.102678105 0.22276793 -0.5090107 -0.48494816
0.3025939 -0.8702558 0.53794295 -0.031884413 -0.38419065 -0.031264383 -0.08205103 -0.41398683
-0.10313329 -0.38919687 -0.06593188 0.23175962 -0.23819578 0.30167487 0.111680515 0.07090594

input_layer.bias f4 [128]
00000000: 4412 2abf 66e7 2dbf 5d48 e9be a882 11be
00000010: 3ec8 2dbf f590 24bf b52b 06bf 294d f1be
00000020: 2c33 37bf 700e 0bbf 9106 dbbe b331 36bd
00000030: 9d28 0ebf acd5 1bbf 1412 e7be a712 d7bd
00000040: 1f01 7abe 9096 b8be baad 37bf 4d64 27bf
00000050: c492 27bf 69e9 81be e8d4 acbe 5ead 36bf
00000060: 9b08 acbe 7e36 07bf 51d4 1abf 306b 3fbf
00000070: 5b06 73be 805b 55bf ea67 dbbe 6c02 29bf
00000080: 6dea 00bf 7213 7dbd 9536 e2be a707 3cbe
00000090: 9846 283d 5663 26bf 45ee f13d 4382 24bf
000000a0: 3771 9fbe b75c e9be 5e38 03be 7714 90bd
000000b0: 1386 48bf 5d8e 40bf c23d 69be c311 27bf
000000c0: ad06 a2be f246 30bf 7f64 c5be c337 e9be
000000d0: 4988 e9be 9a02 04bf a323 f3be d0e2 88be
000000e0: d027 01bf 0b33 73be 84a4 ecbd 6541 81be
000000f0: 87d1 10bf fa62 18bf 7d92 c53d de09 09be
00000100: 31ee 1cbf 2817 523d 93aa 05bf c5e6 edbe
00000110: 86fa b5bd e858 21bf 729d ddbe 6ab9 babe
00000120: 64e8 cabe 4aad 85be e102 14bf b3f3 73be
00000130: cded febe 9d3f 613e aa0b 0bbf 3431 c4be
00000140: 1b8d b6be 6fbe 2bbe e08e 9ebe dd01 53be
00000150: f41e 42bf 3695 a2be be61 26be 3b88 24be
00000160: 6335 1fbf 2707 79be 0cde 723e 2f27 35bf
00000170: 5c05 2cbf 3aa2 8fbd de1b 1b3f 1da2 0cbf
00000180: 7c00 1ebf 12d5 33bf 96ce 87be 3490 14bf
00000190: b033 8abe 0138 1d3e 134f 6abe 0b6c 49bd
000001a0: 6d22 0abf cea2 4ebc 4494 25bf 4611 5cbf
000001b0: dcd9 17bf 1b87 4bbf a39f 92be 9a5b 21bf
000001c0: 3574 2bbf 47e9 22bf d2ec 31be 407d 3bbd
000001d0: 6c1b e7be 46da 99be 7112 5bbd 7555 1dbf
000001e0: 10ca 01bf 0695 7bbf 8aff cabe 88b2 c0bd
000001f0: 37cf a03d ef5e f7be a3ab d8be 3db9 34bf
-0.6643412 -0.6793121 -0.4556302 -0.14209998 -0.6788367 -0.64283687 -0.5241044 -0.4712918
-0.7156246 -0.54318905 -0.42778447 -0.04448099 -0.5553072 -0.6087291 -0.4513098 -0.105016045
-0.2441449 -0.3605237 -0.7174946 -0.6538742 -0.6545832 -0.2537339 -0.33756185 -0.7135829
-0.33600315 -0.52817523 -0.6048022 -0.7477293 -0.23732893 -0.8334274 -0.42852718 -0.6601932
-0.50357705 -0.061786123 -0.44182268 -0.18362294 0.04108295 -0.64995325 0.118130244 -0.64261264
-0.31141064 -0.45578548 -0.12814471 -0.07035153 -0.7832958 -0.7521723 -0.22777465 -0.6526148
-0.31645718 -0.68858254 -0.38553235 -0.45550355 -0.4561179 -0.5156647 -0.47488126 -0.26735544
-0.50451374 -0.2374994 -0.11554816 -0.25245205 -0.56569713 -0.59526026 0.09647081 -0.1338267
-0.6130095 0.051291615 -0.522134 -0.46465126 -0.08885674 -0.63026285 -0.43284184 -0.36469585
-0.39630425 -0.26108772 -0.5781689 -0.23823433 -0.49790803 0.21996923 -0.5431467 -0.3831879
-0.3565453 -0.16771863 -0.3096838 -0.2060618 -0.7582848 -0.31754464 -0.16248223 -0.16067593
-0.62190837 -0.24319135 0.23717517 -0.70762914 -0.6719568 -0.07013364 0.60589397 -0.54934865
-0.6171949 -0.70246994 -0.265248 -0.58032537 -0.2699256 0.15353395 -0.22881727 -0.049175303
-0.5395878 -0.012612058 -0.6467936 -0.8596386 -0.593168 -0.7950303 -0.28637418 -0.630304
-0.6697419 -0.636372 -0.17375496 -0.045773745 -0.4513811 -0.30049342 -0.053484384 -0.6145852
-0.5069895 -0.98274267 -0.39648086 -0.09409052 0.07852023 -0.48314616 -0.42318448 -0.7059515

action_layer.weight f4 [4, 128]
00000000: 1f98 d0bd 3cbf 39be d09b d73d 6797 d7bd
00000010: a50a 13be c186 373d d894 60be e9e8 2f3e
00000020: 4fb7 cc3d 684c a6bd dd79 ad3e 9936 bd3e
00000030: cf4e aabe 74ad 95be 3dd7 64be 570d 82bf
00000040: 8f3e d63c 8ddb a8be 567b 733b 1dd0 bbbd
00000050: 2636 13be b74c d73e eec0 24be 590a 65be
00000060: 91b5 183e 5b28 d5bd d0ad 7cbe 1453 bbbe
00000070: 1b07 1d3e 5565 813d 997c d8be 38e7 1bbe
00000080: 3e6f 90be 5297 38bf 7c5a 003f 24e4 dfbe
00000090: 4b41 153f 29dd 7dbc 11e9 613f 4d68 673d
000000a0: 9262 8bbf 982b 2abd 3e66 04be a2b4 c13d
000000b0: 0c04 9ebe aa9f 9abd e393 7fbe 7108 0dbf
000000c0: 4b77 1e3e dd7d 9b3e 14b9 263d 2325 18be
000000d0: ac81 60bd 265a 4fbe 583d 3bbe 5040 98be
000000e0: 6412 cabe 675d 25be 40ef debe 0d88 eabe
000000f0: 9b73 a53b 5283 9a3e f185 0dbf 9282 4e3c
00000100: ef29 f2be 0610 3a3f 8e16 7d3c 91a1 0ebe
00000110: 12f6 853d ef60 1bbe 2daf 60be 96ee 063e
00000120: cd5c 0abf f185 9fbd b064 29be bc58 83be
00000130: 5a4f e23e 6b70 c1be 17bf 6e3f 5b0d 47bd
00000140: 26a4 8cbe 9981 19bd eed2 cabe ef2a 20be
00000150: 8c2b a83d 56a2 133e ed73 1ebf 28e3 b0be
00000160: 5940 d1be b941 fabe ce3f 93be 6daf 7bbd
00000170: bad6 83be 52d9 793e 9607 d4be bb1b 9fbe
00000180: 2dfe e4be e21a 05bf 332d 0bbd a477 17be
00000190: 733d 9d3c 8b82 a8be afc0 b13d e7d9 433f
000001a0: 38bc aabe 643b 87be 066b ca3e 58ce a03e
000001b0: e259 e8bd 1a3d 2c3d 17d9 d0be 0244 b0bd
000001c0: 8377 93bd f306 bcbe f7ff a2be c9ec 25be
000001d0: 73c9 a03d 0763 c13e 18b6 34bf 120a 1fbe
000001e0: a303 46bd 0d29 163f 499d 04bd d275 7bbe
000001f0: a983 1f3f 7cf8 2ebf d951 2cbe f7e4 bc3e
00000200: ff63 3f3d 2cb7 093e e8d7 b8bc e7a6 5e3f
00000210: 7d80 8ebd 5f8b b93e 92e1 babe b06a 1b3f
00000220: a676 8a3e 04ff f83c 6d05 6a3f 501a 0dbf
00000230: a064 68be 8077 ec3e c343 0d3f 895b 78be
00000240: ffaf abbe cb93 70bd 4485 36be e93f 86be
00000250: cab5 d73e a4a7 ef3e 7ec5 bebd 84af c43c
00000260: 2938 92bd 7a79 913e 6eab c03b 6c29 043f
00000270: 4757 2abf f44b e03d e088 e03e e939 193e
00000280: 8356 2fbe 127a d9be cd72 49bf 082a 06be
00000290: 6fba c0be 9331 62bd 0ebf a4bd 274c f5bd
000002a0: ad3e d6bd 846c 8ebd 85c3 a43f 9b46 a03f
000002b0: 018f 2ebd 8b3c 043f 7f69 cc3f 4348 833e
000002c0: 411e 523c 4eaf c9bb de7d e33e 70f5 b83d
000002d0: 9f5a 54be 46f0 803e 7934 7f3e 9834 233f
000002e0: 5fb2 80be 3a1c af3b 857f 163f 18ca 353f
000002f0: 77fb d23d 88f0 84be f70f 9c3d 9cd9 9d3e
00000300: e194 c1be f9e0 06bd 5360 01bf 6128 a63d
00000310: 7ddc 17bf f61f 383e ca39 7f3e e3ff dbbd
00000320: f49e 353f a936 be3e 47f4 45bd 4fc7 003e
00000330: 5fe7 52be 86b5 cdbe c0a0 963d 5e00 bbbd
00000340: 573f 27be 57a6 df3d 9736 4dbf b753 e33d
00000350: 1266 a6be bfa7 0cbd 1ad4 cabe 5764 d6bf
00000360: b7d6 d1be 4d47 903f f517 ba3f 7ad7 943e
00000370: e226 82be 14ba 7cbe d234 f2bd 919a 583e
00000380: 39bd 293f 5a02 083f fd6e 33bf 6811 64bd
00000390: e9a3 1c3d 57a4 83be 35d9 4cbd ed8f cabe
000003a0: 7393 2d3e 221e 273e 44fc cf3e 0376 043f
000003b0: 9895 5e3f 37bf 143f 0f85 1f3e fa0e c03e
000003c0: a45e 293d 466a c6be c7c2 c23c 2f50 123f
000003d0: e607 bd3e dd9f 8b3e 7158 ef3d 7314 473e
000003e0: 5765 72be 5efe ef3c 0b7e 9f3e 38d3 bb3d
000003f0: b97f 24bf 09c6 cd3e 1bc1 17bc 4fd7 ba3e
-0.10185265 -0.18139356 0.10527766 -0.105269246 -0.1435953 0.044806246 -0.2193178 0.17178692
0.09995901 -0.08120042 0.33882037 0.36955717 -0.3326325 -0.29233897 -0.22347732 -1.0160321
0.026152877 -0.32980004 0.0037152371 -0.09170554 -0.14376125 0.42050716 -0.16089222 -0.22367229
0.14913012 -0.10408088 -0.24675679 -0.3658682 0.15334742 0.06318156 -0.4228256 -0.15224922
-0.2820987 -0.72105896 0.5013807 -0.43728745 0.58302754 -0.015494623 0.88246256 0.056495953
-1.0889456 -0.04154548 -0.12929627 0.09458281 -0.30862463 -0.07549985 -0.24958758 -0.55091006
0.15475194 0.30369464 0.040703848 -0.14857917 -0.054811165 -0.20249233 -0.1828512 -0.29736567
-0.39467156 -0.16148911 -0.43541908 -0.45806924 0.0050491816 0.30178314 -0.55282503 0.012604373
-0.47297618 0.726807 0.015447272 -0.1392882 0.06541075 -0.15173696 -0.21941824 0.13176951
-0.5404785 -0.07789219 -0.16542315 -0.25653636 0.44201165 -0.3778108 0.9326033 -0.04859672
-0.27468985 -0.03747711 -0.39614052 -0.15641378 0.08211431 0.14417395 -0.6189564 -0.34548306
-0.40869406 -0.48878267 -0.28759617 -0.061446596 -0.2574976 0.24399307 -0.41412038 -0.31075844
-0.4472517 -0.51994145 -0.033978652 -0.14791733 0.01919434 -0.32912096 0.086793296 0.7650437
-0.33346725 -0.264125 0.39534777 0.31407428 -0.11345269 0.04205046 -0.40790626 -0.086067215
-0.072005294 -0.36724052 -0.3183591 -0.16203608 0.078509234 0.37770864 -0.70590353 -0.15531185
-0.048343312 0.5865639 -0.03237656 -0.24556664 0.6231027 -0.6834791 -0.16828097 0.36893436
0.046726223 0.13448781 -0.02256389 0.8697342 -0.06958101 0.36239144 -0.36500221 0.6070967
0.27043647 0.030395038 0.9141453 -0.55118275 -0.22694635 0.4618492 0.5518152 -0.24253668
-0.33532712 -0.058734696 -0.17824274 -0.26220635 0.42130882 0.46807587 -0.093150124 0.024009474
-0.07139618 0.28412992 0.005879811 0.51625705 -0.66539425 0.10951987 0.43854427 0.14963497
-0.17122845 -0.42475945 -0.786908 -0.13101971 -0.37642238 -0.05522306 -0.08044253 -0.119774155
-0.10461173 -0.069542915 1.2872168 1.2521547 -0.042616848 0.5165488 1.5969695 0.2564107
0.012824596 -0.006154931 0.44431967 0.090311885 -0.20737694 0.25183314 0.2492236 0.63752127
-0.25136086 0.005343941 0.5878833 0.71011496 0.10301869 -0.2596476 0.076202326 0.30830085
-0.37808898 -0.032929394 -0.50537604 0.081131704 -0.59320813 0.17980942 0.24924389 -0.10742166
0.7094567 0.37151077 -0.048328664 0.1257603 -0.20596074 -0.40177554 0.073548794 -0.091309294
-0.16332756 0.10920399 -0.8016142 0.11099952 -0.32499748 -0.034339663 -0.39614946 -1.6749371
-0.40984127 1.1271759 1.4538561 0.29070646 -0.2542029 -0.24680358 -0.11826481 0.21152712
0.66304356 0.5312859 -0.7009123 -0.055680662 0.038242254 -0.2571132 -0.050011832 -0.39562932
0.16950779 0.16320089 0.4062215 0.5174257 0.8694701 0.5810427 0.15578102 0.37511426
0.041350022 -0.38752955 0.023774518 0.571536 0.3692009 0.27270404 0.11686791 0.19441395
-0.2367147 0.029296096 0.3115085 0.09171146 -0.6425739 0.4019015 -0.0092623485 0.36492392

action_layer.bias f4 [4]
00000000: 7269 ab3c 4ae2 63be 0126 953e 5f5d 833e
0.020924304 -0.22254291 0.29130557 0.25657174

value_layer.weight f4 [1, 128]
00000000: 681a a23c 2aa2 de3d 6153 a8bc 2a04 f2ba
00000010: dc05 15bc 8f30 2f3d 4d25 cc3d cca4 c73d
00000020: ac74 c33d 1fc0 5d3e b175 bc3c ed17 9a3c
00000030: 8738 343d eca0 61bd dcbb 143e 29de 4dbd
00000040: 789e f13d a410 0fbe 6127 a53d 06d1 f23d
00000050: 2b89 133e ea26 903b 3999 c2bc 0459 ec3d
00000060: 0cb0 173d 017d acbc 6f1b 19bd 8a5b 553e
00000070: a2d6 1f3e b11f 2e3e 8e45 bb3e d335 12bd
00000080: ee3c 203d 9442 0e3e db6f 7d3e 6d75 37be
00000090: 2a5d fdbc c41b 053e ceb5 8ebd f73c f43c
000000a0: ff15 7c3e de43 fcbc 5dfa 9ebd 37e9 b0bc
000000b0: fbde b5bd 8f95 95bd 3e59 08be f447 443d
000000c0: 017e 403e 814e d23d 9ed3 d0bd cfe3 60bd
000000d0: a5f2 173e 8c21 4c3d e144 463d 90da 77bc
000000e0: 66e4 c6bc 65e6 74bc 7b42 47bc 0c4b e7bd
000000f0: 2e2c 2cbd d792 6dbe 6d77 aa3d 86ef bd3d
00000100: 1d91 07be 31b2 2fbd 610f 6bbc 71b3 453d
00000110: a0b7 fabd d8f7 f33d 2f92 0f3d bcb7 e1bd
00000120: 84ef 893d 86ef f33d 407f a33d 5db1 913d
00000130: 58aa 0a3e 22e6 a8be 7873 843d d093 93bc
00000140: 9bbd cebb 164a fd3b fce1 083d 0607 eb3d
00000150: 5b24 2cbd 9df9 f2bd 6a32 843c 7d3b e0be
00000160: c295 8bbd e231 473d 58f3 b8bd 81ba c33d
00000170: b830 1a3e 5c73 8e3d 11b0 44bf 1d0c 0e3e
00000180: 4ebf f9bd 0deb 0ebe f86d 3fbe f734 eb3d
00000190: e411 86bd 12a1 2abd 5e59 1a3c 1e9d 55bd
000001a0: 3b3e a8bb 14a7 dd3c 0b48 f43d 93fd 843c
000001b0: 18f5 bf3d 49f8 593c 7bd7 88bd a70d 9e3d
000001c0: eef3 073e f05c aebb 5c6f 8e3d ac1c 72ba
000001d0: 1953 393d c71e 303e da8d 34be 15f1 86bc
000001e0: 44a9 aa3d 1304 6b3e b5ae 923d 293b 653c
000001f0: 2c2e 4b3e e8d2 843d 652f 4b3d 9113 db3d
0.019787982 0.10870774 -0.02054757 -0.0018464376 -0.009095635 0.04277092 0.09968052 0.097482294
0.09543738 0.2165532 0.023005338 0.018810237 0.04399922 -0.055085108 0.14524788 -0.050260697
0.11797804 -0.13971192 0.080641516 0.11856274 0.14407794 0.00439917 -0.023754703 0.11540416
0.037033126 -0.0210557 -0.03737968 0.208357 0.1560922 0.17004277 0.36576504 -0.035695862
0.039120607 0.13892585 0.247497 -0.17915888 -0.030928213 0.12998873 -0.0696827 0.029814227
0.24617766 -0.03079408 -0.07762597 -0.02159558 -0.08880421 -0.07303917 -0.13315293 0.047920182
0.18798067 0.1026888 -0.10196613 -0.054904755 0.14838655 0.04983668 0.04840553 -0.015127793
-0.02427883 -0.014947508 -0.012161846 -0.11293611 -0.04203432 -0.23200546 0.0832356 0.09274201
-0.1323895 -0.042894546 -0.014346928 0.04826683 -0.12242055 0.11912507 0.03505152 -0.11021373
0.06735137 0.1191092 0.079832554 0.071139075 0.13541543 -0.32988077 0.064673364 -0.018014818
-0.006309224 0.007729779 0.03341864 0.11475949 -0.04202686 -0.11864016 0.01613732 -0.43795386
-0.068156734 0.048631556 -0.09030789 0.09557057 0.15057647 0.06955597 -0.76831156 0.13871808
-0.121946916 -0.13956852 -0.18694293 0.114847116 -0.06546381 -0.041657515 0.009420721 -0.05215179
-0.0051343716 0.027057208 0.119278036 0.016234195 0.0937292 0.013303825 -0.06681725 0.07717448
0.13276646 -0.0053211376 0.06954834 -0.000923584 0.045245264 0.1719924 -0.17632237 -0.016472379
0.08333066 0.22950773 0.07162229 0.013991156 0.19841832 0.0648554 0.049605746 0.10697091
