checkpoint/LunarLander_0050.pth (torch_old, 8217 bytes, 5 tensors)

input_layer.weight f4 [128, 8]
000000 b5 74 9d 3d 54 a2 b2 be da db 3a be 6c 3f 36 3b
       0.07688276 -0.34889472 -0.18247929 0.0027808798
000010 76 4e 8a 3d 05 ec 81 3d d1 c7 82 be 6c 0c 4f 3e
       0.067532465 0.06343845 -0.25543073 0.20219582
000020 78 a9 81 3e b2 02 bd 3d 3c f1 c3 be 88 56 ad 3b
       0.25324607 0.0922903 -0.38269985 0.0052898563
000030 5f e5 0e 3e e5 c8 d9 3c df b1 07 be a0 28 86 3d
       0.13954686 0.026585052 -0.13251446 0.06550717
000040 b8 c8 fb 3d 62 f5 81 be 65 3e 06 be 0c dc c9 3d
       0.122941434 -0.25382525 -0.13109739 0.09856424
000050 18 45 39 bd aa ad 59 3e 82 2b 91 be 45 2b 98 be
       -0.04523191 0.21257654 -0.28353506 -0.29720512
000060 63 3d f5 3e 0f ba fc 3d 3b 38 d2 3e 0d 5b 8a bd
       0.47898397 0.12340175 0.41058525 -0.06755648
000070 94 c6 54 be bc 37 48 3e 65 24 49 be 15 14 22 3e
       -0.20778877 0.19552511 -0.1964279 0.15827973
000080 a5 ba 1d 3e 7a d1 e4 be 04 db 52 bd 2b bf 4c 3e
       0.1540323 -0.44691068 -0.0514784 0.199948
000090 32 ea 8b 3d 2f cb b9 3d 98 52 79 be b9 d8 39 3e
       0.068317786 0.09071957 -0.24347913 0.1814908
0000a0 79 80 a3 be 80 11 4a 3d f1 43 a6 be 35 59 26 bd
       -0.31933954 0.049333096 -0.3247371 -0.04061242
0000b0 3b ac 1c be ac c6 ab 3e 8d 73 88 be 38 a2 bf 3e
       -0.15300076 0.33550012 -0.26650658 0.3742845
0000c0 b0 b1 f1 3e 85 b9 af 3d 37 b0 a9 3e 86 5b 5f bd
       0.47205877 0.08580307 0.33142254 -0.054530643
0000d0 e7 70 a7 be 66 bf 89 3e d3 c8 90 be 32 cb cd be
       -0.32703325 0.26903838 -0.28278217 -0.40194088
0000e0 7a 72 ab 3e 06 c4 e6 be e7 cf d0 3d c3 34 14 be
       0.33485776 -0.4507143 0.10195904 -0.14473252
0000f0 c1 5c 8f 3e 9f ef 78 3e 40 76 2c 3d 54 84 ea 3c
       0.28000453 0.24310158 0.04210496 0.028627552
000100 42 46 c1 3d 3e 9c 1c be 6c af 08 be 04 c4 88 3e
       0.09437229 -0.15293977 -0.13348168 0.26712048
000110 5d 76 07 3e 72 83 e4 bd 80 23 06 bd 62 a8 d2 3d
       0.13228746 -0.11157884 -0.0327487 0.10286023
000120 88 9b d4 3e 46 e0 75 bc 04 28 f2 3e 04 e1 53 3e
       0.4152491 -0.015007084 0.47296154 0.20691305
000130 cf 66 f4 be 76 4f ee 3d 76 16 31 3d d7 71 2d 3e
       -0.47734687 0.1163625 0.04323431 0.16937958
000140 78 62 94 bc 68 84 9a 3e 4a c6 91 be b0 60 d1 bb
       -0.01811336 0.30179143 -0.28471595 -0.0063897
000150 5e c9 95 3e 5f 7c 48 3e 74 f9 f8 bd e6 89 32 3e
       0.29255193 0.19578694 -0.121569544 0.17435417
000160 85 2e cd be 55 84 c0 3e 9b 26 4f be 07 81 82 be
       -0.40074554 0.3760096 -0.2022957 -0.25489065
000170 52 09 34 3e 20 84 a3 3d d7 30 ee bd 64 48 15 3e
       0.1758168 0.07984185 -0.11630409 0.14578396
000180 98 36 88 3d ac c0 8a be b5 95 2c be 90 09 a6 3e
       0.06651038 -0.27100122 -0.16853984 0.3242917
000190 d8 1b 77 bc 9b a8 4b be 76 d5 61 3d af f9 65 3e
       -0.015082322 -0.19888537 0.055135213 0.22458528
0001a0 8a be e5 be 6f c0 9c be 44 5b cb 3d ba 97 5f be
       -0.44871932 -0.30615565 0.09929517 -0.21835223
0001b0 58 47 1c 3e 41 8f 2b 3d 9a 64 d1 3e 42 1c c6 3e
       0.1526159 0.041884664 0.40897065 0.38693434
0001c0 c8 2b 86 bd e7 3f 3f be ec 9a e2 bc cc dc e6 3d
       -0.06551319 -0.1867672 -0.027661763 0.112725824
0001d0 e1 83 6a 3e ef 33 f9 bd a4 dc c3 be e2 cb 8e 3e
       0.2290187 -0.12168109 -0.38254273 0.27889925
0001e0 64 19 17 3d 46 b3 8f 3d bf 07 10 be 06 c6 90 bc
       0.03688945 0.070166156 -0.14065455 -0.01767255
0001f0 ca 8d d0 3d 3e 4c 92 3d 30 0a 04 be 68 6e 98 3e
       0.10183294 0.07143448 -0.12894511 0.29771733
000200 5b b1 aa 3e 22 ec 75 be 1a 02 70 3e 26 8f d3 3e
       0.33338436 -0.24015859 0.23438302 0.4132015
000210 26 bd d5 3d 13 a7 73 bd ff 8f 6b be 75 ae 00 be
       0.10436468 -0.059485506 -0.23004149 -0.1256655
000220 ec 38 37 3e 86 a9 a2 be 70 da 4c be 5c 71 07 bd
       0.17892808 -0.3176996 -0.20005202 -0.033067092
000230 3e 8a 45 bc 34 9c c8 3e f4 c4 2e 3e 32 91 cc 3a
       -0.012056885 0.39181674 0.17067319 0.0015607236
000240 df d7 ee 3d 13 dd f1 3d 79 ff 9b 3e b4 78 69 3e
       0.11662268 0.11809745 0.30468348 0.22799951
000250 12 9a 40 3c 24 7d bc bd 78 8c ea 3d ec 39 83 bd
       0.011755483 -0.09203556 0.114525735 -0.06407532
000260 68 74 73 bc 00 df 36 38 14 3f da 3e 72 0c 71 3e
       -0.014859296 4.3599866e-05 0.4262625 0.23539904
000270 28 de b1 be cf 73 6f be 10 b6 51 be 00 b4 ab 3d
       -0.34739804 -0.23384021 -0.20479608 0.08383942
000280 a7 77 76 3d 80 b9 d3 be c2 d4 73 3e b7 cb 95 3e
       0.060172703 -0.41352463 0.2381163 0.29256985
000290 8a 2f 8d 3e ab 44 92 be e2 2d 26 3e cb 30 de 3d
       0.27575332 -0.28568015 0.1622844 0.1084915
0002a0 e4 64 34 be 08 35 20 3e 67 74 0b bf c1 8a 86 3e
       -0.17616612 0.1564523 -0.5447449 0.26277736
0002b0 05 76 13 3e 60 f6 73 3e c5 db 9b be 90 5a 3b 3d
       0.1440049 0.23824453 -0.30441108 0.045740664
0002c0 6f 78 b4 3e 18 ae dc 3d cc 5a c0 be 22 65 07 3d
       0.35248134 0.10775393 -0.37569273 0.033055432
0002d0 c7 b8 41 3d 4e b8 7c be e8 24 98 3e c3 45 a6 be
       0.047295358 -0.24679682 0.29715657 -0.324751
0002e0 9a a6 1b bd 03 b8 1a 3e 77 f4 ed 3e 38 c7 5c be
       -0.03800068 0.15109257 0.46475574 -0.21560371
0002f0 a6 2f 1c be 28 1a 15 3e a0 0e 9f be bc a9 b4 be
       -0.15252551 0.14560759 -0.31065845 -0.35285747
000300 a0 d7 4e 3e d4 36 d4 bd 2c dd 1b be e4 11 77 3e
       0.20199442 -0.1036202 -0.15221089 0.24127918
000310 87 97 7e 3d 85 69 ad 3e 70 b9 1e be ea a1 27 3e
       0.062156226 0.33869568 -0.15500426 0.16370359
000320 64 c9 bc 3d 47 ce 67 3e b9 65 31 bd 14 06 7d be
       0.092181 0.22637282 -0.0433099 -0.2470935
000330 46 03 5a 3e 88 4c ca 3e 14 ed 53 be 6a a9 a8 be
       0.21290311 0.39511514 -0.20695907 -0.32941753
000340 fd 7d 61 be 61 04 a5 bd a0 fc e9 be 24 b4 03 3d
       -0.22020717 -0.08057476 -0.4570055 0.032154217
000350 4e 04 5f be 33 d1 5f 3e 29 fd b3 3d 29 04 9e be
       -0.21778986 0.21857147 0.08788521 -0.3086255
000360 07 5d 4c be c2 84 89 be a6 38 3a 3e 87 dc 85 3e
       -0.19957362 -0.268591 0.18185672 0.26144812
000370 bc bf d0 3d 56 a1 66 3e 2c 16 de 3d 32 b9 8e be
       0.101928204 0.22522482 0.10844073 -0.27875668
000380 e3 25 c4 bc 03 b3 91 bd 2a ad b9 3e f8 25 94 3e
       -0.023943847 -0.07114222 0.36264926 0.28935218
000390 28 be cd be 0f f2 a0 3e 36 7f 8c bc 1e 75 e7 3d
       -0.4018414 0.31434676 -0.017150503 0.11301635
0003a0 4d 00 b8 3e 08 44 58 bd e7 b9 1c bf 88 9d 46 3e
       0.3593773 -0.052799255 -0.61221164 0.19396031
0003b0 21 53 44 be 57 e6 6b 3e 6d a7 90 bc f3 a8 b0 be
       -0.19172336 0.23037086 -0.01765796 -0.34503898
0003c0 65 27 82 3e bc 86 df be 48 8b 8b 3e 40 9d 1b bc
       0.2542068 -0.43657482 0.272547 -0.009497941
0003d0 aa 72 6c be 52 3a ac 3c 4e a3 9e be 0d b2 d8 bd
       -0.23090616 0.021023903 -0.30983967 -0.105808355
0003e0 e9 8b 7e 3d 9e 68 25 bd d6 a8 6f bd 74 b8 10 3e
       0.062145147 -0.040382974 -0.058510624 0.14132863
0003f0 9b 84 a3 bd 1d 3b db 3e a1 dc 8b 3e 99 b7 ba 3d
       -0.07984277 0.42818537 0.27316764 0.0911705

input_layer.bias f4 [128]
000000 8f ff c9 be a6 b3 9b be 31 e1 a0 be a9 a6 0e 3c
       -0.39452788 -0.30410498 -0.31421807 0.008706727
000010 3f b8 05 bf fa 79 e0 be 1c af 2b be 3f dd 54 3e
       -0.5223426 -0.4384306 -0.16766018 0.20787524
000020 f2 80 01 be 35 38 47 be 19 e9 99 be 1f 81 01 3f
       -0.12646845 -0.19455035 -0.30060652 0.5058765
000030 41 7b 9f be 23 a3 b9 3d 05 a2 16 be dc db f9 bb
       -0.31148723 0.09064319 -0.14710243 -0.0076250862
000040 a1 6f 0b 3e 01 b0 64 bc 79 4e e2 be 0d b6 ca be
       0.13616802 -0.013957978 -0.44200495 -0.3959202
000050 a1 a3 ab be 48 43 da 3b ae d6 39 3e 24 6e aa be
       -0.33523276 0.0066608526 0.181483 -0.33287156
000060 2d d0 f1 3d 3c 8d 6b be e6 6b a8 bd 4b d1 b3 be
       0.118072845 -0.23003095 -0.08223705 -0.35120615
000070 01 57 8b bc b1 40 c2 be e6 69 b7 be b2 77 cc be
       -0.01700926 -0.3793998 -0.35822982 -0.3993507
000080 11 ec 08 be 7e 91 9f 3e 94 49 3d bd 34 44 40 3e
       -0.13371302 0.3116569 -0.046212748 0.18776017
000090 53 27 03 3f e6 32 f6 be 3f 46 ec 3e 21 38 19 be
       0.5123188 -0.48085707 0.46147344 -0.14962818
0000a0 41 ff 54 3e 36 63 89 be 24 db be 3d 12 7d 93 3e
       0.20800497 -0.26833504 0.093191415 0.2880636
0000b0 06 71 0b bf 50 49 1f be 75 7c 72 3e 9f f5 a1 be
       -0.54469335 -0.1555531 0.23680289 -0.31632707
0000c0 7b 91 0f be d8 19 2c bd f4 5c 47 be 2c 96 65 be
       -0.1402034 -0.042016834 -0.19469053 -0.22420567
0000d0 20 56 e8 be 35 68 fb bd 74 7d b5 bd 17 74 a8 bd
       -0.45378208 -0.12275735 -0.08861819 -0.082252674
0000e0 a1 91 3a be b6 35 8d 3d 36 5b b9 3e d4 ed bf 3c
       -0.18219616 0.0689501 0.362024 0.023428835
0000f0 0a 14 b5 be e1 99 11 3d df cf 11 3e 0a 0f 4f be
       -0.3536685 0.03554714 0.14239453 -0.2022058
000100 d6 dc 1c bd f4 30 01 3f 4e 42 92 bd 6f 15 b4 3d
       -0.038296543 0.5046532 -0.07141553 0.08793151
000110 45 ad 69 3d 8b 0c 87 be a2 79 b0 be 61 ca e7 bd
       0.05705001 -0.26376757 -0.34467798 -0.113178976
000120 a8 48 02 3d e8 bb 12 3e c9 67 17 3e 9b 11 4c 3e
       0.03180757 0.14329493 0.14785685 0.19928591
000130 a7 c8 09 3e 4a b8 af bd 39 2b 88 be d9 ac 5a be
       0.13455449 -0.08580072 -0.26595476 -0.21354999
000140 21 01 e6 bd 27 80 8b 3d b1 90 b4 3d c1 18 2a 3e
       -0.11230684 0.068115525 0.0881666 0.16611005
000150 c0 ba 9a be 7f 17 c8 3d 46 cf e7 3d 4a 3f c0 be
       -0.30220604 0.097701065 0.11318831 -0.37548286
000160 80 1b f4 be 1f 2d 91 3e db a0 43 3e 75 5b 5a be
       -0.4767723 0.28354737 0.1910433 -0.2132395
000170 88 80 cc be 1f cd 9c 3d 33 d1 95 be fa 02 8b bb
       -0.39941812 0.07656311 -0.2926117 -0.004242298
000180 4f 8e 4c 3d 76 93 d6 be 67 f5 0a 3e d1 78 f4 be
       0.049940404 -0.4190938 0.13570176 -0.47748426
000190 5b 33 8a 3e 1d 84 f8 3d 2d b2 ed 3d 8e 6f ec 3e
       0.26992306 0.121345736 0.1160625 0.4617886
0001a0 c8 b1 41 be 87 6f d6 3e f1 b7 9c be 8f c6 a5 be
       -0.18915474 0.41881964 -0.30609086 -0.3237805
0001b0 0e 32 0f 3d 9c 37 0d bf 16 cb 87 3d 26 08 67 be
       0.034959845 -0.5516298 0.066305324 -0.22561702
0001c0 d9 fe 4e be 8e d8 a9 be 72 7c 0e bc ca bb 98 3d
       -0.20214404 -0.3317303 -0.008696662 0.07457693
0001d0 3a 5f 63 be a9 47 f2 bb ee ab c0 3e 5c 34 61 be
       -0.22204295 -0.0073937965 0.37631172 -0.2199263
0001e0 8b 49 c3 3e 77 a5 d8 bd 38 7b d1 bd bc 98 c2 3d
       0.38142046 -0.10578435 -0.1022858 0.09501788
0001f0 4a 40 04 3e b1 88 f6 bd 92 61 2d be 9e 24 ef be
       0.1291515 -0.120377906 -0.16931751 -0.46707624

action_layer.weight f4 [4, 128]
000000 9e 31 cf bd 1d 64 b9 bd 1d 2a b3 3d d4 68 85 3b
       -0.101168856 -0.09052298 0.08748267 0.0040713344
000010 18 31 11 be bb 03 26 3d 30 f4 1d be 9c a5 f5 bd
       -0.14178884 0.0405309 -0.15425181 -0.11994478
000020 48 e7 0c 3e 9d 65 a7 bd d7 5e ae bc 1b 49 71 be
       0.13760102 -0.08173678 -0.021285458 -0.23563044
000030 f5 2c 96 bd 88 05 7c be 3f b3 0d 3d 6b a1 8b be
       -0.073327936 -0.24611485 0.03459477 -0.2727159
000040 73 fa 00 3d 1a 9c 98 be 3b 09 0c bd 77 ed 9c bd
       0.031488847 -0.29806596 -0.03418849 -0.0766248
000050 26 6e a8 b9 9a 09 16 be 17 43 62 be cf 3f 98 be
       -0.00032125524 -0.146521 -0.22095905 -0.29736182
000060 34 58 26 3e a4 60 a8 bd 6a 17 8f be 9f bf 3a bd
       0.16244584 -0.08221558 -0.2794755 -0.0455929
000070 a8 9f 49 bc 42 87 01 be fe 77 c6 bd 8b 99 aa bd
       -0.012306131 -0.12649253 -0.096908554 -0.08330067
000080 f9 bd dc bd 5c a4 84 be ce a5 b6 3c 6a cf 37 be
       -0.10778422 -0.25906646 0.022295859 -0.17950216
000090 21 76 1b be 9d 2e ed bd 79 16 38 bd 33 37 e1 bd
       -0.15181781 -0.115811564 -0.044943307 -0.109968565
0000a0 31 4a 64 bd 72 c1 4a 3e 02 20 50 bd fc 93 50 be
       -0.055734817 0.19800356 -0.050811775 -0.20368952
0000b0 31 74 43 be 65 7a be bc c3 8e be bc 25 8f 6a bd
       -0.19087292 -0.023251722 -0.023261433 -0.05726542
0000c0 5f 1f 1d 3e f7 6d 3d be b8 8e 09 be 09 95 9d 3d
       0.15343998 -0.1849898 -0.13433349 0.07694442
0000d0 c1 52 5b bd 4e 0a 36 3d 2a 59 1b be 80 8c 1e be
       -0.053545717 0.04444342 -0.15170732 -0.15483284
0000e0 4b 76 c6 bd d4 d4 93 3b f5 4b f2 bd ed ed de 3c
       -0.09690531 0.004511455 -0.11830894 0.027213061
0000f0 57 f4 82 bb bc 3d 06 3e 7f 00 1b 3e 34 fc 20 bd
       -0.0039964127 0.13109487 0.15136908 -0.03930302
000100 54 4a 1b be 5e 05 2f be cf 17 7f bd 1f fc 30 be
       -0.15165073 -0.17091891 -0.062278565 -0.17283677
000110 3a d7 14 be 76 be 1a be 23 6b 46 be 4c 56 ee ba
       -0.14535227 -0.15111718 -0.19376807 -0.0018183677
000120 48 3b 69 be 1d 36 a8 bd 55 34 dc bd 3d b6 37 be
       -0.2277652 -0.08213446 -0.10752169 -0.17940612
000130 e4 2e 9f 3d 48 c4 7e be 92 5d 31 3e 3d 12 a8 3c
       0.077726156 -0.24879563 0.1732085 0.02051651
000140 cf 6f 8b be 7e 81 67 bd 2a 2b 3a be dd 11 0a bd
       -0.2723374 -0.056519978 -0.18180528 -0.033708442
000150 58 f3 99 3d e6 a5 8c bd fd a9 a7 bd 1a 72 3f be
       0.07517117 -0.0686758 -0.081867196 -0.1869587
000160 15 33 02 be 21 92 43 be 86 91 83 bd ad 94 66 be
       -0.12714799 -0.19098713 -0.06424241 -0.22517653
000170 5e 7a 82 be 7d 7d d8 3c dc 18 99 3d 38 5d 97 be
       -0.25483984 0.026427025 0.07475445 -0.29563308
000180 53 ed 0c be e2 66 8d bd 20 cc e1 3d 98 c0 06 be
       -0.13762407 -0.06904389 0.11025262 -0.13159406
000190 1e c1 5a be 15 7c 58 be 51 78 68 be 8a 7f 50 be
       -0.21362731 -0.21141084 -0.22702147 -0.20361152
0001a0 50 52 8e be 2e d3 92 be 62 f6 a5 bd 4f 53 9c 3d
       -0.27797174 -0.28676742 -0.081036344 0.07633077
0001b0 28 d7 c4 bc 47 7c 1a 3e 3a 17 85 bd 0c c5 a6 3d
       -0.024028376 0.1508647 -0.06498571 0.081430525
0001c0 fe 01 5b bd 3c 71 8c be ec e9 ac be a2 09 73 be
       -0.053468697 -0.2743014 -0.33772218 -0.23734143
0001d0 ea 5d 96 3d de 35 13 bd e6 4e b4 be c7 c8 88 bd
       0.073421314 -0.035940044 -0.35216445 -0.0667892
0001e0 7c 7b 69 be c2 d5 ad 3d a6 f6 00 be a0 e1 50 be
       -0.22801012 0.08488037 -0.12594089 -0.20398569
0001f0 72 e1 65 bc e2 cf 3b be aa 10 34 be 81 29 d5 bc
       -0.014030801 -0.1834102 -0.17584482 -0.026020767
000200 d8 bb ac 3b a9 30 b4 bd c0 70 d9 ba 9b 06 3b be
       0.005271416 -0.08798344 -0.0016589388 -0.18264239
000210 a6 c8 a0 bd 4b 52 8c bd c4 79 37 be e0 63 0f be
       -0.07850771 -0.06851634 -0.17917544 -0.14002943
000220 0f 60 1a be 6c b1 39 be cf 35 0a 3e 1c 50 5f bd
       -0.15075706 -0.18134087 0.13497089 -0.054519758
000230 b0 b4 9f bd 6a f2 1f be 14 b2 f3 bc 7e d2 c0 bd
       -0.07798135 -0.15619817 -0.029748 -0.09415148
000240 22 be 88 be e5 cf 0f be eb 56 89 be 37 ac 5a be
       -0.2670756 -0.14044149 -0.26824126 -0.21354757
000250 d1 db 2e 3d 8a 08 7b 3e ec b2 f4 bd 84 d3 04 be
       0.042690102 0.24514976 -0.11948189 -0.12971312
000260 12 11 49 be 92 3b ba bc 05 56 1c bc 70 a5 0c 3c
       -0.19635418 -0.022733483 -0.009541993 0.008584365
000270 fa 0b 65 be 3a 17 1b 3e 39 50 ee bd d7 8d 8f 3d
       -0.2236785 0.15145579 -0.11636395 0.07009476
000280 47 83 7e be 18 77 e2 bd c7 38 90 be 83 12 0a be
       -0.24854766 -0.110578716 -0.28168318 -0.13483624
000290 dc 3f 31 bd 13 39 cf bd ca 8d f1 3b ff fd bd 3a
       -0.04327379 -0.10118308 0.007371639 0.0014495252
0002a0 1c af 14 3e 1d fd d7 bd a1 5f b5 3e f3 8f 16 be
       0.14519924 -0.105463244 0.35424522 -0.1470335
0002b0 5b a3 68 be ef 86 69 bd 02 7d 65 be bb 91 1f be
       -0.22718565 -0.05701345 -0.22410968 -0.15582936
0002c0 ed 93 80 bd cb 50 0e be 5e f7 54 3c 80 b9 58 ba
       -0.062782146 -0.13898008 0.01299843 -0.0008267388
0002d0 bd 1b 52 be ae 75 22 be 66 64 a9 bd 5d 8e 94 be
       -0.20518394 -0.15865204 -0.082711026 -0.29014865
0002e0 d7 9d ec bd 13 4e c1 bd 56 57 9e 3d e2 19 ca bc
       -0.11553543 -0.094387196 0.07731502 -0.024670545
0002f0 0f 26 cc 3d 89 b0 5a bd bc e7 63 bd 96 48 b0 3d
       0.099681966 -0.053391013 -0.05564092 0.08607595
000300 b9 41 52 be dd 81 5a 3c df 86 3a be 4d b8 24 be
       -0.20532884 0.013336626 -0.18215512 -0.1608593
000310 65 7d 02 be 44 a7 a6 3d c4 e5 85 bd 51 aa 45 be
       -0.12743147 0.08137372 -0.06537965 -0.19303252
000320 32 c6 62 3e 0f b2 cf bd 51 50 29 be 02 ba c8 bd
       0.22145918 -0.10141384 -0.16534545 -0.09801103
000330 8e 00 94 bd 84 7f 69 be 09 5a cc bc 2a f9 4d be
       -0.07226668 -0.2280255 -0.024945276 -0.2011458
000340 da 9f 47 be a3 7a d3 bd 56 e2 62 be 82 62 bf bd
       -0.19494572 -0.103261255 -0.22156653 -0.09344961
000350 60 e8 a4 be 6c b0 0e be af ce 87 be e0 86 1a be
       -0.32208538 -0.13934487 -0.26524875 -0.15090513
000360 02 5a 99 bc 2f ac a3 3e 95 fc b3 3e b8 ca 20 bd
       -0.018719677 0.31967303 0.35153642 -0.039255828
000370 03 c8 1a be d9 66 2e be 5e f5 74 bd 27 8d 2b 3c
       -0.15115361 -0.17031421 -0.059804313 0.010470665
000380 c4 c5 70 be f9 01 b3 3d 7c 0f 38 be be 05 0a be
       -0.23512942 0.08740611 -0.17974657 -0.13478753
000390 af fd cd bc d8 d7 5a be 39 a4 cf bd 2e cf d9 bc
       -0.02514538 -0.213714 -0.10138745 -0.026588049
0003a0 fe c5 02 be 78 47 52 bd c8 19 bd bc 01 2e 5d bd
       -0.1277084 -0.05133769 -0.023083583 -0.05399895
0003b0 58 c0 27 be 66 f3 e7 3b 07 a0 bf bd 28 2a 57 bd
       -0.16381967 0.007078576 -0.09356695 -0.052530438
0003c0 aa 8c 60 bd a8 40 90 be 7a e6 85 bd 5f 97 20 bd
       -0.054821648 -0.2817433 -0.065381005 -0.03920686
0003d0 ce 4a eb bd 99 7a af 3d e0 bb eb bd 89 9a 45 be
       -0.11488877 0.085683055 -0.11510444 -0.19297232
0003e0 93 75 2a be 71 26 55 bd 11 26 14 3d 33 ba 15 be
       -0.16646414 -0.052038614 0.036169115 -0.1462181
0003f0 c8 2a 8b 3b 91 0c 2d 3d b7 50 14 be fa c6 bf 3d
       0.0042470433 0.042248312 -0.14483915 0.09364124

action_layer.bias f4 [4]
000000 17 9b 2a be c2 c0 d0 bc 2e 83 32 3e ac 4d c2 3d
       -0.16660725 -0.02548254 0.17432854 0.09487471

value_layer.weight f4 [1, 128]
000000 07 21 c5 3c 04 e9 23 bb cb 76 85 3d 8b 83 32 3e
       0.0240636 -0.0025010714 0.065167986 0.17432992
000010 82 d8 da 3d a0 11 95 3b bc f6 e9 3d e4 06 3e 3b
       0.10685827 0.00454922 0.11424014 0.0028995806
000020 25 a2 e9 3c ea 29 51 3e ff 40 98 3d ba c5 05 be
       0.0285197 0.20426145 0.07434272 -0.13063708
000030 0d b4 fe 3d 75 3f 9b 3d c4 73 8b bd 00 e1 1d bb
       0.12436686 0.07580463 -0.0680919 -0.002409041
000040 fe 07 ba 3c 03 5e ea 3d aa e3 9a 3d 38 ca 00 3e
       0.02270889 0.114437126 0.07562955 0.1257714
000050 5a 86 73 bd 6b df 7e 3e 3c 12 95 bc 63 67 31 3e
       -0.0594543 0.24889915 -0.018197171 0.17324595
000060 6f ac f7 bc b4 11 b3 3d 0f b7 70 3c c8 b4 57 3c
       -0.03023359 0.08743611 0.014692082 0.01316566
000070 ab 97 08 3e 90 31 ac 3b 7b 89 e5 3d 63 2d 57 bd
       0.13339107 0.0052549317 0.11207863 -0.05253352
000080 84 bb 88 3d 13 88 2d bd b6 38 50 3e d7 5c c0 3c
       0.06676391 -0.0423661 0.20334134 0.02348177
000090 79 e9 18 be 29 f9 07 3d 81 ea 6c be 5f e8 87 3d
       -0.14932813 0.033196602 -0.23136331 0.06636118
0000a0 50 f9 48 bd e8 45 2e be d3 7f 44 3e 34 e7 37 be
       -0.049065888 -0.17018855 0.19189386 -0.1795929
0000b0 f8 7b e3 3d 4e 49 6c bd 15 d5 d6 bc f5 5e 0e 3e
       0.111076295 -0.057687096 -0.026224652 0.1390341
0000c0 4d 6e 49 3c c7 ec aa 3d f8 1e 02 3d 56 d0 74 3d
       0.012294364 0.08345943 0.031767815 0.059768997
0000d0 a7 ae 15 3e e7 be 13 3d 33 e6 57 3d e7 a1 25 3e
       0.14617406 0.03607073 0.05270977 0.16175042
0000e0 f9 b2 15 3e 6c 00 0d bc 10 11 4a bd 83 ae e5 bc
       0.14619054 -0.008606058 -0.04933268 -0.028037315
0000f0 17 82 40 3d 03 45 a7 bc cc 50 e6 bd 35 a1 cd 3b
       0.046999063 -0.02041865 -0.112458795 0.006275321
000100 cb 55 e4 3d fd c0 74 be 72 25 d0 3c 16 aa 84 3c
       0.11149176 -0.23901744 0.02540848 0.016194385
000110 62 8b 0b bc ae 5d 87 bd a8 6d 73 3d ad c8 bb 3c
       -0.008517118 -0.06609665 0.05943075 0.022922838
000120 d4 a7 90 3e ce 6e 76 3c 00 16 0b bd bb f6 5f bc
       0.28253043 0.015041066 -0.033956528 -0.013669665
000130 02 1a 86 3d ec 9b 3c 3d 6a f7 de bd 6e 1b 87 3c
       0.06547929 0.046047136 -0.10887034 0.016492572
000140 f7 b0 59 3d c0 a5 e9 bc 9c 12 ce 3d a3 43 55 bd
       0.053147282 -0.028521419 0.10062143 -0.052066457
000150 ab 3e 3c 3e 97 be 5b 3d be fa a3 3d 77 64 be 3c
       0.18383281 0.053648558 0.0800681 0.023241265
000160 41 0d 21 3d 39 5b 14 3e 8a a3 40 3e c1 df b5 bc
       0.03931928 0.14487924 0.18812385 -0.02220142
000170 4a 2b 1b 3d ea 60 13 3d 67 21 bd bb bb 12 93 3d
       0.03788308 0.035981096 -0.005771804 0.07181307
000180 e5 06 27 bd 15 67 b0 bc 0e bf 19 bd 2a 85 e4 3d
       -0.04077806 -0.021533528 -0.03753572 0.111582115
000190 b3 c7 d7 bd d2 e9 db 3d 93 02 3f bd b0 93 00 be
       -0.105361365 0.10737957 -0.046633314 -0.12556338
0001a0 8a 72 6e 3d 0f 6a 90 bd 23 bb b0 bd 40 fe 25 bb
       0.0582147 -0.07051479 -0.086294435 -0.0025328547
0001b0 47 bb d7 3c c9 d4 c0 bd 94 8c cd bd 6c ea 4c 3e
       0.026334418 -0.094155855 -0.10036579 0.200113
0001c0 dd 2c e3 bc 0f 27 d7 3d a0 90 ad bc b2 01 8f 3d
       -0.027731353 0.10505497 -0.021187127 0.06982745
0001d0 7e d9 a2 3b 4c c7 c6 3d 25 30 8c bd 00 94 43 bd
       0.0049697747 0.097059816 -0.0684512 -0.047748566
0001e0 d9 e4 80 bd e8 83 5a 3d 67 2a e7 3d ed 45 b5 3d
       -0.06293649 0.05334845 0.112873845 0.08851228
0001f0 15 ca e4 3e df 23 2c bd 45 92 8c 3d 1f 25 cd 3d
       0.44685426 -0.042026397 0.06863836 0.10016846
