checkpoint/LunarLander_1000.pth (torch_old, 8217 bytes, 5 tensors)

input_layer.weight f4 [128, 8]
00000000: 4e48 a53d 5e1d 1abf 4c3e 31be 4c8a 453e
00000010: 85bb 6ebd a55d df3c b83d 83be 8895 4e3e
00000020: fd48 ffbd 426c 0bbd 47e0 f3be c9c1 083c
00000030: 3ee1 0ebd 5480 20bd 51f9 97be b3aa 7dbe
00000040: 1f9a 8d3e a8bb d5be 2618 7f3c 3266 823e
00000050: 87a5 3fbe d7e9 9e3d 822b 91be 8496 edbd
00000060: 17f1 a63c 57ad 093d 8523 a13e 0e24 fabe
00000070: d71f ddbf 9519 9ebe 2acf fbbd e0cf 22bf
00000080: feea d23e e7b5 10bf 567a c23d 2842 c83e
00000090: 2027 a43d 677b b0bd dde3 e1be 89cc 8b3d
000000a0: 73b7 a6bd f594 ccbd 488f f3bd b045 f03c
000000b0: 3a92 a7be bf65 cb3d 8d73 88be f104 fabd
000000c0: 8668 4b3e 1605 ddba 7103 253e 8f7f 5b3d
000000d0: fed0 83be cd9c f53e 9f12 2abf b876 7abe
000000e0: fd20 84bc edd2 b1bf e089 0540 2667 dd3f
000000f0: e644 96bf 63e9 443c f95c ca3e 3908 5c3f
00000100: 5b1a 9f3e 2d3b dfbe 92fe 80be 8774 f43e
00000110: 5a7c 9abd d376 9cbe 06ff 68be 6692 93be
00000120: d34b 693e 559b 23be 69c2 af3e 97c9 523e
00000130: 7ac2 edbe df22 483e ad4f 89be ed7d e4bd
00000140: c475 423e 5829 41be 2e07 ab3e a963 cb3e
00000150: 89ed 5abf 2e34 73bd c88a af3f 0dc3 24c0
00000160: 9a65 51bd 3d9f 4a3e 6576 28bf 730b ebbe
00000170: 9049 5f3e 66d3 0e3e 5b1c 4cbf 9cf6 113f
00000180: 8dda 833d 782a 0cbf c255 0d3b 2873 a33e
00000190: b4d0 12be 86cc c2bd 23b7 68bd f0ad 633e
000001a0: 99d2 40be 8014 11bf 1f12 9b3e 8c9d d83d
000001b0: 22b1 453d e886 8cbe 479e dd3d 6b83 bbbe
000001c0: 2952 cebc 71dd ccbe 084b b83d 44a9 743e
000001d0: 583a 173c 32f1 62be a3d3 2dbf 9db3 9cbd
000001e0: ccbe f4be 9b51 75bf 4911 03bf cd27 9abf
000001f0: 3639 43bd 2526 cbbe bedc 84bf f629 8fbf
00000200: 8041 173f b2eb 2bbf c974 533d 8a34 1c3f
00000210: 2624 023e fa82 113f c3e8 cabf 0bfd 063f
00000220: 9a4c 013e 4340 d9be 7754 d5bd 21e7 973e
00000230: 9163 afbd 25af 5f3e d93f cabe 4074 e9be
00000240: c1d5 603e 0057 223d 5fb1 b63e f801 0c3e
00000250: cc6d d4bd 8cbb fcbd 7e90 a23e d52d fbbe
00000260: 8796 0c3e 8598 2ebd 8449 ee3e ae8a 903e
00000270: f88e a9be f3a2 4b3d 5e98 35bf e0c7 9d3e
00000280: 85e6 b5bd 35e6 18bf 5b52 073e e41c fc3e
00000290: 19d1 9d3d cc9b d0be d44e 463e a32e 2fbe
000002a0: ada0 2a3b 2b22 05bd 3ced 31be f117 933e
000002b0: 9b49 8fbd aa70 d6bd ee14 0bbf e729 9a3d
000002c0: 7847 b43d 6264 52be 3527 5dbe b82e 2fbd
000002d0: 101f c8bd 2f21 81be e828 f3be 5744 c33c
000002e0: 982d 8c3d 9f4e 853d ba8b 9e3e a5fe 2abe
000002f0: 5c03 5dbe a198 d63d fbb3 9ebe 5c6d babe
00000300: 9929 5c3e d103 b5be e634 a5bc 52d2 b93e
00000310: c72f 56be bba9 053e 70b9 1ebe c0b4 35bd
00000320: ca13 bf3d f89e b63d b8cd f03c 8992 84be
00000330: 4b9c 0ebe 278f 41be aebc f6be 9d34 f4be
00000340: c6a6 ed39 a14a a2be fea4 1bbe c138 333e
00000350: e044 abbe 2bf9 3f3d 27d9 90be d224 9fbe
00000360: 078e a4bc fef9 08bf 76ec 073e a304 0b3f
00000370: 731f ddbd afde 083e 5e85 d13c 70df c7bd
00000380: 5a2e dcbe 00d2 2dbe a803 cf3e 87d6 b83e
00000390: 89cb ccbe 9e93 dc3e 69db 98bf 31f4 563f
000003a0: adea 2ebe adc1 b8bc 5640 4abf c811 9c3e
000003b0: 98b9 263d 385c 0c3f 47b8 42be a667 67be
000003c0: 4c40 853e f941 8fbf df86 b93e d46f d83d
000003d0: 1e00 b2be fd81 cfbd 8dcd 18be 3ad0 3fbf
000003e0: ba15 b8bd 4246 c7be d356 7fbd 5017 6a3e
000003f0: 6976 73be 8f49 9b3e d87e ac3d 4021 e93d
0.08070432 -0.6020106 -0.1730892 0.19291037 -0.0582843 0.027266333 -0.25633025 0.20174229
-0.12465093 -0.03403879 -0.47632048 0.008346983 -0.034882776 -0.039184883 -0.296824 -0.24772148
0.27656648 -0.41744733 0.015569722 0.25468594 -0.18715487 0.07759445 -0.28353506 -0.11600974
0.020378632 0.033612575 0.31472412 -0.48855633 -1.7275342 -0.30878893 -0.12295373 -0.6359844
0.4119491 -0.5652756 0.0949599 0.39112973 0.08015275 -0.08617287 -0.44119158 0.06826121
-0.08140459 -0.09989349 -0.11892563 0.029330105 -0.3272875 0.09931516 -0.26650658 -0.12207974
0.19864091 -0.0016862478 0.16114594 0.053588446 -0.25745386 0.47971192 -0.66434664 -0.2445935
-0.016129011 -1.3892494 2.0865402 1.7297103 -1.1739776 0.012018534 0.39524058 0.85950047
0.31074795 -0.43599835 -0.25194222 0.47745153 -0.075432494 -0.30559406 -0.22753534 -0.2882263
0.22782831 -0.15977223 0.3432801 0.20584713 -0.46437436 0.19544552 -0.268186 -0.11156831
0.18990237 -0.18863428 0.33403915 0.39724472 -0.855187 -0.059375934 1.3714228 -2.574405
-0.051122285 0.19787307 -0.65805656 -0.45907173 0.21805406 0.1394783 -0.79730767 0.5701692
0.0643817 -0.547523 0.0021566008 0.31923795 -0.14337426 -0.09511666 -0.056815278 0.2223432
-0.18830337 -0.56671906 0.30287263 0.10576925 0.04826463 -0.27446675 0.10821205 -0.366237
-0.025185661 -0.40012696 0.08998686 0.23892695 0.009230219 -0.22162321 -0.67901057 -0.07651446
-0.47801816 -0.95827645 -0.5119825 -1.2043396 -0.047661982 -0.3967754 -1.0379865 -1.118468
0.5908432 -0.6715652 0.051625047 0.6101767 0.12709102 0.5684048 -1.5852283 0.5272986
0.12626877 -0.4243184 -0.10416501 0.29668525 -0.08563913 0.21844156 -0.39501837 -0.45596504
0.2195654 0.03963375 0.35682198 0.13672626 -0.103725046 -0.12340459 0.31750864 -0.49058405
0.13729297 -0.042625923 0.46540463 0.28230804 -0.3311689 0.049715947 -0.7093562 0.30816555
-0.08881859 -0.5972627 0.1321501 0.49240792 0.07705898 -0.40743864 0.19366008 -0.17107634
0.0026035712 -0.03250329 -0.17375654 0.28729203 -0.06996461 -0.10470708 -0.5432881 0.075275235
0.08802694 -0.20546106 -0.21596988 -0.042769164 -0.0977155 -0.2522063 -0.47492146 0.023836298
0.06844634 0.065091364 0.30965978 -0.16698702 -0.21583313 0.104783304 -0.3099669 -0.3641156
0.21500243 -0.35354474 -0.020166826 0.36293274 -0.20916663 0.13053028 -0.15500426 -0.04436183
0.09329946 0.0891704 0.02939497 -0.25893047 -0.13926809 -0.18902265 -0.48190826 -0.4769639
0.00045328418 -0.31697562 -0.15199658 0.17502119 -0.33450985 0.046868484 -0.28290674 -0.3108278
-0.020087255 -0.5350646 0.13273796 0.5430395 -0.10797014 0.13366197 0.02557629 -0.09759414
-0.43004113 -0.1697464 0.40432477 0.3610117 -0.39999035 0.43081373 -1.1941959 0.83966357
-0.17081709 -0.02255329 -0.7900442 0.30482316 0.04070434 0.54828215 -0.19015609 -0.22598132
0.26025617 -1.1192008 0.3623571 0.105682045 -0.34765714 -0.10132215 -0.14922161 -0.74927104
-0.08988519 -0.3892079 -0.06233866 0.22860456 -0.23775639 0.30329558 0.08422631 0.11383295

input_layer.bias f4 [128]
00000000: 4412 2abf e37e 23bf 5d48 e9be 44f9 6cbe
00000010: 3ec8 2dbf 56ff 3bbf f39d 19bf a0ab d9be
00000020: 2c33 37bf cd32 23bf 7987 c7be 9be6 d03d
00000030: 9d28 0ebf 1c73 1cbf 1412 e7be ecc1 a1be
00000040: 4511 59be d687 36bf 65db 3abf 1237 28bf
00000050: 3074 33bf 08d6 8ebe ac19 05bf 9cbb 36bf
00000060: 3a5f acbe c575 07bf 145c 1bbf 306b 3fbf
00000070: 8831 d8be 6a33 60bf 1598 4cbf bb9c 29bf
00000080: 37dd 0cbf 7c07 26be 71aa 07bf bcd1 b5be
00000090: 106d f2bd 5663 26bf 68de e23c 41e6 31bf
000000a0: 136a cfbe 2a68 d1be 3a8c 6ebe 1d37 cebe
000000b0: 6325 49bf 5d8e 40bf 02a7 c7be 48ff 2fbf
000000c0: ad06 a2be cafe 37bf c527 45bf c337 e9be
000000d0: 7577 29bf eb78 34bf 7d39 f7be fadb 78be
000000e0: f337 2fbf 0b33 73be bcee 89be 922b 0abf
000000f0: 87d1 10bf 6b6d 18bf ba7c df3d 9608 143d
00000100: 3acb a0bf 1b57 b7bd 1797 0cbf a545 f0be
00000110: cf17 5ebf 48fa 24bf 2cc1 e7be da7b 33bf
00000120: 1f5f 5dbf 4aad 85be f910 31bf 6b8e d1be
00000130: 1864 18bf 2d9a cb3d 4893 2dbf 4eb9 cabe
00000140: 4c44 cfbe f346 19be b1a9 d9be f150 b7be
00000150: a436 42bf ceca 54bf e0ec 82be dfb1 85be
00000160: 472a 2cbf 9768 49bf b995 9a3d 73bc 34bf
00000170: fa05 2cbf 5548 33bf a67e 3e3f d365 48bf
00000180: 235e 4bbf 71dd 34bf de8e 17bf f398 1dbf
00000190: 7114 b8be a3d8 69be 7aba 05bf 194f 3ebe
000001a0: 4742 09bf c83e 88bd b05e 28bf 81f6 5dbf
000001b0: b338 13bf 1b87 4bbf c940 19bf bc1a 3bbf
000001c0: 3574 2bbf eed5 2fbf defe b7bd 17b7 bb3d
000001d0: 6c1b e7be c108 2ebf 0534 703d 3fe0 2cbf
000001e0: 15fa c2be 05e4 8fbf 5356 01bf 710a 4bbe
000001f0: 6efe 543b 652f 96be 1ef0 e7be 4158 33bf
-0.6643412 -0.6386549 -0.4556302 -0.23141962 -0.6788367 -0.73436487 -0.60006636 -0.42513752
-0.7156246 -0.6374939 -0.38970545 0.102002345 -0.5553072 -0.6111314 -0.4513098 -0.31593263
-0.21197994 -0.7130102 -0.7299102 -0.6570903 -0.70099163 -0.27897668 -0.519923 -0.7138002
-0.33666402 -0.5291408 -0.60687375 -0.7477293 -0.4222529 -0.8757845 -0.7991956 -0.66254777
-0.5502505 -0.16213793 -0.5299445 -0.35511577 -0.11837208 -0.64995325 0.027693942 -0.69491965
-0.40510616 -0.40899783 -0.2329568 -0.40276423 -0.7857267 -0.7521723 -0.38994604 -0.68748903
-0.31645718 -0.7187315 -0.7701381 -0.45550355 -0.661979 -0.70497006 -0.48286048 -0.24302664
-0.68444747 -0.2374994 -0.26939952 -0.53972733 -0.56569713 -0.5954196 0.109124616 0.036141
-1.256202 -0.08952161 -0.54918045 -0.46928135 -0.8675508 -0.644444 -0.45264566 -0.7011086
-0.8647327 -0.26108772 -0.69166523 -0.4092897 -0.5952773 0.09941516 -0.6780286 -0.395945
-0.40481794 -0.14968471 -0.42512277 -0.3580394 -0.75864625 -0.83121955 -0.25571346 -0.26112267
-0.6725201 -0.78675216 0.075480886 -0.7060005 -0.6719662 -0.70032245 0.74412 -0.7828037
-0.79440516 -0.7065039 -0.59202373 -0.61561507 -0.35953096 -0.22836547 -0.52237666 -0.18584861
-0.53616756 -0.066525996 -0.6576948 -0.8670426 -0.5750839 -0.7950303 -0.5986448 -0.7308767
-0.6697419 -0.68685806 -0.08984159 0.09165781 -0.4513811 -0.6798211 0.05864336 -0.6752967
-0.38081422 -1.1241461 -0.50522345 -0.19828202 0.0032500285 -0.29333034 -0.45300382 -0.7005654

action_layer.weight f4 [4, 128]
00000000: 1f98 d0bd 7ebd 39be d09b d73d 054f c0be
00000010: a50a 13be b541 373d 8cbc 71be 0aef 3d3e
00000020: 4fb7 cc3d 0b24 c7bd 07cd 23bf ab9f 363e
00000030: cf4e aabe 945f 95be 3dd7 64be 77dd 92bf
00000040: b8f9 a93d 1923 97be 4315 7b3b 16a8 babd
00000050: 2636 13be bd62 ef3e bfd1 27be 97f0 64be
00000060: 96b5 183e 5b28 d5bd 01b2 7cbe 1453 bbbe
00000070: d5e7 ad3e 1115 783d 637e bdbe 6bcf 1bbe
00000080: 1685 8fbe 9d64 cabf 3e14 f23e ca10 bebe
00000090: 5c72 353f 29dd 7dbc 78ff 853f 4f13 983d
000000a0: cbcc 8abf 8962 b1bd 27db 6abe 10bb a03d
000000b0: 0c04 9ebe aa9f 9abd 47f8 c3be 2ae1 0cbf
000000c0: 4b77 1e3e 058a ed3e 82b7 e33e 2325 18be
000000d0: 1b41 10bd 057a 95be 553d 3bbe e594 16bf
000000e0: 465b c8be 675d 25be a528 dcbe 5479 b9be
000000f0: 9b73 a53b 5283 9a3e 6560 73bf 770d 3e3f
00000100: ab90 bdbe 17cf 523f 37e5 ac3c 0320 0ebe
00000110: 0865 c73e 6a5f 1bbe 7bc6 60be 3d59 fc3e
00000120: b55f 26bf f185 9fbd 8890 29be decb 80be
00000130: 29ad e63e d7c7 27bf fc6f 0a3f 78e0 45bd
00000140: d0ed 8abe 1771 a5bc cdba c9be 8d7c 0fbe
00000150: 8c2b a83d aa4b f93e 7f55 2fbf 6246 10bd
00000160: bcaa e5be 6d54 40bf 9153 80bd a728 7abd
00000170: bad6 83be 7d28 0dbf fa75 79bf 8fa1 98be
00000180: fb8d e6be e21a 05bf 8b89 cb3c a477 17be
00000190: e22e 333d 31e2 65be 0db7 c6be b2ca 543f
000001a0: 30bf aabe 2dad acbe b46a ca3e eace a03e
000001b0: c70e 87be 1a3d 2c3d a5d2 50be 6ce0 e8bd
000001c0: 8377 93bd 154d babe 5abc 00bf 08d0 48bf
000001d0: 73c9 a03d 09b3 c93e c0c6 fdbe 4be6 07be
000001e0: 4921 46bd f7c3 133f 401a bebc 2b96 87be
000001f0: 0444 5d3e 9a13 27bf 009e 2bbe 09cc bc3e
00000200: ff63 3f3d ff71 093e e8d7 b8bc 75f1 b13f
00000210: 7d80 8ebd 9de3 b13e fc53 bbbe efa0 a43f
00000220: a676 8a3e 6622 073d fda5 0a40 48dc 33bf
00000230: a064 68be 08b6 ee3e c343 0d3f af3e 2bbf
00000240: b053 303c 4913 95bd d83d 2fbe bc82 8bbe
00000250: cab5 d73e aa24 d23e c6fb b9bc 7989 c13c
00000260: 3038 92bd 7a79 913e e439 fa3b 6c29 043f
00000270: 3ef5 c3bf 70ee c93c 5ad2 e33e 0548 1a3e
00000280: eb79 21be be01 dcbe fcf0 43bf de05 c0bd
00000290: 6d85 95be 9331 62bd 92c0 903e e269 41be
000002a0: bbe8 8cbe f736 87bd a779 d03f 0b10 b43f
000002b0: 018f 2ebd 8b3c 043f b8ca d73f d901 823e
000002c0: 411e 523c d393 973e 591f 293f 70f5 b83d
000002d0: 6de1 4a3d 1eac f73d ea3d 7f3e 9e03 723f
000002e0: d207 92be 3a1c af3b 304b 233f 27ff 4c3f
000002f0: 77fb d23d ccf2 84be 7c80 74bd 28a2 493f
00000300: acf6 c5be b036 e33d 1fe9 13bf 0553 a63d
00000310: fc9c 18bf 3a26 383e 915c 523e 6c6a f93d
00000320: bedb 1f3f a936 be3e ba67 7bbd bece 1d3e
00000330: 0e05 7abe a64f 9e3d 5dcd 603e 3818 8fbd
00000340: c279 23be cb07 f73d 5800 4bbf bc0f 163e
00000350: b365 a6be f690 273e f584 96be 5b54 d6bf
00000360: b624 1bbf f9a9 ae3f 6dca 2140 492d 933e
00000370: e226 82be 5381 3b3f 917f cebd af7b ec3e
00000380: 27ee 2d3f 5a02 083f ee5c 3bbf d98f 63bd
00000390: 440c 773c 323f 96be 7988 453e 28be 93be
000003a0: 353b 313e 8f59 053e fe46 cf3e 0d6c 043f
000003b0: ce0b e13f 37bf 143f 783b 963e c243 be3e
000003c0: a45e 293d 1bf3 c1be b84e bc3e 794f db3f
000003d0: e607 bd3e cda6 a13e 2a9f 263f 810c c93d
000003e0: 2fc9 85be f4d9 863d e9ec 8d3e 01e2 823e
000003f0: c70b 94bf 7006 cc3e 9882 25bb ada9 bd3e
-0.10185265 -0.18138692 0.10527766 -0.37560287 -0.1435953 0.044740397 -0.23607081 0.18548217
0.09995901 -0.097236715 -0.6398472 0.17834346 -0.3326325 -0.29174483 -0.22347732 -1.1473836
0.08299583 -0.29518965 0.0038312234 -0.09114091 -0.14376125 0.4675502 -0.16388606 -0.22357403
0.1491302 -0.10408088 -0.24677278 -0.3658682 0.33965936 0.060566965 -0.37010488 -0.15215842
-0.28031224 -1.5811955 0.4728107 -0.37122184 0.70877624 -0.015494623 1.0468588 0.07425558
-1.0843748 -0.08661372 -0.22935162 0.07848179 -0.30862463 -0.07549985 -0.38275358 -0.55031073
0.15475194 0.46394363 0.44475943 -0.14857917 -0.03521834 -0.29194656 -0.18285115 -0.58820945
-0.39132136 -0.16148911 -0.4299976 -0.3622538 0.0050491816 0.30178314 -0.9506896 0.74239296
-0.37024435 0.82347244 0.021105392 -0.13879399 0.38944268 -0.15173116 -0.21950714 0.49286833
-0.6498979 -0.07789219 -0.1655904 -0.25155538 0.45053986 -0.65539306 0.54077125 -0.048309773
-0.27134562 -0.020195527 -0.3940033 -0.14012356 0.08211431 0.4869054 -0.6848983 -0.035223372
-0.44856822 -0.75128824 -0.06265939 -0.061073925 -0.2574976 -0.55139905 -0.9744564 -0.2981076
-0.45030198 -0.51994145 0.024845859 -0.14791733 0.043745883 -0.22449566 -0.38811532 0.8312179
-0.3334899 -0.33725873 0.39534533 0.31407863 -0.26378462 0.04205046 -0.20392855 -0.1137093
-0.072005294 -0.36386934 -0.502874 -0.7844243 0.078509234 0.39394405 -0.49565697 -0.13271444
-0.048371587 0.57720894 -0.023205876 -0.26481757 0.21607977 -0.65264285 -0.16759491 0.36874416
0.046726223 0.13422392 -0.02256389 1.3901812 -0.06958101 0.34743968 -0.36587512 1.2861613
0.27043647 0.03299179 2.1663811 -0.70258 -0.22694635 0.46623254 0.5518152 -0.6689252
0.01076214 -0.07279069 -0.17113435 -0.2724818 0.42130882 0.41043597 -0.022703063 0.023625122
-0.07139623 0.28412992 0.0076362956 0.51625705 -1.5309217 0.024649829 0.44496423 0.15066536
-0.15769164 -0.4297008 -0.7653959 -0.09376119 -0.29203358 -0.05522306 0.2827192 -0.18888047
-0.2752131 -0.066022806 1.6287125 1.4067396 -0.042616848 0.5165488 1.685874 0.25392035
0.012824596 0.29604968 0.6606346 0.090311885 0.04953139 0.120933756 0.24925962 0.9453677
-0.2852159 0.005343941 0.637866 0.8007683 0.10301869 -0.2596649 -0.059692845 0.78763056
-0.38664758 0.11094415 -0.5777759 0.081213035 -0.5961454 0.17983332 0.20543124 0.121785015
0.62444675 0.37151077 -0.06137822 0.15410897 -0.2441599 0.077300355 0.2195334 -0.06987041
-0.15964416 0.12062033 -0.792974 0.1465444 -0.32499465 0.16363892 -0.29398313 -1.6744493
-0.6060289 1.3645622 2.52798 0.28745487 -0.2542029 0.7324421 -0.10082925 0.46188113
0.67941517 0.5312859 -0.73188674 -0.055557106 0.015078608 -0.2934509 0.19290341 -0.28856015
0.17307742 0.13022445 0.4048385 0.5172737 1.7581728 0.5810427 0.29342246 0.3716107
0.041350022 -0.37880787 0.36778808 1.7133628 0.3692009 0.3157257 0.65086615 0.09816838
-0.26130053 0.0658454 0.2771981 0.25563052 -1.1566094 0.3984866 -0.0025254842 0.37043515

action_layer.bias f4 [4]
00000000: 0454 a8be 05a0 853e 8e9a 423e 0486 a43e
-0.328766 0.26098648 0.1900427 0.32133496

value_layer.weight f4 [1, 128]
00000000: 681a a23c 9a1f ec3d 6153 a8bc 077c 673e
00000010: dc05 15bc 80fb 343d 475a aa3d 8ddf 7a3e
00000020: ac74 c33d bb01 513e 56ef 93bd e079 d73c
00000030: 8738 343d 0d48 6dbd dcbb 143e d2b5 0bbe
00000040: a883 d53d 3217 a3bd 930d a63d 59d6 f03d
00000050: d9d6 0f3e d66b 673a 6afa 66bb a442 ec3d
00000060: 3498 173d 2961 abbc 0b01 18bd 8a5b 553e
00000070: a314 1e3e 9517 6c3e 84c9 fb3d 28aa 0cbd
00000080: a666 083d 0add d53d 4db8 703e cac4 d4bc
00000090: 2d41 a43d c41b 053e 52f1 f9bc 7662 a2bc
000000a0: 4620 7b3e 4308 f0bc 8ff0 1a3d 5def 143d
000000b0: 2759 b5bd 8f95 95bd 72da 053e defc 803d
000000c0: 017e 403e b3b3 a43d a373 8bbd cfe3 60bd
000000d0: e842 31be ef3b 30bd f965 2a3d c18a a23e
000000e0: 9336 363c 65e6 74bc 665d 11bc 132c babd
000000f0: 2e2c 2cbd 798d 6dbe a9d3 f53d 7159 fc3e
00000100: dc40 073e 2bb3 3c3a 4a30 bb3d 274b 453d
00000110: 6ad5 6f3e 232a f03d 75de 453d 91f0 7bbd
00000120: 2a51 473e 86ef f33d 1784 9f3d 41f9 653d
00000130: bf4f 873e 85f6 a0bd da11 ae3e 53e9 97bc
00000140: 0e82 383c e005 b33b 1d36 3b3c be43 cb3d
00000150: 400d 2cbd 43a4 0cbd cc04 8a3d 6be0 43bd
00000160: dcf2 c93d 78ab 913c 8cb6 e93c 6c01 c43d
00000170: ac30 1a3e 0cc9 953e 9f46 18bf 4e95 1d3e
00000180: ec34 53bd 6494 10be c93f f4bd 0e7e d33d
00000190: c47e 73bd baa7 473e deda b0be fb15 c33d
000001a0: 4dea 4fbb 4e34 533c cc8f f33d 878e ed3b
000001b0: c9c2 223f 49f8 593c bbff d63c 2c21 aa3d
000001c0: eef3 073e 52dc 8dbc 8687 ad3e b40c 09bc
000001d0: 1953 393d 8935 ec3a df9b c8bd 24be eabc
000001e0: 59fd bd3d 435e 2d3e d05a 7e3d 0cbb f73e
000001f0: d519 8b3e 4d2a 983d 2851 413d 88de d53d
0.019787982 0.11529465 -0.02054757 0.22605906 -0.009095635 0.04418516 0.08318 0.2449934
0.09543738 0.20410816 -0.07223384 0.026303232 0.04399922 -0.05793004 0.14524788 -0.13643578
0.10425502 -0.079634085 0.08108058 0.117596336 0.14046802 0.00088280195 -0.0035244473 0.11536148
0.037010387 -0.020920353 -0.03711037 0.208357 0.1543756 0.23055871 0.122942954 -0.03434196
0.03330102 0.104425505 0.23507805 -0.025972743 0.08020244 0.12998873 -0.030510578 -0.01982234
0.2452403 -0.029300814 0.03782707 0.036361087 -0.08854895 -0.07303917 0.13071612 0.062982306
0.18798067 0.080420874 -0.06809165 -0.054904755 -0.17310679 -0.043025907 0.041601155 0.31746486
0.01112141 -0.014947508 -0.008872366 -0.09090438 -0.04203432 -0.23198499 0.120032616 0.49286988
0.13208336 0.0007198329 0.0914007 0.048167374 0.23421255 0.11726787 0.048307855 -0.06150872
0.19464555 0.1191092 0.07788866 0.05614591 0.2642803 -0.0785952 0.33997995 -0.018543875
0.011261476 0.005463347 0.011426476 0.0992503 -0.042004824 -0.03433634 0.06739196 -0.047821444
0.09860775 0.017781958 0.028529428 0.09570584 0.1505763 0.2925495 -0.5948276 0.15388986
-0.051564142 -0.14119107 -0.119262286 0.103267774 -0.059447065 0.19497576 -0.34541982 0.09525677
-0.0031725348 0.012890888 0.118926615 0.0072496566 0.6357847 0.013303825 0.026244989 0.08307108
0.13276646 -0.017316971 0.3389246 -0.008364845 0.045245264 0.0018021326 -0.09795355 -0.02865512
0.09276838 0.16930489 0.062098324 0.48384893 0.27168146 0.07429943 0.047196537 0.10442835
