checkpoint/LunarLander_2000.pth (torch_old, 8217 bytes, 5 tensors)

input_layer.weight f4 [128, 8]
0.08070432 -0.6020106 -0.1730892 0.19291037 -0.0582843 0.027266333 -0.25633025 0.20174229
0.009092821 -0.040935647 -0.28391802 0.023581319 -0.039521154 0.069117725 -0.296824 -0.24772148
0.27656648 -0.41744733 0.015569722 0.25468594 -0.18715487 0.07759445 -0.28353506 -0.11600974
0.39475906 0.065993086 0.155242 -0.9311757 -2.437465 -0.07525275 -0.8248848 -1.278364
0.4119491 -0.5652756 0.0949599 0.39112973 0.08015275 -0.08617287 -0.44119158 0.06826121
-0.08140459 -0.09989349 -0.11892563 0.029330105 -0.3272875 0.09931516 -0.26650658 -0.12207974
0.17360637 -0.0016714113 0.1410576 0.060191885 -0.27333215 0.37542197 -0.66434664 -0.31900886
-0.19043173 -1.6958851 2.7723124 2.9232163 -2.0169926 0.26316717 0.00032039807 0.20544547
0.2896292 -0.43502787 -0.23320006 0.47695413 -0.07478527 -0.290802 -0.22753534 -0.2882263
0.22782831 -0.15977223 0.3432801 0.20584713 -0.46437436 0.19544552 -0.268186 -0.11156831
1.337696 -0.7359762 0.27836123 1.199769 -0.6342601 -0.4449017 1.2797787 -2.574405
0.0047272514 -0.05931859 -0.718969 -0.20318577 0.22601405 0.18859981 -0.81329083 0.14255947
0.0643817 -0.547523 0.0021566008 0.31923795 -0.14337426 -0.09511666 -0.056815278 0.2223432
-0.18642604 -0.566774 0.3004743 0.10397232 0.04853326 -0.2793324 0.11435548 -0.366237
-0.03225498 -0.40016708 0.09913792 0.2464193 0.008444267 -0.2067552 -0.67901057 -0.07651446
-0.7250809 -1.9405086 0.5835403 -1.97817 0.04219226 -0.89152217 -1.2402334 -1.3890407
0.32897982 -0.31194174 -0.21582411 0.8271905 -0.106697045 0.4365312 -1.5854057 0.3167687
0.12626877 -0.4243184 -0.10416501 0.29668525 -0.08563913 0.21844156 -0.39501837 -0.45596504
0.216841 0.03959729 0.355899 0.1369337 -0.103455536 -0.11736083 0.29425445 -0.49058405
0.1281797 -0.042250507 0.46135977 0.2839065 -0.32436743 0.05503989 -0.7093562 0.1465663
-0.11586506 -0.59520674 0.16322055 0.51188505 0.07622795 -0.36541733 0.07047266 -0.17107634
0.037226565 -0.032487005 -0.17456822 0.2876555 -0.06881844 -0.10809176 -0.5432881 0.07385291
0.07867304 -0.20476691 -0.20757098 -0.041177254 -0.09837116 -0.23714639 -0.47492146 -0.028431937
0.06844634 0.065091364 0.30965978 -0.16698702 -0.21583313 0.104783304 -0.3099669 -0.3641156
0.16923545 -0.3576988 -0.031737786 0.36319086 -0.2105779 0.12438335 -0.15500426 -0.04436183
0.09390822 0.089170955 0.028852684 -0.25915337 -0.13910711 -0.19178757 -0.48190826 -0.4769639
0.00045328418 -0.31697562 -0.15199658 0.17502119 -0.33450985 0.046868484 -0.28290674 -0.3108278
-0.020087255 -0.5350646 0.13273796 0.5430395 -0.10797014 0.13366197 0.02557629 -0.09759414
-0.091918275 -0.037011977 0.08352557 0.47501794 0.16247672 0.35189 -1.194194 0.7215344
-0.2498041 -0.028615737 -0.9428858 0.30774504 0.3669357 0.41254178 -0.9265701 -0.067608
0.26025617 -1.1192008 0.3623571 0.105682045 -0.34765714 -0.10132215 -0.14922161 -0.74927104
-0.082440145 -0.3896263 -0.047226418 0.22875896 -0.24007964 0.290491 0.13093288 -0.016911218
00000000: 4e48 a53d 5e1d 1abf 4c3e 31be 4c8a 453e
00000010: 85bb 6ebd a55d df3c b83d 83be 8895 4e3e
00000020: 0efa 143c 23ac 27bd b45d 91be 9c2d c13c
00000030: efe0 21bd 988d 8d3d 51f9 97be b3aa 7dbe
00000040: 1f9a 8d3e a8bb d5be 2618 7f3c 3266 823e
00000050: 87a5 3fbe d7e9 9e3d 822b 91be 8496 edbd
00000060: dc1d ca3e 6227 873d c2f7 1e3e 8861 6ebf
00000070: 6dff 1bc0 1d1e 9abd a62b 53bf 6ea1 a3bf
00000080: feea d23e e7b5 10bf 567a c23d 2842 c83e
00000090: 2027 a43d 677b b0bd dde3 e1be 89cc 8b3d
000000a0: 73b7 a6bd f594 ccbd 488f f3bd b045 f03c
000000b0: 3a92 a7be bf65 cb3d 8d73 88be f104 fabd
000000c0: dec5 313e 4213 dbba 6771 103e c48b 763d
000000d0: 31f2 8bbe 4f37 c03e 9f12 2abf 2155 a3be
000000e0: 8900 43be c312 d9bf 916d 3140 fa15 3b40
000000f0: 6816 01c0 d9bd 863e 1afb a739 4c60 523e
00000100: 474a 943e f9bb debe ffcb 6ebe 5533 f43e
00000110: 0529 99bd 00e4 94be 06ff 68be 6692 93be
00000120: d34b 693e 559b 23be 69c2 af3e 97c9 523e
00000130: 7ac2 edbe df22 483e ad4f 89be ed7d e4bd
00000140: 9f39 ab3f f068 3cbf 5d85 8e3e 0892 993f
00000150: df5e 22bf 28ca e3be cacf a33f 0dc3 24c0
00000160: 0fe7 9a3b 0df8 72bd 5a0e 38bf ee0f 50be
00000170: 3a70 673e 4f20 413e d433 50bf 1cfb 113e
00000180: 8dda 833d 782a 0cbf c255 0d3b 2873 a33e
00000190: b4d0 12be 86cc c2bd 23b7 68bd f0ad 633e
000001a0: 78e6 3ebe 1a18 11bf c4d7 993e 71ef d43d
000001b0: d0ca 463d a804 8fbe 3533 ea3d 6b83 bbbe
000001c0: cc1d 04bd b3e2 ccbe d208 cb3d 5755 7c3e
000001d0: d359 0a3c a3b7 53be a3d3 2dbf 9db3 9cbd
000001e0: e79e 39bf 9662 f8bf e662 153f ad34 fdbf
000001f0: cbd1 2c3d cc3a 64bf f8bf 9ebf 16cc b1bf
00000200: 0b70 a83e d4b6 9fbe ff00 5dbe c2c2 533f
00000210: fb83 dabd 0481 df3e 93ee cabf 822f a23e
00000220: 9a4c 013e 4340 d9be 7754 d5bd 21e7 973e
00000230: 9163 afbd 25af 5f3e d93f cabe 4074 e9be
00000240: 910b 5e3e c530 223d 6538 b63e 5938 0c3e
00000250: 7fe0 d3bd e05a f0bd 85a8 963e d52d fbbe
00000260: 8a41 033e de0e 2dbd 5937 ec3e 315c 913e
00000270: 7d13 a6be 8271 613d 5e98 35bf 7a15 163e
00000280: a94a edbd 785f 18bf 4a23 273e e60a 033f
00000290: 661d 9c3d fb17 bbbe f853 903d a32e 2fbe
000002a0: e27a 183d 1811 05bd 03c2 32be 9547 933e
000002b0: aff0 8cbd 365f ddbd ee14 0bbf 3240 973d
000002c0: 551f a13d 6bae 51be 7d8d 54be 7ba9 28bd
000002d0: d276 c9bd 81d6 72be e828 f3be 18ea e8bc
000002e0: 982d 8c3d 9f4e 853d ba8b 9e3e a5fe 2abe
000002f0: 5c03 5dbe a198 d63d fbb3 9ebe 5c6d babe
00000300: 0f4c 2d3e 4c24 b7be 7bff 01bd 27f4 b93e
00000310: bca1 57be b3bc fe3d 70b9 1ebe c0b4 35bd
00000320: f452 c03d 439f b63d 775c ec3c c0af 84be
00000330: 1872 0ebe f663 44be aebc f6be 9d34 f4be
00000340: c6a6 ed39 a14a a2be fea4 1bbe c138 333e
00000350: e044 abbe 2bf9 3f3d 27d9 90be d224 9fbe
00000360: 078e a4bc fef9 08bf 76ec 073e a304 0b3f
00000370: 731f ddbd afde 083e 5e85 d13c 70df c7bd
00000380: a63f bcbd df99 17bd 740f ab3d 8d35 f33e
00000390: 4c60 263e ed2a b43e 59db 98bf 7ab6 383f
000003a0: a5cc 7fbe 8d6b eabc f760 71bf c290 9d3e
000003b0: ffde bb3e ad38 d33e b333 6dbf 1076 8abd
000003c0: 4c40 853e f941 8fbf df86 b93e d46f d83d
000003d0: 1e00 b2be fd81 cfbd 8dcd 18be 3ad0 3fbf
000003e0: 61d6 a8bd 197d c7be 7d70 41bd ca3f 6a3e
000003f0: 70d7 75be 3dbb 943e 4513 063e 6589 8abc

input_layer.bias f4 [128]
-0.6643412 -0.79542696 -0.4556302 -0.48555335 -0.6788367 -0.73436487 -0.62540966 -0.6443738
-0.7467459 -0.6374939 -0.7205795 -0.41471517 -0.5553072 -0.6080029 -0.46376327 -0.08477848
-0.62118465 -0.7130102 -0.7316751 -0.6679664 -0.7447999 -0.2808917 -0.53127813 -0.7138002
-0.3591809 -0.52840966 -0.60687375 -0.7477293 -1.0106953 -0.997597 -0.7991956 -0.6719109
-0.5499846 -0.5794815 -0.5326014 -0.49385247 -0.9053753 -0.67115897 0.05338288 -0.72087973
-0.9243851 -0.56100875 -0.7981573 -0.3965946 -1.5805966 -0.7521723 -0.44803783 -0.9152028
-0.31645718 -1.0091085 -0.9228856 -0.62488097 -0.661979 -1.1956207 -0.49004936 -0.446647
-0.7485798 -0.2374994 -0.26939952 -1.1078769 -0.56569713 -0.5954196 0.39754665 0.15513517
-1.2954069 -0.2363466 -0.70428973 -0.47222918 -0.9056919 -0.644444 -0.46280968 -0.8130206
-0.8803103 -0.26108772 -0.63582206 -0.44962436 -1.1723088 -0.31112966 -1.0555111 -0.395945
-0.46254352 -0.533266 -0.52175736 -0.3713782 -0.75864625 -0.95823854 -0.34329465 -0.11337428
-0.92101306 -0.9544678 -0.26403472 -0.7105375 -0.68331724 -0.67173475 0.40639997 -0.8255611
-0.85635686 -0.6526941 -0.63698167 -0.6440879 -0.36096138 -0.2400802 -0.5189925 -0.30887914
-0.55100167 -0.05665778 -0.66889805 -0.9910419 -0.22861929 -0.7950303 -0.69005054 -0.7308767
-0.6697419 -0.68973595 0.05510681 -0.1684135 -0.4513811 -0.6798211 -0.3351254 -0.6681161
-0.792104 -1.1994634 -0.49427855 -0.39988014 -0.35937238 -0.7630944 -0.455442 -0.696977
00000000: 4412 2abf 1aa1 4bbf 5d48 e9be 739a f8be
00000010: 3ec8 2dbf 56ff 3bbf d91a 20bf aef5 24bf
00000020: bd2a 3fbf cd32 23bf e677 38bf 8c55 d4be
00000030: 9d28 0ebf 14a6 1bbf 6172 edbe 57a0 adbd
00000040: f505 1fbf d687 36bf 0f4f 3bbf d9ff 2abf
00000050: 35ab 3ebf 09d1 8fbe d801 08bf 9cbb 36bf
00000060: 8fe6 b7be db45 07bf 145c 1bbf 306b 3fbf
00000070: 775e 81bf 8462 7fbf 1598 4cbf 5a02 2cbf
00000080: cacb 0cbf e658 14bf 9158 08bf 3bda fcbe
00000090: adc6 67bf 13d1 2bbf 02a8 5a3d 938b 38bf
000000a0: 80a4 6cbf 459e 0fbf 0954 4cbf 730e cbbe
000000b0: fd50 cabf 5d8e 40bf 3765 e5be bb4a 6abf
000000c0: ad06 a2be 782a 81bf 3b42 6cbf 33f8 1fbf
000000d0: 7577 29bf 190a 99bf c0e7 fabe eaae e4be
000000e0: eda2 3fbf 0b33 73be bcee 89be e9ce 8dbf
000000f0: 87d1 10bf 6b6d 18bf 3c8b cb3e c1db 1e3e
00000100: e5cf a5bf d804 72be 554c 34bf 06c8 f1be
00000110: 6ddb 67bf 48fa 24bf 64f5 ecbe 1e22 50bf
00000120: 045c 61bf 4aad 85be 3cc5 22bf 2a35 e6be
00000130: 370e 96bf 634c 9fbe fd1a 87bf 4eb9 cabe
00000140: 81d2 ecbe 1f84 08bf e491 05bf 4925 bebe
00000150: a436 42bf 1f4f 75bf 51c4 afbe c630 e8bd
00000160: 83c7 6bbf 0058 74bf 8f2f 87be c9e5 35bf
00000170: e1ed 2ebf cff6 2bbf a813 d03e f957 53bf
00000180: 343a 5bbf f616 27bf 3b11 23bf f2e2 24bf
00000190: eecf b8be 95d7 75be b1dc 04bf 6825 9ebe
000001a0: 720e 0dbf fd11 68bd e73c 2bbf ecb4 7dbf
000001b0: 2d1b 6abe 1b87 4bbf 27a7 30bf bc1a 3bbf
000001c0: 3574 2bbf 8992 30bf aeb7 613d 9774 2cbe
000001d0: 6c1b e7be c108 2ebf 8e95 abbe a809 2bbf
000001e0: 54c7 4abf 0488 99bf 1412 fdbe 17bd ccbe
000001f0: a8ff b7be 285a 43bf b22f e9be 166d 32bf

action_layer.weight f4 [4, 128]
-0.10185265 -0.18108477 0.10527766 -0.41737837 -0.1435953 0.044740397 -0.23607114 -0.2618267
0.100534216 -0.097236715 -0.84847146 0.106272556 -0.3326325 -0.29174483 -0.22347732 -0.6721452
0.041445058 -0.29518965 0.0038312234 -0.09114091 -0.14376125 0.4702478 -0.1637981 -0.22357403
0.14095159 -0.10408088 -0.24677278 -0.3658682 0.30848214 0.060591057 -0.37010488 -0.1521647
-0.28031224 -1.1174703 0.4728107 -0.3333892 0.74658394 -0.015494623 1.3507056 0.09194865
-1.0721768 -0.37850022 -0.5959366 -0.2465492 0.17548797 -0.07549985 -0.122258805 -0.5277342
0.15475194 0.30097017 0.5090313 -0.1485338 -0.03521834 -0.088701986 -0.18285115 -1.0320383
-0.49231845 -0.16148911 -0.4299976 0.32257092 0.0050491816 0.30178314 0.054817874 1.891593
-0.37004808 0.9194464 0.02200402 -0.13879399 0.38242567 -0.15173116 -0.21951005 0.32976687
-0.6499262 -0.07789219 -0.165579 -0.25129935 0.92300755 -0.55591255 1.0372927 -0.048309773
-0.26899877 0.20639798 -0.40524983 -0.13947779 0.08211431 0.28662542 -0.34158912 -0.38390574
-0.41438034 -0.9638547 -0.15842642 -0.061073877 -0.2574976 -0.31151995 -0.9320888 -0.29746208
-0.45027596 -0.520491 0.062266387 -0.14791733 0.049947537 -0.16546899 -0.38779804 0.84355235
-0.3334715 -0.33340928 0.39534542 0.31470543 -0.4010139 0.04205046 -0.20362893 -0.1137093
-0.072005294 -0.36683735 -0.9389236 -0.81452817 0.078509234 0.39394405 -0.643007 -0.105684504
-0.044488702 0.59343344 -0.023205893 -0.08558276 0.1510489 -0.6473068 -0.16759214 0.37029064
0.046726223 0.13997707 -0.02256389 1.7540159 -0.06958101 0.34743968 -0.3658897 2.6159344
0.26991916 0.03299179 2.7218707 -0.63511246 -0.22694635 0.46623254 0.5518152 -1.0607063
0.42924076 -0.07279069 -0.17113435 -0.2724818 0.42130882 0.40927222 -0.010313224 0.023625122
-0.0156632 0.28412992 0.0076362956 0.51625705 -0.83998847 0.025581727 0.44496423 0.15310343
-0.15769164 -1.1972603 -0.7653959 -0.07377074 0.05372283 -0.05522306 0.30453217 -0.26834092
-0.2522616 -0.20231524 1.7318071 2.0000248 -0.020236546 0.5165488 1.8167129 0.21559283
0.012824596 0.4551682 0.63666934 0.082968734 0.04953139 -0.58980656 0.24925964 1.5465008
-0.28761995 0.005343941 0.637866 -0.60230774 0.10301869 -0.2596649 -0.4621547 2.193521
-0.3851569 0.29466453 -0.62287885 0.08117459 -0.6052301 0.17983332 0.20406362 0.532504
0.62598085 0.37151077 -0.061817773 0.1514416 -0.27515206 -0.33489692 0.016154474 -0.06987041
-0.14408433 -0.030466242 -0.69939893 0.1433823 -0.32499465 0.56112885 -1.2041594 -1.3820246
-0.6580281 1.0030943 2.8282902 0.28715467 -0.2542029 -0.6275421 -0.50775975 0.45723638
0.67639077 0.66958106 -0.7075928 -0.055557065 -0.051707618 -0.4511799 0.19186203 -0.31870523
0.16579676 0.09956675 0.40483478 0.49506468 4.9825716 0.5810427 0.33983356 0.3716107
0.041350022 -0.36020213 0.17367265 0.93530613 0.3692009 0.3157257 -0.17652008 0.013067932
-0.25456738 0.0939521 0.2771981 -0.0666054 -1.8687404 0.17793205 -0.0025753519 0.3626573
00000000: 1f98 d0bd 496e 39be d09b d73d 9eb2 d5be
00000010: a50a 13be b541 373d a2bc 71be 260e 86be
00000020: e2e4 cd3d 0b24 c7bd 6d35 59bf 6da5 d93d
00000030: cf4e aabe 945f 95be 3dd7 64be b511 2cbf
00000040: 4bc2 293d 1923 97be 4315 7b3b 16a8 babd
00000050: 2636 13be 52c4 f03e b0ba 27be 97f0 64be
00000060: 9d55 103e 5b28 d5bd 01b2 7cbe 1453 bbbe
00000070: 5ff1 9d3e 542e 783d 637e bdbe 10d1 1bbe
00000080: 1685 8fbe 4409 8fbf 3e14 f23e fdb1 aabe
00000090: 2020 3f3f 29dd 7dbc ece3 ac3f 934f bc3d
000000a0: 173d 89bf c8ca c1be 4d8f 18bf 6577 7cbe
000000b0: 1eb3 333e aa9f 9abd d362 fabd 9719 07bf
000000c0: 4b77 1e3e c318 9a3e e04f 023f 3f19 18be
000000d0: 1b41 10bd 63a9 b5bd 553d 3bbe d519 84bf
000000e0: 2a11 fcbe 675d 25be a528 dcbe 0428 a53e
000000f0: 9b73 a53b 5283 9a3e b588 603d b81f f23f
00000100: f176 bdbe d760 6b3f c641 b43c 0320 0ebe
00000110: 4ccd c33e 6a5f 1bbe 3ec7 60be 34d7 a83e
00000120: 9061 26bf f185 9fbd 8b8d 29be 4faa 80be
00000130: 394a 6c3f 4950 0ebf 02c6 843f 78e0 45bd
00000140: 35ba 89be fe59 533e e87c cfbe 44d3 0ebe
00000150: 8c2b a83d 91c0 923e c5e4 aebe 4b8f c4be
00000160: a929 d4be 2ebf 76bf 893a 22be 9a28 7abd
00000170: bad6 83be 8b7f 9fbe 5f9d 6ebf f34c 98be
00000180: 928a e6be e63e 05bf 0a0b 7f3d a477 17be
00000190: ca95 4c3d b470 29be 778d c6be 0cf3 573f
000001a0: c7bc aabe 9fb4 aabe b76a ca3e 1221 a13e
000001b0: b251 cdbe 1a3d 2c3d 1a84 50be 6ce0 e8bd
000001c0: 8377 93bd 1bd2 bbbe 4c5d 70bf eb84 50bf
000001d0: 73c9 a03d 09b3 c93e 1b9c 24bf 1e71 d8bd
000001e0: c939 36bd 41eb 173f 491a bebc 0446 afbd
000001f0: 90ac 1a3e e6b5 25bf 469d 2bbe bc96 bd3e
00000200: ff63 3f3d 2656 0f3e e8d7 b8bc 9883 e03f
00000210: 7d80 8ebd 9de3 b13e e555 bbbe 786b 2740
00000220: d832 8a3e 6622 073d 2133 2e40 bb96 22bf
00000230: a064 68be 08b6 ee3e c343 0d3f 39c5 87bf
00000240: 72c5 db3e 4913 95bd d83d 2fbe bc82 8bbe
00000250: cab5 d73e 218c d13e ccf8 28bc 7989 c13c
00000260: 1c50 80bc 7a79 913e e439 fa3b 6c29 043f
00000270: 7c09 57bf c590 d13c 5ad2 e33e 25c7 1c3e
00000280: eb79 21be d33f 99bf fcf0 43bf 1d15 97bd
00000290: 780c 5c3d 9331 62bd a4eb 9b3e fb63 89be
000002a0: 6f28 81be ba2b 4fbe dbab dd3f 6800 0040
000002b0: 1dc7 a5bc 8b3c 043f 0c8a e83f 5ec4 5c3e
000002c0: 411e 523c ce0b e93e c3fc 223f 83eb a93d
000002d0: 6de1 4a3d 90fd 16bf eb3d 7f3e bdf3 c53f
000002e0: ec42 93be 3a1c af3b 304b 233f d730 1abf
000002f0: 77fb d23d ccf2 84be 8a9f ecbe a662 0c40
00000300: 4933 c5be 45de 963e fd74 1fbf dd3e a63d
00000310: 5cf0 1abf 3a26 383e 0ef6 503e 2f52 083f
00000320: 4840 203f a936 be3e a234 7dbd 8213 1b3e
00000330: bbe0 8cbe 9c77 abbe 6356 843c 3818 8fbd
00000340: d88a 13be 5794 f9bc cf0b 33bf cfd2 123e
00000350: b365 a6be 24a6 0f3f e521 9abf 2fe6 b0bf
00000360: 8874 28bf 6565 803f b502 3540 f005 933e
00000370: e226 82be 99a6 20bf 8bfc 01bf e31a ea3e
00000380: f227 2d3f aa69 2b3f cd24 35bf ce8f 63bd
00000390: 5ecb 53bd 0d01 e7be 7b77 443e 552d a3be
000003a0: a0c6 293e a7e9 cb3d 8146 cf3e 1e79 fd3e
000003b0: 3a71 9f40 37bf 143f aafe ad3e c243 be3e
000003c0: a45e 293d 6a6c b8be 3ed7 313e 3970 6f3f
000003d0: e607 bd3e cda6 a13e aec1 34be e11a 563c
000003e0: a856 82be f569 c03d e9ec 8d3e 6968 88bd
000003f0: e332 efbf d233 363e 3cc7 28bb 38ae b93e

action_layer.bias f4 [4]
0.019311825 -0.079276234 -0.042344842 0.7593651
00000000: d533 9e3c 945b a2bd c971 2dbd c065 423f

value_layer.weight f4 [1, 128]
0.019787982 0.08043825 -0.02054757 0.24593408 -0.009095635 0.04418516 0.05992841 0.21517693
0.09378787 0.20410816 0.01391592 0.032259785 0.04399922 -0.058375794 0.1451192 -0.14079356
-0.033872597 -0.079634085 0.08100263 0.11735208 0.13817199 0.0006119222 -0.002177774 0.11536148
0.028898304 -0.021135593 -0.03711037 0.208357 -0.12734483 0.3477575 0.122942954 -0.023817142
0.03330168 0.23039253 0.2350127 -0.049603317 -0.15299095 0.12958793 0.005077589 -0.036543913
-0.019752974 -0.034551084 -0.053047422 -0.10370545 0.5654658 -0.07303917 -0.42033452 0.00054816954
0.18798067 0.11319054 -0.08510065 -0.042199522 -0.17310679 -0.24584691 0.037118874 0.3497616
-0.029193234 -0.014947508 -0.008872366 -0.18530956 -0.04203432 -0.23198499 0.39559215 0.5369878
0.12633401 -0.046456445 0.011993228 0.0481467 0.22350952 0.11726787 0.036258448 -0.12891169
0.19442119 0.1191092 0.082149625 0.05545242 0.16488063 -0.24143802 0.6847242 -0.018543875
-0.024990896 -0.06965183 -0.008957811 0.09899902 -0.042004824 -0.13608433 -0.3048416 0.007370459
0.07906331 0.117812335 -0.04756599 0.096399404 0.15043348 0.48237023 -0.46308202 0.1410989
-0.05430645 -0.13790895 -0.1595722 0.09633035 -0.07792692 0.22224285 -0.34512222 0.0976639
-0.005442578 0.028234288 0.11763192 -0.051068313 -0.01667007 0.013303825 -0.06650025 0.08307108
0.13276646 -0.018556897 0.21570548 -0.17628291 0.045245264 0.0018021326 -0.2812888 -0.04026452
0.0077521987 0.14693207 0.062307082 0.16364734 0.08742906 0.10411916 0.04708126 0.084810756
00000000: 681a a23c cfbc a43d 6153 a8bc 25d6 7b3e
00000010: dc05 15bc 80fb 343d 7e77 753d 5757 5c3e
00000020: db13 c03d bb01 513e 99ff 633c d622 043d
00000030: 8738 343d 751b 6fbd 219a 143e 302c 10be
00000040: febd 0abd 3217 a3bd b5e4 a53d 4a56 f03d
00000050: f57c 0d3e 6769 203a fcb8 0ebb a442 ec3d
00000060: 23bc ec3c 8d24 adbc 0b01 18bd 8a5b 553e
00000070: af66 02be 450d b23e 84c9 fb3d 2b1c c3bc
00000080: 5867 083d 05ec 6b3e 2ba7 703e d92c 4bbd
00000090: a9a9 1cbe b3b2 043e e761 a63b 12af 15bd
000000a0: fdd0 a1bc 7085 0dbd 4148 59bd 8663 d4bd
000000b0: 5ec2 103f 8f95 95bd 1636 d7be 09b3 0f3a
000000c0: 017e 403e 71d0 e73d 4049 aebd 68d9 2cbd
000000d0: e842 31be 4bbf 7bbe f609 183d f413 b33e
000000e0: a626 efbc 65e6 74bc 665d 11bc cac1 3dbe
000000f0: 2e2c 2cbd 798d 6dbe 0e8b ca3e 0878 093f
00000100: b45d 013e 1d49 3ebd 3f7f 443c 7935 453d
00000110: aedf 643e 232a f03d bd83 143d 6d01 04be
00000120: 5916 473e 86ef f33d 103e a83d 1422 633d
00000130: 78d6 283e 873b 77be 164a 2f3f 53e9 97bc
00000140: b5b9 ccbc 9ea5 8ebd c8c3 12bc 00c0 ca3d
00000150: 400d 2cbd b159 0bbe 3314 9cbe e483 f13b
00000160: f2eb a13d 9847 f13d 8ed4 42bd 0d6d c53d
00000170: 3c0b 1a3e 3bf9 f63e 1619 edbe 3b7c 103e
00000180: 7170 5ebd 0138 0dbe e566 23be d948 c53d
00000190: 2698 9fbd a193 633e dcb3 b0be 0304 c83d
000001a0: a757 b2bb 984b e73c 01e9 f03d 022d 51bd
000001b0: ac8f 88bc 49f8 593c 4831 88bd 2c21 aa3d
000001c0: eef3 073e a204 98bc e6e1 5c3e 8283 34be
000001d0: 1953 393d 8935 ec3a 1605 90be 69ec 24bd
000001e0: 2806 fe3b 5c75 163e b635 7f3d 2b93 273e
000001f0: 020e b33d 6d3c d53d 47d8 403d 43b1 ad3d
