checkpoint/LunarLander_0200.pth (torch_old, 8217 bytes, 5 tensors)

input_layer.weight f4 [128, 8]
0.08071072 -0.6020076 -0.17308322 0.19290668 -0.058286745 0.02726183 -0.25633025 0.20174229
0.2699984 -0.04235705 -0.32114977 0.034034275 -0.07519186 -0.12226515 -0.2968237 0.0015631721
0.2716181 -0.4174049 0.011435566 0.255304 -0.18592067 0.07967402 -0.28353506 -0.11601028
0.27234283 0.14400122 0.5601604 -0.050254717 -0.4235617 -0.018139439 -0.029130505 0.15383612
0.41194782 -0.56527495 0.094958805 0.39112833 0.08015337 -0.08617162 -0.4411883 0.06826211
-0.21722071 -0.08813496 -0.2105462 0.013235059 -0.35243204 0.11118598 -0.26650658 0.33713922
0.3550049 0.02240228 0.2137769 -0.03486274 -0.24908222 0.46836832 -0.18839148 -0.41393608
0.5183358 -0.77317894 0.36297604 0.33443922 -0.0662297 -0.13932379 -0.20789383 -0.15625606
0.33123195 -0.42348555 -0.04904976 0.4828012 -0.09930722 -0.48267713 0.19490269 -0.049688797
0.4513016 -0.0077326917 0.4730944 0.27184024 -0.37553364 0.34668207 0.17469904 0.16030215
0.049897593 0.1974079 -0.14559937 0.026668588 -0.25505662 -0.41845745 -0.4551135 -0.16103245
0.01665048 0.3888679 -0.23130926 -0.19003688 0.16098395 0.052148245 -0.591652 -0.16355129
-0.13113427 -0.35257754 -0.19231108 0.3520771 -0.12821388 -0.08569063 -0.056809727 0.2223432
-0.13720861 -0.54945254 0.36335236 0.053333536 0.04804424 -0.27022088 0.67580074 0.22154856
-0.051616058 -0.39624754 0.090057924 0.24247755 0.0013069765 -0.28495973 -0.67900485 0.3150128
-0.4878975 -0.34074378 -0.11207594 -0.3359286 0.07647413 0.10062618 -0.13670371 0.6299266
0.58656263 -0.40143368 0.21000843 0.2581138 0.0557891 0.07756166 -0.56137747 -0.00303691
0.6660634 -0.49112156 0.09543253 0.19643815 -0.07496336 0.21439674 -0.020922124 -0.45572796
0.26909173 0.05635008 0.3133237 0.17871682 0.06295204 0.03491342 -5.0903476e-05 -0.06633038
-0.09380114 -0.0740292 0.33882502 0.22707963 -0.2575931 -0.040731657 -0.060507976 0.071950205
0.022199512 -0.60715866 0.31774354 0.48343542 0.066224515 -0.5033574 0.062099706 0.03885294
-0.14068122 0.0023233162 -0.34081963 0.28506282 -0.054201934 -0.11747252 -0.17695944 0.38499272
0.2072593 -0.12189689 -0.4221381 -0.055249352 -0.095426366 -0.29405364 0.0824757 -0.084469266
-0.19181728 0.071344726 0.3564618 -0.19832143 -0.1520569 0.2435713 -0.24324048 -0.3641156
0.21474296 -0.3535468 -0.022766775 0.3611565 -0.20936507 0.13540669 -0.15500426 0.1793841
0.13114358 0.09087603 0.03616254 -0.26271114 -0.12958558 -0.13530041 -0.40006968 -0.47690582
-0.19752507 -0.20766275 -0.37427002 0.027148418 -0.26345852 0.12769188 0.086295314 -0.3108278
-0.07645051 -0.52363265 0.38572893 0.5174747 -0.14458612 -0.029981924 -0.07069442 -0.09759468
-0.045300096 -0.12533922 0.27902997 0.30943578 -0.31966037 0.49458325 0.039901834 -0.20604336
0.15203853 -0.13610807 -0.6112708 0.1765582 -0.25413686 0.11324477 -0.020829132 -0.34820542
0.16032179 -0.49173257 0.20884152 0.067972444 -0.19229452 0.10370563 -0.27647007 -0.11695763
-0.20220587 -0.3073159 -0.16908927 0.18675898 -0.2183517 0.31514695 0.3719319 -0.03466956
00000000: a94b a53d 2c1d 1abf ba3c 31be 5489 453e
00000010: 15be 6ebd 3454 df3c b83d 83be 8895 4e3e
00000020: 3b3d 8a3e 967e 2dbd be6d a4be 8667 0b3d
00000030: 31fe 99bd 2766 fabd 47f9 97be 5ae3 cc3a
00000040: 8711 8b3e 18b6 d5be 3d5c 3b3c 35b7 823e
00000050: fd61 3ebe 222c a33d 822b 91be cc96 edbd
00000060: 8570 8b3e 0e75 133e ac66 0f3f e4d7 4dbd
00000070: 14dd d8be 2999 94bc 19a3 eebc 3787 1d3e
00000080: d3ea d23e dcb5 10bf c379 c23d f941 c83e
00000090: 7327 a43d bf7a b0bd 6fe3 e1be 01cd 8b3d
000000a0: 1b6f 5ebe 1a80 b4bd 6c99 57be dcd7 583c
000000b0: f971 b4be 7ab5 e33d 8d73 88be 839d ac3e
000000c0: 34c3 b53e fc84 b73c 55e8 5a3e 3ccc 0ebd
000000d0: 690f 7fbe f9cd ef3e b2e9 40be 6eef d3be
000000e0: a8b1 043f 0eef 45bf ffd7 b93e 9e3b ab3e
000000f0: 70a3 87bd e5aa 0ebe 1fe2 54be 9701 20be
00000100: 3c97 a93e 19d3 d8be 67e8 48bd b831 f73e
00000110: 9561 cbbd 7521 f7be 9294 473e 7b86 4bbd
00000120: 0111 e73e 8562 fdbb 6e39 f23e a52e 8b3e
00000130: f245 c0be 5080 b13e 4ee4 323e 3f26 243e
00000140: 6b61 4c3d 4c25 4a3e 0018 15be 1578 da3c
00000150: c896 82be 0e40 d6be a304 e9be b1e5 24be
00000160: 9666 883c b219 c73e 56dc 6cbe 0799 42be
00000170: fad8 243e 6699 553d 8176 17bf fd79 27be
00000180: 1048 06be 0b85 b4be 32ed 44be 7343 b43e
00000190: 804a 03be 927e afbd 51b1 68bd f0ad 633e
000001a0: 6a80 0cbe eca8 0cbf 5209 ba3e 4474 5a3d
000001b0: 09ca 443d 645a 8abe 4701 2d3f a0dd 623e
000001c0: 5c6b 53bd f5e0 cabe 4a70 b83d 094c 783e
000001d0: db4e ab3a 3ee6 91be 43d3 2dbf 5c49 a13e
000001e0: b3cd f9be f875 aebe 1288 e5bd d5fe abbe
000001f0: 789e 9c3d 1915 ce3d 0ffc 0bbe df42 213f
00000200: f828 163f b788 cdbe 730c 573e 7e27 843e
00000210: 1c83 643d a6d8 9e3d 6fb6 0fbf e506 47bb
00000220: 2283 2a3f 4974 fbbe 2172 c33d 1527 493e
00000230: 6486 99bd d28a 5b3e e064 abbc 2d55 e9be
00000240: 64c6 893e 57cf 663d f76b a03e 8b01 373e
00000250: 00ed 803d 6001 0f3d 3181 55b8 39d8 87bd
00000260: d01a c0bd 9f9c 97bd 797a ad3e 9087 683e
00000270: 3ee3 83be 3dd6 26bd 36d7 77bd a15a 933d
00000280: c0db b53c c06e 1bbf 48af a23e d984 f73e
00000290: b8a0 873d 08dc 00bf 435c 7e3d 4324 1f3d
000002a0: bd0e 10be c742 183b e97f aebe c1f3 913e
000002b0: d902 5ebd 6f95 f0bd db34 35be c41d c53e
000002c0: c83b 543e 14a5 f9bd 7c22 d8be 254d 62bd
000002d0: e66e c3bd 338e 96be 05e9 a83d 39fe acbd
000002e0: c06b 44be 2f1d 923d 2982 b63e c614 4bbe
000002f0: ceb4 1bbe c16a 793e 0814 79be 5c6d babe
00000300: 94e5 5b3e 1604 b5be 6381 babc 81e9 b83e
00000310: cc63 56be 0da8 0a3e 70b9 1ebe 77b0 373e
00000320: 814a 063e 361d ba3d 2c1f 143d 1382 86be
00000330: 15b2 04be 318c 0abe efd5 ccbe 002d f4be
00000340: 0344 4abe 8ba5 54be 52a0 bfbe 5c66 de3c
00000350: 09e4 86be a9c1 023e 99bb b03d d224 9fbe
00000360: 1692 9cbd ca0c 06bf 437e c53e 3979 043f
00000370: 620e 14be a79c f5bc 3cc8 90bd b8df c7bd
00000380: 988c 39bd ed58 00be 04dd 8e3e 5e6e 9e3e
00000390: 86aa a3be 043a fd3e 1b70 233d 08fd 52be
000003a0: fdaf 1b3e ea5f 0bbe 3e7c 1cbf accb 343e
000003b0: 3a1e 82be e0ec e73d dba1 aabc fb47 b2be
000003c0: 652b 243e 5fc4 fbbe 8dda 553e 2335 8b3d
000003d0: dbe8 44be 9e63 d43d 7c8d 8dbe 7b87 efbd
000003e0: 0e0f 4fbe 8258 9dbe bd25 2dbe bf3d 3f3e
000003f0: 9797 5fbe f15a a13e dc6d be3e ab01 0ebd

input_layer.bias f4 [128]
-0.66433674 -0.45491636 -0.45914605 0.10813586 -0.67883545 -0.6539059 -0.347117 -0.20913738
-0.455464 -0.22420087 -0.5051064 0.27746835 -0.44139487 -0.21656878 -0.37866768 -0.2202969
-0.051468328 -0.28089038 -0.52592766 -0.5818269 -0.5297039 -0.20123406 -0.056214213 -0.5649901
-0.33171773 -0.534966 -0.24934684 -0.58763224 -0.1605928 -0.5087136 -0.45194885 -0.58834565
-0.39375088 0.035453066 -0.21143259 -0.006303288 0.31009328 -0.63933605 0.37314036 -0.3022226
0.037113953 -0.41735157 -0.23186329 0.31392232 -0.77568585 -0.7122405 0.24921247 -0.6204532
-0.30623713 -0.3317686 -0.5128824 -0.42907766 -0.4561179 -0.4749237 -0.47095576 -0.019840263
-0.46847856 -0.06368569 0.04286041 -0.30502424 -0.53736013 -0.32244912 0.11512461 -0.22836153
-0.4505518 0.40264562 -0.25415835 -0.31613174 -0.079187155 -0.6302565 -0.38358927 -0.4262207
-0.33475196 -0.21722107 -0.18970487 -0.24934332 -0.28866112 -0.121634744 -0.41124234 -0.3785335
-0.3142749 -0.13425757 -0.097878486 -0.22098568 -0.6654433 -0.28121182 -0.13538072 -0.40801173
-0.6922225 -0.19928664 -0.013342105 -0.43470168 -0.67599005 -0.042269766 -0.61693376 -0.22352235
-0.075349405 -0.74715346 0.007898739 -0.5331371 0.14301778 -0.06587272 -0.049325958 0.16754584
-0.4144907 0.033468474 -0.52697414 -0.80515444 -0.38284475 -0.80018616 -0.0406569 -0.6292629
-0.60127527 -0.5362956 -0.22587383 -0.1956082 -0.45122004 -0.13134806 0.11795961 -0.6652118
-0.15698947 -0.4248586 -0.37908387 -0.03863677 0.13701288 -0.19336641 -0.3900018 -0.6381627
00000000: f911 2abf ccea e8be 3115 ebbe 5576 dd3d
00000010: 29c8 2dbf 6166 27bf 52b9 b1be 1c28 56be
00000020: 9432 e9be ea94 65be a74e 01bf 5510 8e3e
00000030: 82fe e1be 35c4 5dbe bbe0 c1be 8395 61be
00000040: 74d0 52bd ddd0 8fbe 32a3 06bf 9cf2 14bf
00000050: ad9a 07bf 4d10 4ebe e040 66bd 31a3 10bf
00000060: e8d6 a9be 88f3 08bf c754 7fbe 116f 16bf
00000070: 7072 24be 0e3b 02bf d765 e7be d29d 16bf
00000080: b799 c9be 3c37 113d c981 58be d08b cebb
00000090: 8cc4 9e3e 87ab 23bf 410c bf3e ecbc 9abe
000000a0: cd04 183d 1baf d5be 926d 6dbe 6dba a03e
000000b0: 5993 46bf 6555 36bf 8e31 7f3e 05d6 1ebf
000000c0: 1dcb 9cbe 93dd a9be 434c 03bf 11b0 dbbe
000000d0: 4988 e9be 3329 f3be 1d21 f1be 0c88 a2bc
000000e0: 6cdc efbe a56d 82bd 668e 2f3d 232c 9cbe
000000f0: 6f90 09bf 0d18 a5be 74c6 eb3d 9bd7 69be
00000100: baae e6be 9127 ce3e 0b21 82be 05dc a1be
00000110: e02c a2bd 7d58 21bf d065 c4be 9939 dabe
00000120: 9c64 abbe 336f 5ebe fe41 42be db53 7fbe
00000130: 64cb 93be a31b f9bd 5b8e d2be 25cf c1be
00000140: a4e8 a0be d17a 09be 8474 c8bd 124a 62be
00000150: 7e5a 2abf fffa 8fbe 3ea1 0abe eae6 d0be
00000160: 7e35 31bf cc11 4cbe d898 5abc 3891 debe
00000170: af0d 2dbf 1023 2dbd 5fef 1dbf 0be3 64be
00000180: ca50 9abd 7345 3fbf b669 013c ac7b 08bf
00000190: 4173 123e 47e8 86bd 040a 4abd 2391 2b3e
000001a0: 2038 d4be 3d16 093d c7e7 06bf 9a1e 4ebf
000001b0: 3a04 c4be 00d9 4cbf d987 26bd 6017 21bf
000001c0: 2ded 19bf ab4a 09bf 784b 67be 844d 48be
000001d0: 5006 e7be 1b80 06be cf94 f13d 524b 2abf
000001e0: d9c1 20be 1187 d9be 4817 c2be 9741 1ebd
000001f0: 1b4d 0c3e d801 46be 51ae c7be a15e 23bf

action_layer.weight f4 [4, 128]
-0.10185265 -0.08894377 0.08748267 0.16260861 -0.1435953 0.044480976 -0.14169842 -0.106429234
0.1388525 -0.0035628928 -0.07033565 0.117664404 -0.14288212 -0.2784519 0.018937431 -0.5029578
0.10227522 -0.29800236 0.02345446 -0.07035381 -0.0002837483 0.21559535 -0.21461202 -0.255371
0.14904019 -0.07978034 -0.279612 -0.0456541 0.0435583 -0.086776435 -0.09912297 -0.16620302
-0.075898394 -0.16779497 0.41634944 -0.1865696 0.19726217 -0.11719057 0.2542465 -0.11918175
-0.55099136 0.23736347 0.0073390882 -0.1663436 -0.17672096 -0.0415344 -0.035148468 -0.67720306
0.15463234 0.002331572 -0.08926363 0.07787516 -0.054811165 0.034085948 -0.15224652 -0.009838633
-0.089463666 -0.005073709 -0.14881055 0.030910727 -0.005013933 0.13513647 -0.13921182 -0.036225203
-0.0729193 0.14011942 -0.07600294 -0.16049215 -0.04372038 -0.15173696 -0.18913153 0.09917747
-0.35994452 -0.079700254 -0.12610194 -0.1861538 0.32448348 -0.32545158 0.3995107 0.0007722596
-0.27482992 -0.01674617 -0.23825924 -0.035415612 0.1716532 0.0066064303 -0.36629182 -0.18826993
-0.102938846 -0.35319993 -0.12300143 -0.22660951 -0.27768582 0.010567955 0.577381 -0.35703692
-0.2705646 -0.16063172 -0.020593688 -0.13413045 -0.10262984 -0.24236333 -0.16578266 0.1433949
-0.4055186 -0.2828555 0.0039919103 0.10577333 -0.013115398 0.2015246 0.0018117637 0.083361834
-0.05386317 -0.25385386 -0.34196255 -0.23328924 0.07851107 0.010626312 -0.25187704 -0.06725288
-0.12515856 0.5176152 0.042465795 -0.22214201 0.5833737 -0.57272184 -0.17893803 -0.026794171
0.046726145 0.37422466 -0.0016589388 -0.10134567 -0.06958101 0.35890776 -0.23822595 -0.013510029
0.101359226 -0.056087665 0.70093644 -0.22338594 -0.06439591 -0.031203387 0.3039564 0.31054848
-0.24378975 -0.0882269 -0.29348207 -0.2776559 0.28715613 0.6023317 -0.024051026 -0.093390666
-0.07043113 0.27594042 0.1262679 0.2390195 -0.28553098 0.4783283 -0.12579893 0.2775376
-0.3876728 -0.05046677 -0.6125994 -0.14728387 -0.2014663 0.031017466 0.03583846 0.22090499
0.095169 0.05159252 0.77866954 0.35311055 -0.2689419 0.5194886 0.28778586 0.517703
0.012822393 -0.064835265 0.43916577 -0.14279325 -0.20737694 -0.062244948 0.17562895 -0.24277994
-0.19772051 -0.0038704742 0.50881004 0.55756503 0.11692717 -0.25287578 0.24710521 0.038239617
-0.3081599 0.05829972 -0.17851706 0.03676775 -0.35345158 0.17981094 0.020947397 -0.017798077
0.7717283 0.3739954 0.012142979 0.03718606 0.005128623 -0.27613395 -0.0122599425 -0.1342212
-0.18022044 0.13865833 -0.5633042 0.06291191 -0.35465738 -0.0077028526 -0.5178678 -0.057056274
-0.21755151 0.9784486 0.8019094 0.18037577 -0.23540626 -0.1947529 0.05353523 0.37642276
0.14766157 0.32443327 0.12346791 -0.13087173 0.17517313 -0.16171065 0.0029646326 -0.13939178
0.18500724 0.2033908 0.22731657 0.27396882 0.0015791329 0.54462945 -0.006930843 0.22191648
0.028286327 -0.3696877 0.079962604 0.2902504 0.36921722 0.11969674 -0.09725136 0.028252553
-0.06641041 0.06688187 0.43694457 -0.16537896 -0.004795485 0.4078769 0.029832298 0.23029312
00000000: 1f98 d0bd 2728 b6bd 1d2a b33d df82 263e
00000010: a50a 13be af31 363d 6419 11be 92f7 d9bd
00000020: 5a2f 0e3e 6c7f 69bb 230c 90bd 09fa f03d
00000030: b14f 12be 3f91 8ebe ac22 9b3c d8c1 00bf
00000040: ac75 d13d c493 98be 9123 c03c a915 90bd
00000050: 0dc4 94b9 07c5 5c3e 41c3 5bbe fdbf 82be
00000060: fe9d 183e e063 a3bd 4e29 8fbe cbff 3abd
00000070: 306a 323d d8b7 b1bd fc00 cbbd 2031 2abe
00000080: 9e70 9bbd 72d2 2bbe c12b d53e 1a0c 3fbe
00000090: 18ff 493e 9c01 f0bd 992c 823e 9015 f4bd
000000a0: c50d 0dbf 690f 733e bc7c f03b fa55 2abe
000000b0: 57f6 34be fa1f 2abd d7f7 0fbd 2e5d 2dbf
000000c0: f157 1e3e 49cd 183b dacf b6bd 037d 9f3d
000000d0: ac81 60bd b59d 0b3d 83e6 1bbe 3832 21bc
000000e0: ba38 b7bd 5b41 a6bb cb61 18be 7e38 fd3c
000000f0: eb4b a4bb 3761 0a3e 8b8d 0ebe e160 14bd
00000100: b756 95bd 777b 0f3e 6ea7 9bbd 0e58 24be
00000110: 2414 33bd ef60 1bbe b2ab 41be 8f1d cb3d
00000120: a64a b8be e339 a3bd de20 01be 1a9f 3ebe
00000130: b322 a63e 97a1 a6be ab8c cc3e 7771 4a3a
00000140: 82b6 8cbe 442f 89bc 3bfa 73be f60f 11bd
00000150: dbc5 2f3e c17a d83b 9a8a bbbe d5c9 40be
00000160: 9ad1 d2bd 9fd6 b4be 2ce8 fbbd 530c 68be
00000170: d62c 8ebe 3725 2d3c 3ecf 133f 8bcd b6be
00000180: 7187 8abe a47c 24be 18b4 a8bc 7e59 09be
00000190: 982f d2bd 182e 78be eec2 29be 1dd6 123e
000001a0: 22a0 cfbe 70d2 90be 92ce 823b b09f d83d
000001b0: f7e1 56bc 775c 4e3e b478 ed3a 9cb9 aa3d
000001c0: a19f 5cbd 22f9 81be b715 afbe 60e3 6ebe
000001d0: 69ca a03d fc19 2e3c 07f6 80be e1bb 89bd
000001e0: 9129 00be 6e82 043f 9df0 2d3d 3279 63be
000001f0: fb57 153f e69d 12bf 883b 37be 737f dbbc
00000200: ea63 3f3d 609a bf3e c070 d9ba 528e cfbd
00000210: 7d80 8ebd c2c2 b73e 81f1 73be 2b59 5dbc
00000220: 6d95 cf3d 2ebc 65bd 9270 333f 49bf 64be
00000230: 01e2 83bd 3f9e ffbc 2ca0 9b3e 3600 9f3e
00000240: 05a4 79be 4eb0 b4bd 4843 96be ea28 8ebe
00000250: 2106 933e 6932 1a3f a806 c5bc 9b43 bfbd
00000260: 323e 90bd 1048 8d3e 5f4c 013e 87c1 743e
00000270: 1e31 92be 72e7 f43e 6fd1 00be 6919 8e3e
00000280: 0d7d c6be 3eb6 4ebd 50d3 1cbf 95d1 16be
00000290: 2f4d 4ebe 5718 fe3c 59cb 123d eb34 623e
000002a0: f7e7 c23d ae52 533d e356 473f e8ca b43e
000002b0: c1b2 89be 34fd 043f ab58 933e 2f88 043f
000002c0: 0415 523c 5ac8 84bd 56da e03e 6538 12be
000002d0: 9f5a 54be 8ff4 7ebd 13d8 333e 4e9b 78be
000002e0: 3f77 4abe c8a7 7dbb 6041 023f 95bc 0e3f
000002f0: 8377 ef3d ef78 81be 2609 7d3e 25a1 1c3d
00000300: 22c7 9dbe b0cb 6e3d 2dcd 36be c899 163d
00000310: 9bf7 b4be 5c20 383e e099 ab3c 46cd 91bc
00000320: fc8f 453f 537c bf3e 58f3 463c 6950 183d
00000330: 020e a83b 6e61 8dbe eddd 48bc 4871 09be
00000340: b58b 38be 73fc 0d3e b434 10bf f6d7 803d
00000350: a795 b5be 3668 fcbb fc92 04bf d7b3 69bd
00000360: d3c5 5ebe 9c7b 7a3f ef49 4d3f 6db4 383e
00000370: 570e 71be 4e6d 47be c247 5b3d 7cba c03e
00000380: 9834 173e 1e1c a63e bedc fc3d 3d03 06be
00000390: 9660 333e 7a97 25be 484a 423b b8bc 0ebe
000003a0: 8a72 3d3e ae45 503e adc5 683e a445 8c3e
000003b0: e8fa ce3a d66c 0b3f 201c e3bb 133e 633e
000003c0: bab8 e73c b547 bdbe 6fc3 a33d b39b 943e
000003d0: 0a0a bd3e 9023 f53d b92b c7bd e671 e73c
000003e0: 2e02 88bd 5df9 883d 33b7 df3e 1a59 29be
000003f0: 7223 9dbb 3ed5 d03e dd62 f43c f6d1 6b3e

action_layer.bias f4 [4]
0.032733403 -0.18505628 0.36364198 -0.06537895
00000000: 7613 063d 657f 3dbe 482f ba3e 66e5 85bd

value_layer.weight f4 [1, 128]
0.019789582 0.13714643 -0.016069712 0.24712719 -0.009094478 0.043264262 0.024412194 0.11097464
0.17632389 0.15556845 0.043866925 -0.091040745 -0.010095483 0.037311234 0.15988988 0.059579037
0.14139362 -0.14746244 0.05789501 0.06486979 0.1615898 -0.0614803 0.013298417 0.03316282
0.037406046 -0.021323023 0.043560788 0.21697439 0.072101556 0.11250775 0.08353536 -0.027892869
-0.020104611 0.0835168 0.17960939 -0.053348694 -0.10795249 0.12829237 -0.12845361 0.1391416
0.34334946 -0.039206106 -0.0884278 0.0019838905 -0.08844588 -0.07437773 0.06806003 0.052038696
0.18800339 0.09703902 -0.08070842 -0.109380856 0.14838655 0.056326702 0.050446123 0.19129306
-0.008363373 0.07948474 -0.014614653 -0.111761615 -0.054588113 -0.05576125 0.1080992 0.011336641
-0.009895693 -0.09718619 -0.041966636 0.04550067 -0.074253425 0.11912751 0.06905336 -0.08613806
0.080779605 0.1245293 0.074141264 0.07366266 0.17921516 -0.045934908 0.23212497 -0.017824186
-0.0056852275 0.0031136337 0.025221666 0.11759657 -0.09981442 -0.07886816 0.06701023 -0.01592558
0.0094795115 0.04419311 -0.076918855 0.14280845 0.15076625 0.016758988 -0.16324525 0.1450031
0.021262271 -0.1362137 0.007049451 0.10954475 0.029620392 -0.0028945901 0.018640036 -0.039242364
-0.029605312 0.0071750972 0.13262388 0.06112532 0.12551422 0.01565836 -0.03194777 0.081020184
0.133669 -0.017730469 0.061722025 -0.013631978 0.045181815 0.23221627 -0.041571233 -0.0089003695
0.044632167 0.17675884 0.03639591 0.037066117 0.19171262 0.14271294 0.06486729 0.17451979
00000000: c31d a23c 1d70 0c3e a1a4 83bc e90e 7d3e
00000010: 0101 15bc de35 313d 15fc c73c ac46 e33d
00000020: 408e 343e 564d 1f3e cead 333d 9273 babd
00000030: 8667 25bc aad3 183d 2cba 233e 2609 743d
00000040: 7dc9 103e 6500 17be 5123 6d3d 74da 843d
00000050: cc77 253e c4d2 7bbd 9be1 593c bdd5 073d
00000060: 1537 193d 9fad aebc cc6c 323d 892e 5e3e
00000070: fba9 933d 776a e63d 9614 ab3d 967f e4bc
00000080: 6db2 a4bc db0a ab3d 86eb 373e 2984 5abd
00000090: 3216 ddbd 135f 033e 5889 03be 237b 0e3e
000000a0: 80cb af3e 9596 20bd a219 b5bd 2904 023b
000000b0: 1d23 b5bd 5a53 98bd 0f63 8b3d 8726 553d
000000c0: f683 403e 65bc c63d 754a a5bd 1203 e0bd
000000d0: a5f2 173e d4b6 663d 98a0 4e3d 54e2 433e
000000e0: 8706 09bc e5c8 a23d 4c72 6fbc 46e3 e4bd
000000f0: c997 5fbd e965 64bd 1d63 dd3d 52bd 393c
00000100: 8b21 22bc 8e09 c7bd 35e5 2bbd e95e 3a3d
00000110: 2e12 98bd 20f9 f33d d96b 8d3d 2769 b0bd
00000120: c76f a53d 3809 ff3d 60d7 973d 73dc 963d
00000130: 2e84 373e 3e26 3cbd 2bb2 6d3e 0704 92bc
00000140: 254b babb 1b0e 4c3b ab9d ce3c 78d6 f03d
00000150: 816b ccbd a185 a1bd a93c 893d 5d76 82bc
00000160: f44f 1b3c d603 353d a287 9dbd 613c 123e
00000170: 7862 1a3e 254a 893c c329 27be b17b 143e
00000180: 372e ae3c 9b7b 0bbe 15ff e63b ff58 e03d
00000190: 77a6 f23c 2ab3 3dbb fdb2 983c 9abc 20bd
000001a0: d786 f2bc 141d eb3b 8ece 073e 8b5e 7a3d
000001b0: cd86 003e f645 803c aadb 02bd e9ed a53d
000001c0: 87e0 083e 7d3f 91bc 3cd0 7c3d a958 5fbc
000001d0: 9110 393d 1aca 6d3e 9946 2abd dbd2 11bc
000001e0: 38d0 363d 4500 353e e113 153d a4d2 173d
000001f0: 5050 443e 5723 123e 24d9 843d 51b5 323e
